best_model.pth (torch, 9913 bytes, 5 tensors)

conv.0.weight f4 [16, 1, 3]
0.84942514 0.3011891 0.500355 -0.011992715 -0.31963372 -0.91050464 -0.99191505 -0.113446884
0.8855266 0.3584181 0.7190486 0.071330935 -0.85344326 0.58934456 0.745396 0.82462597
0.21186285 0.09800038 0.5051393 0.51945424 0.16707423 0.04991153 -1.029608 0.4428468
0.836505 -0.6318532 0.21761897 0.16479442 0.9879951 0.4731877 -0.37043232 1.1439842
0.06236148 -0.2506055 0.3573073 -0.1547622 -0.21450669 0.4841018 -0.07953997 0.18409625
-1.1904144 0.016168918 0.31467846 -0.5540055 -0.3443749 0.83801687 -0.012469322 -1.1856802
00000000: ed73 593f 7535 9a3e 4417 003f 187d 44bc
00000010: 08a7 a3be d516 69bf 25ee 7dbf d756 e8bd
00000020: dfb1 623f 9482 b73e 9213 383f f415 923d
00000030: 427b 5abf 49df 163f 46d2 3e3f b01a 533f
00000040: 93f2 583e 6cb4 c83d cf50 013f f4fa 043f
00000050: 8215 2b3e 0870 4c3d 32ca 83bf d1bc e23e
00000060: 3125 563f 22c1 21bf 82d7 5e3e debf 283e
00000070: 3fed 7c3f a945 f23e 4ea9 bdbe 136e 923f
00000080: c06e 7f3d 5d4f 80be fcf0 b63e fb79 1ebe
00000090: a4a7 5bbe 31dc f73e dae5 a2bd ba83 3c3e
000000a0: 805f 98bf ae74 843c 891d a13e 4ed3 0dbf
000000b0: e851 b0be 4688 563f 214c 4cbc 5ec4 97bf

conv.0.bias f4 [16]
0.30521178 0.11218031 0.017114358 -0.11253019 0.47115067 0.718686 0.69691586 0.67258203
-0.7809869 -0.23138522 0.3836231 -0.52978927 -0.46059692 0.09054274 0.7951129 0.27908188
00000000: b844 9c3e cabe e53d 6933 8c3c 3a76 e6bd
00000010: a93a f13e cefb 373f 1469 323f 562e 2c3f
00000020: c2ee 47bf 3ff0 6cbe 3f6a c43e 45a0 07bf
00000030: 5cd3 ebbe 796e b93d 858c 4b3f d2e3 8e3e

conv.3.weight f4 [32, 16, 3]
-0.091056615 -0.06967912 0.12715024 0.056861624 -0.010408508 0.34334996 0.26202312 0.1705725
0.45320606 -0.0014773565 0.10538839 0.26513016 0.25802702 0.24180761 -0.30509117 0.12038512
0.18992603 0.021017548 0.0087394 -0.02212457 0.07969511 0.160312 -0.27515876 0.018711247
-0.49701127 0.083774686 -0.39152244 0.14946783 0.17340255 -0.08423935 0.22691114 -0.09927107
-0.34472272 0.32896727 -0.22160548 0.03215752 0.1868821 -0.45624772 -0.11575697 -0.15772891
-0.22828852 0.051076874 -0.034925576 -0.093222685 0.2619632 0.08354696 -0.10111511 0.20148101
0.22284082 -0.003823129 0.21434717 -0.174564 -0.23918238 -0.07470584 -0.20663702 0.4481651
-0.49390307 0.5416847 0.12295861 0.03759733 -0.010221397 0.23270193 -0.3045867 -0.022288011
-0.044940915 0.06874917 0.2622181 -0.14016241 0.045543637 -0.073080696 0.076464936 0.16523165
0.0019156412 0.07844873 -0.20657548 0.28206843 0.043250572 0.1155729 0.12242182 0.08088794
0.038761172 -0.19382775 -0.46934918 0.12441316 0.046088025 -0.057279006 -0.16271846 -0.07963602
-0.034241974 0.09195029 -0.004194605 -0.20332752 0.009510155 0.14948921 -0.2593424 -0.054611087
0.04380494 -0.1424916 -0.13496481 -0.02206135 -0.23998311 0.20827869 -0.14684677 0.1934962
0.15836518 0.011646912 0.12687968 -0.08206455 0.031857412 0.24619852 -0.20605399 -0.20453006
0.06487473 0.012298535 -0.025422415 -0.023897322 0.23410995 -0.30970338 0.06459231 0.025184762
-0.20734593 -0.30368686 0.26536155 0.13704786 0.18553178 -0.21764274 0.024050146 0.11089727
-0.1931546 0.19227745 0.2008215 0.025254192 0.5994536 0.2868085 0.014355459 -0.4053562
0.13037008 0.037133936 -0.26581377 0.05576196 -0.10736236 -0.37003067 -0.23472095 0.2921567
-0.19558768 0.14905046 -0.109293565 -0.23220217 0.07789727 0.059507392 -0.07705279 -0.18260849
-0.067227535 -0.16287337 -0.08797118 -0.045553774 -0.28008443 -0.3182446 0.26708773 -0.08301438
0.12549758 0.021214006 -0.17200892 0.0015657631 -0.24193974 -0.35889322 0.0762509 -0.07618042
0.1893423 0.5181979 -0.30657956 -0.13383712 -0.18936166 -0.17967269 -0.22379586 0.12385439
-0.1837399 -0.03809061 -0.17696394 0.3579044 -0.003293185 0.04780706 0.33507276 -0.07911692
0.21140644 -0.19454622 -0.32403576 0.2135523 0.077036574 -0.13994293 0.29518035 0.040790457
-0.09701265 0.10087798 -0.12441006 -0.36119062 0.20146286 -0.20344688 -0.24114843 -0.01942637
0.22585315 0.102069885 -0.29371905 0.17677157 -0.026111875 -0.19677058 0.26043448 -0.24796394
-0.0703685 -0.054424655 -0.17570035 0.105057076 0.15367961 -0.334028 0.12700042 0.23872304
0.21637455 0.52364236 0.06892917 0.038128763 -0.19141053 0.41776994 -0.027839422 0.22135918
0.20407426 0.08022758 -0.5784562 0.52661484 0.1212829 -0.32142863 0.4364392 -0.75682634
0.28419474 0.08059916 -0.29509106 0.011979989 -0.0374926 -0.3187325 -0.019620277 0.024444232
-0.35365087 -0.38244113 0.060978763 0.107975386 0.08833514 0.112870626 0.15657154 0.16847393
0.24238889 -0.2195391 -0.5074457 -0.030980373 0.07683514 0.15842944 0.15181841 -0.2602592
00000000: e47b babd edb3 8ebd ac33 023e bce7 683d
00000010: 7288 2abc 91cb af3e e527 863e 8faa 2e3e
00000020: a00a e83e dca3 c1ba ded5 d73d 24bf 873e
00000030: 1e1c 843e 6a9c 773e e934 9cbe 798c f63d
00000040: f87b 423e fe2c ac3c b32f 0f3c 963e b5bc
00000050: 3137 a33d d428 243e 9ce1 8cbe 5448 993c
00000060: 4378 febe 1092 ab3d a175 c8be 180e 193e
00000070: 7090 313e ae85 acbd 655b 683e a14e cbbd
00000080: 7f7f b0be 666e a83e 8cec 62be 9bb7 033d
00000090: 055e 3f3e 4d99 e9be fe11 edbd b083 21be
000000a0: 77c4 69be fc35 513d 1f0e 0fbd 89eb bebd
000000b0: 0a20 863e ab1a ab3d 7015 cfbd 0a51 4e3e
000000c0: 6230 643e 768d 7abb d37d 5b3e e8c0 32be
000000d0: 3aec 74be 60ff 98bd a898 53be e575 e53e
000000e0: dde0 fcbe d9ab 0a3f b9d1 fb3d a8ff 193d
000000f0: a577 27bc 6a49 6e3e caf2 9bbe 5995 b6bc
00000100: f713 38bd 5dcc 8c3d 7341 863e bc86 0fbe
00000110: f78b 3a3d 55ab 95bd a699 9c3d 7c32 293e
00000120: 4116 fb3a baa9 a03d 8688 53be 466b 903e
00000130: 8327 313d 7cb1 ec3d 4bb8 fa3d 94a8 a53d
00000140: 09c4 1e3d c87a 46be 894e f0be 54cc fe3d
00000150: ccc6 3c3d 649d 6abd ab9f 26be 3618 a3bd
00000160: 5041 0cbd 6f50 bc3d e672 89bb 1735 50be
00000170: 7bd0 1b3c b313 193e 87c8 84be e0af 5fbd
00000180: cf6c 333d 51e9 11be 3734 0abe 01ba b4bc
00000190: 22be 75be 0247 553e 005f 16be de23 463e
000001a0: 7b2a 223e b1d2 3e3c bfec 013e 7511 a8bd
000001b0: eb7c 023d 771b 7c3e d1ff 52be 5470 51be
000001c0: 0bdd 843d cb7f 493c ab42 d0bc 51c4 c3bc
000001d0: 85ba 6f3e 7191 9ebe f948 843d 4650 ce3c
000001e0: 7e52 54be d87c 9bbe 78dd 873e 4656 0c3e
000001f0: 0bfc 3d3e bddd 5ebe d004 c53c 1c1e e33d
00000200: 52ca 45be 61e4 443e 27a4 4d3e e1e1 ce3c
00000210: cb75 193f 90d8 923e 2933 6b3c d98a cfbe
00000220: bc7f 053e c119 183d be18 88be a766 643d
00000230: cce0 dbbd a974 bdbe b05a 70be 9095 953e
00000240: 2348 48be afa0 183e 4ed5 dfbd 68c6 6dbe
00000250: 9b88 9f3d 06be 733d dacd 9dbd b8fd 3abe
00000260: 97ae 89bd 47c8 26be 3c2a b4bd 9896 3abd
00000270: 3a67 8fbe f5f0 a2be b9bf 883e 7103 aabd
00000280: 7082 003e ffc8 ad3c 1b23 30be 4b3a cd3a
00000290: 0dbf 77be dac0 b7be 6f29 9c3d 7b04 9cbd
000002a0: f3e2 413e 9ea8 043f fff7 9cbe 990c 09be
000002b0: 06e8 41be 1efc 37be be2a 65be 5fa7 fd3d
000002c0: 5026 3cbe e604 1cbd 0936 35be 3f3f b73e
000002d0: 7ad2 57bb 56d1 433d a88e ab3e 0d08 a2bd
000002e0: ee7a 583e 2037 47be 04e8 a5be 74ad 5a3e
000002f0: 5ac5 9d3d 334d 0fbe e121 973e e513 273d
00000300: 91ae c6bd 1d99 ce3d b4ca febd faed b8be
00000310: 484c 4e3e 6154 50be 9def 76be 0d24 9fbc
00000320: 0c46 673e 040a d13d 5862 96be 9b03 353e
00000330: 92e8 d5bc 3a7e 49be ab57 853e 42ea 7dbe
00000340: 5c1d 90bd 63ec 5ebd cbea 33be 2a28 d73d
00000350: 305e 1d3e b805 abbe 660c 023e d073 743e
00000360: 4a91 5d3e 6d0d 063f bd2a 8d3d e82c 1c3d
00000370: 1f01 44be f1e5 d53e 800f e4bc fbab 623e
00000380: d8f8 503e 5c4e a43d b515 14bf 3bd0 063f
00000390: 2b63 f83d 4b92 a4be f574 df3e 5fbf 41bf
000003a0: f981 913e 2c11 a53d 2d16 97be b747 443c
000003b0: d791 19bd e830 a3be b4ba a0bc 453f c83c
000003c0: ba11 b5be 53cf c3be dec4 793d 3322 dd3d
000003d0: 0ee9 b43d b728 e73d 4a54 203e 6e84 2c3e
000003e0: cb34 783e dcce 60be f6e7 01bf 8dca fdbc
000003f0: be5b 9d3d 543b 223e 4976 1b3e b240 85be

conv.3.bias f4 [32]
0.026003756 -0.0029780883 -0.01607981 0.101039246 0.11137335 0.1383882 0.16000772 0.03839443
0.1727849 -0.030563438 0.005959975 0.14549626 -0.02312832 -0.022663483 0.08577269 -0.012595294
-0.07269697 -0.051785227 0.096084855 0.035255775 -0.042416204 -0.058506712 -0.14779724 -0.084913455
-0.09904104 0.16306987 0.097025305 -0.053498432 -0.15187323 -0.023204478 0.08927655 -0.0034013882
00000000: d405 d53c 082c 43bb ceb9 83bc aaed ce3d
00000010: b617 e43d a3b5 0d3e 10d9 233e 7a43 1d3d
00000020: 86ee 303e 2d60 fabc e54b c33b f9fc 143e
00000030: 9a77 bdbc c5a8 b9bc 98a9 af3d 7e5c 4ebc
00000040: 26e2 94bd bf1c 54bd 23c8 c43d 5c68 103d
00000050: 9dbc 2dbd bca4 6fbd 2958 17be 1be7 adbd
00000060: 07d6 cabd cafb 263e 34b5 c63d 2c21 5bbd
00000070: a884 1bbe 5117 bebc a0d6 b63d d3e9 5ebb

fc.1.weight f4 [1, 32]
-0.58120364 0.3047502 0.29169688 -0.45835748 -0.5894923 -0.31782234 -0.36242655 0.59933585
-0.41811523 0.27568507 -0.3140774 -0.5617407 0.5983142 0.3815639 -0.30709377 -0.31603983
0.501628 -0.5999793 0.69515073 0.43857798 0.42037678 -0.5845323 0.26521006 0.28387213
0.26897767 -0.40263772 0.32243896 0.28276235 -0.043993864 -1.3771461 -0.378393 0.4823849
00000000: c3c9 14bf 3808 9c3e 4b59 953e d5ad eabe
00000010: f8e8 16bf 9cb9 a2be f98f b9be 136e 193f
00000020: 3313 d6be 9826 8d3e c1ce a0be 3dce 0fbf
00000030: 1f2b 193f 585c c33e 653b 9dbe f9cf a1be
00000040: b16a 003f 3e98 19bf 66f5 313f 4b8d e03e
00000050: a03b d73e e9a3 15bf 9dc9 873e b057 913e
00000060: 71b7 893e 8826 cebe b816 a53e 3ac6 903e
00000070: e932 34bd 5346 b0bf babc c1be 27fb f63e
