best_stroke_mlp.pth (torch, 39605 bytes, 5 tensors)

net.0.weight f4 [128, 5]
00000000: 0724 383e 3617 24be 7b95 da3d 8243 b63e
00000010: 7af1 86be 2a85 3a3e 35cc a43e f69d 07be
00000020: 5224 a8be 233b 343e 9eac dfbe 7fc6 b6be
00000030: 16af 4d3e 0dee 8e3e 30a5 e73e d0d8 efbd
00000040: 3949 0a3e fa12 6b3e 771b 85be a3b2 5c3d
00000050: 1796 b03d f535 d83e 61be 713e d148 5d3e
00000060: 3ab7 8b3e 4b3b 243e 16dd b43e 8059 bcbe
00000070: 6ec2 993c d8b7 f03d 0f07 853e 0f66 4f3d
00000080: ddcd b63d 18ef 493e aab2 723e 487f 553e
00000090: c750 a7be 9036 d0be 48eb 81be 0c37 81bd
000000a0: aaf6 923e 6409 8ebe da75 703e eeeb ce3d
000000b0: f371 b0bd 8032 dd3e 4ff8 6a3e 0983 97be
000000c0: 9bd5 05be ca98 813e 9fdd 883d 6f36 b13e
000000d0: 8107 b4be 7a56 c1be 92a5 183d 68db d03e
000000e0: a6ff 8abe cfbc 363e d273 8ebe 2392 58be
000000f0: 50aa 5d3e ab1c d5be 432c 1bbe e558 8fbe
00000100: c64b 90bc f565 293d dca7 813d 4913 af3d
00000110: b267 a63e fecc 74be 0d14 b83d cc32 43be
00000120: 49e9 be3e 29e5 19bd 6ee2 86be 37e7 bcbe
00000130: d248 d1be 8c32 743e f8ad b3bd 7875 ec3e
00000140: 1c21 e5bd cb5a ba3c 0430 913e be6c 673d
00000150: 1e6c 63bc 2150 cfbe 95ff a13e 4ad3 a13d
00000160: 05c0 b6bc 3bdf 993e cd0a c53e 6392 f13e
00000170: 0993 2c3e ba00 cebe f8c4 033e b8a4 d03e
00000180: 46cf 48bc b800 cebd 09f9 f33c a626 cdbe
00000190: db54 c2be 9ea4 c53d 9b58 d6be f8c6 4fbd
000001a0: 9646 62be 9dd8 403b dd83 f9bd 144c 133e
000001b0: 3bcc 573e 41fd d53d 6473 ed39 3af3 46be
000001c0: 3bb8 c73d 4872 a0bc cc60 b3be c186 bb3e
000001d0: b92e 24be 2dc2 d73e b474 d7be eabd 933d
000001e0: f2e3 bbbe d610 a23e 4344 2cbf 7589 803d
000001f0: c290 7ebe a888 79bd f819 ee3d 5617 7a3e
00000200: a48d cc3e 2dd4 ac3a bfe6 c73e d0c0 f2bd
00000210: 04f4 87be 73f0 0fbd d767 9ebe 6bdf 9fbe
00000220: cfec 27be 03c1 c23e 0a1a 46be 3e05 9ebc
00000230: b2c0 9b3e d44c edbd aa9b 74bd 2a6b 80be
00000240: 1b9e 163e 713c 523e f52d de3e 5367 ca3c
00000250: 24e0 88be b096 183e c643 d83e 8d42 e83d
00000260: 0f2c de3e e0aa dfbe 95c7 1e3e 22bb 8dbe
00000270: 7b2e 723d 9c46 0a3d 162c f0be edc8 2dbe
00000280: 124e d33e c387 3cbd 57d3 00be 3362 ad3e
00000290: 3c6b b7bd cd80 14bf e288 e2bd 2eb5 bb3b
000002a0: b688 2e3e 56a4 1e3e a93d 963e bbfa a1be
000002b0: da7a 91be b24a 2ebe 8020 6fbe 4d72 12be
000002c0: 25bb c23e 6cee f5be 8157 af3e 30e4 93be
000002d0: 10d0 c43e 2126 cd3e 6319 efbd 571c 3b3e
000002e0: 0789 3abe 9537 bd3e 5db6 2f3d 6411 afbe
000002f0: 365d e2bd 3e86 94be a9fc 8cbd 2440 24bd
00000300: 37ce e7be 1d4b 68bc 4d18 cbbd 1473 5e3d
00000310: 2090 dc3e 3298 9a3e 752b f9bd 6d71 b0bd
00000320: d548 bd3e fe5d 8ebb dd20 b9be 4e63 d83e
00000330: f27a ca3e 6439 a73d 973b dd3d 8814 b5be
00000340: c9e1 26be cbc2 203e 9118 3cbd 9afc 553e
00000350: 3ec0 8c3e 0576 a8be 81e8 0fbf 4896 01bf
00000360: 1078 f03d 2f01 a6be 352f 983e ac74 38bd
00000370: 5037 d93d 8440 ab3e 2f02 5bbe 7783 6f3d
00000380: 4d88 c3be 10e1 cd3c 3759 243e fe64 c3bd
00000390: 2f01 303e 5755 87be 3906 6abe 99cc 7c3d
000003a0: 9fc3 5cbe ae39 eabe 056a 803e 2afd ea3e
000003b0: 435e 6fbc 7c6b 85be ef85 89be 71e1 f6be
000003c0: f33d 073e 544f 033d 32c6 3b3e 4152 03be
000003d0: c4d6 a33e 83fc a13e 7d51 acbe f98b a4be
000003e0: e5e4 343e 599d 8abe 1272 b43e 27f3 63be
000003f0: d3c1 b7be 1c91 a03e ac02 813e 5689 e33e
0.17982493 -0.1602448 0.106730424 0.3559838 -0.26356107 0.1821486 0.32187048 -0.13243851
-0.3284021 0.17600684 -0.43686384 -0.35698316 0.20086321 0.27915993 0.45243216 -0.117112756
0.13504495 0.22956458 -0.25997517 0.0538813 0.08622377 0.42228666 0.2360778 0.21609809
0.27288228 0.16038243 0.35324925 -0.36787033 0.01876947 0.117538154 0.25981948 0.05063444
0.08925984 0.19720113 0.23700967 0.20849335 -0.32678816 -0.40666628 -0.25374818 -0.063093275
0.28703815 -0.2774154 0.23482457 0.10103594 -0.08615484 0.4320259 0.22946285 -0.2959216
-0.13069765 0.2531188 0.06682896 0.34611842 -0.35161975 -0.3776129 0.037267275 0.40792394
-0.2714817 0.17845462 -0.2782274 -0.21149497 0.21647 -0.41623434 -0.15153603 -0.2799751
-0.017614257 0.041357 0.06330845 0.085486 0.32500988 -0.23906323 0.089881994 -0.19062346
0.37287357 -0.03757206 -0.26344627 -0.36895153 -0.4087587 0.23847407 -0.08773416 0.46183372
-0.11187956 0.022748372 0.28356946 0.05650019 -0.013880758 -0.4049082 0.31640306 0.07901628
-0.022308359 0.30053124 0.38484803 0.47181997 0.16852964 -0.4023493 0.12868106 0.4075067
-0.012256449 -0.10058731 0.029781835 -0.4006855 -0.37955365 0.09650539 -0.41864476 -0.05072686
-0.22097239 0.0029425987 -0.12183354 0.1438449 0.21074001 0.10448695 0.00045290135 -0.19428721
0.09751936 -0.019585744 -0.35034788 0.36626247 -0.16033448 0.42140332 -0.42081225 0.072139576
-0.36697346 0.3165347 -0.6729166 0.06276218 -0.24859908 -0.06092134 0.11626047 0.24422964
0.39951813 0.0013185792 0.39043233 -0.11853182 -0.26553357 -0.03514142 -0.309386 -0.31225142
-0.16398929 0.3803788 -0.1934587 -0.019289609 0.30420452 -0.115869194 -0.059718765 -0.2508176
0.1470875 0.20530869 0.43394437 0.024707472 -0.26733506 0.14901233 0.42239207 0.113408186
0.4339299 -0.43685055 0.15505822 -0.27681834 0.05912636 0.033758745 -0.46908635 -0.16971178
0.412705 -0.04602791 -0.1258062 0.33863983 -0.08956 -0.58009034 -0.110612646 0.0057283854
0.17044339 0.15492377 0.29343918 -0.31636605 -0.2841404 -0.17020682 -0.23352242 -0.14301415
0.38033405 -0.48033464 0.34246448 -0.2888503 0.3843999 0.40068153 -0.11674764 0.1827253
-0.18216334 0.36956468 0.042898525 -0.34192955 -0.11052935 -0.2900867 -0.068841286 -0.04010023
-0.45274517 -0.014178065 -0.099167444 0.054308966 0.4307871 0.3019424 -0.12166492 -0.08615384
0.3696963 -0.004344701 -0.36157885 0.42263263 0.39546925 0.08165243 0.108023815 -0.35367227
-0.16297068 0.15699308 -0.045921866 0.20897141 0.2749042 -0.32902542 -0.5621415 -0.50619936
0.1174165 -0.32422778 0.29723516 -0.045033142 0.10606253 0.3344766 -0.21387552 0.058474984
-0.38189927 0.025131732 0.16049658 -0.09540747 0.17187952 -0.26432297 -0.22853936 0.061718557
-0.21558999 -0.4574713 0.25080886 0.45896274 -0.014609876 -0.26058567 -0.26859996 -0.48218873
0.13207226 0.032058075 0.18337324 -0.12824346 0.3199979 0.31637964 -0.3365592 -0.3213804
0.17665441 -0.27073172 0.3524328 -0.22260724 -0.35890064 0.3136071 0.2519735 0.44440717

net.0.bias f4 [128]
00000000: c280 e0be cf96 753e 5a2a 66be b2f9 2ebe
00000010: f866 57be b928 8dbe 0112 87bd 6879 1b3e
00000020: 7d7e 11be 1f6b 723e d02a 95be ab0c aa3e
00000030: 4dfe 6d3d c921 b83d 9a6f 11be 02f4 6c3c
00000040: 68d3 ca3e 1768 32be 25b0 debd f2a0 253e
00000050: 09de 8dbe f3db a9be 7849 a33e 9751 1f3d
00000060: a24e 7fbd e0da 0bbe db5d 973e ce5e 7dbd
00000070: 7428 853c 7349 ac39 74e0 e63e 1362 55be
00000080: f198 b63e 85f2 513e 9e51 1c3e dded b23e
00000090: 035d 493e 1a09 ae3e 6791 24be 5dac a3be
000000a0: 6845 40be 686d b23e 6674 953c 70bf aa3d
000000b0: 059b 90be 09d4 2dbd 4982 263e bb6f 703d
000000c0: 395b 9abe f17b d03d 2d47 703e 36df 7bbe
000000d0: babe 5fbe 0a0c bcbe 2a3f 673e 1dae 31ba
000000e0: cb57 c83e 2a31 fd3d a2bd 903e 0472 f13d
000000f0: 53e3 83be ddef aabe 0102 d5be af59 f93e
00000100: c156 913e ce3d ddbd e30d 19be c949 79be
00000110: afff c7bd c210 dd3e f179 9c3d 62d1 bb3e
00000120: 57be 7dbe cfc2 91be c63b c1bd acae 42be
00000130: 5f51 673d fc36 aa3d 1e8c 84be d247 c5be
00000140: 7388 993e 65d4 2fbe 4f56 e2bd 12c7 25be
00000150: 7832 cd3d 060c c6be 015d 193c 12f5 0bbe
00000160: 13eb 4cbe e000 e2be de86 d3be 2504 82be
00000170: 7d2c f3be 5cfb 5e3e 2703 a63c 308f 7cbe
00000180: 7527 57bd 96fc e53c 6df0 c93e 5f78 393d
00000190: eae4 0abe d88c 8c3e aeb4 bcbd 3615 833e
000001a0: c47e b6be 20a2 e03d 85a2 af3d b96d 82be
000001b0: c0d9 cc3e 9c48 40bd 6bc6 8fbe c520 8b3e
000001c0: 7f4a 7ebe ba2c 08bd 4a91 f1bc 3278 7fbe
000001d0: a379 9c3e c2bc dc3e 4381 263d f82a 69be
000001e0: b361 adbe 6935 b43e 6c90 333e b22a b23e
000001f0: 0298 b73d 1eb5 c8bd dcfd 903e 3bf6 0b3d
-0.43848234 0.2398331 -0.22477093 -0.17087439 -0.21035373 -0.2757013 -0.06595231 0.15183032
-0.14208408 0.23673676 -0.29134226 0.3321279 0.05810385 0.08990819 -0.14202729 0.014462473
0.39614415 -0.1742252 -0.10873441 0.16174677 -0.27708462 -0.3317562 0.3189199 0.03889617
-0.06233085 -0.13657713 0.29563794 -0.06185799 0.016254641 0.0003286112 0.4509312 -0.20838194
0.3566356 0.2050267 0.1526551 0.349471 0.19664387 0.3399132 -0.16071092 -0.3196744
-0.18776476 0.34849095 0.01824398 0.08337295 -0.2824327 -0.04243854 0.16260637 0.058700304
-0.30147722 0.1017989 0.23464651 -0.24596867 -0.218501 -0.36727935 0.22582689 -0.0006777959
0.3912948 0.12362893 0.28269678 0.11789325 -0.25759372 -0.33386126 -0.4160309 0.48701236
0.283865 -0.10802804 -0.14946704 -0.24344553 -0.09765565 0.43176848 0.07640446 0.36683184
-0.2477964 -0.2846894 -0.09435229 -0.19011945 0.056474086 0.08311269 -0.2588815 -0.38531357
0.29986915 -0.17170866 -0.11051618 -0.1618922 0.10019392 -0.38681048 0.009360553 -0.13667706
-0.20011549 -0.44141293 -0.41313833 -0.25393787 -0.4749488 0.21775573 0.020265175 -0.24663997
-0.052527864 0.028074544 0.39441243 0.04528081 -0.13563886 0.27451205 -0.092141494 0.2560212
-0.3564359 0.10968423 0.0857592 -0.25474337 0.4000988 -0.046944246 -0.28081068 0.2717344
-0.24833106 -0.03324578 -0.029488225 -0.24948195 0.3056155 0.4311276 0.040650617 -0.22770298
-0.338636 0.35197 0.17535561 0.347982 0.0896454 -0.0980017 0.2831868 0.03417037

net.3.weight f4 [64, 128]
00000000: 147d 56bd 4c74 afbd a8e6 cf3b e63b 09bd
00000010: 83c5 81bd 418f f43c a05a 90bd 94a6 a8bd
00000020: 37f9 fa3c b7da 92bd 0edc df3d cbbc 433c
00000030: 6188 d83b c46e 19bd 90f6 b6bc 3154 0dbc
00000040: f35f a0bd 7dec a03d b575 bbbd 5499 a8bd
00000050: f48c d03d 81c0 543d 7823 97bd 5c65 4b3d
00000060: dc69 1fbd 6ed9 943d a6dc 62bc 7d4a 72bd
00000070: b59c 673d 8d6c 1e3c 8a07 cebc cb85 e53c
00000080: 1a58 edbc bba7 af3c 500e 243d a2e0 7cbd
00000090: 4b8a d03c dd64 e0bb 68c9 f63b 7257 023d
000000a0: 797c dabc 1679 b7bd 0579 abbd 786e b33c
000000b0: 056e c2bb 004f 6c3c c055 053d ce13 a3bd
000000c0: 3944 5d3d 514e 823d fbd1 2abd 71c5 23bc
000000d0: 10fa c43b 19d7 4c3d ae55 763d 3183 a0bd
000000e0: f115 8abd 5e78 b8bd 42b4 adbd 807f 1e3d
000000f0: 7850 33bd 5b62 343d 7d6d bfbc ef8b 423c
00000100: e551 653d a534 3bbd df13 89bd 3a35 89bc
00000110: b877 62bd 37f1 bc3c d92d b0bd 67ef 0bb9
00000120: 53f4 21bd 7c73 733d d350 7c3c 118f 27bc
00000130: f6ea b0bc 5865 ac3d 16cb a1bc b63d e0ba
00000140: 8d84 9e3d c8a0 acbd 9b15 bcbc 4d27 4b3d
00000150: 14f3 9cbd 30e0 ed3c 6d81 b3bd 218c aabd
00000160: c235 b1bd 5cd3 53bd 93ef 3c3d 851c 8e3c
00000170: 41c2 78bc b6f4 613c 8548 2fbd 5426 e2bc
00000180: d69b 96bb 0ac8 c0bd bfa4 abbc 9cfd 0cbd
00000190: 037c 4ebd 9a40 5dbd 8a11 3dbb f57e 24bd
000001a0: 8d06 87bc 7d2a 863d 7f08 dd3b 7c30 5fbd
000001b0: c9b0 953d c690 30bd 8d92 92bd 799c 9cbd
000001c0: 6a14 693d 4386 173d 5abd 593d 1acf e03c
000001d0: 293c 41bc c789 7ebd 9dc3 b1bc f236 aebd
000001e0: 068c 5fbc 3f25 72bd 6e33 12bd 0808 86bd
000001f0: 8281 473b f52a 38bc c154 6cbd 0a83 f7bc
00000200: 93ed a8bc 18e8 4e3d 488f 0fbe 55bc 2d3d
00000210: 323a 443d 58d7 9dbc ba03 8bbd 4ada 633d
00000220: ee88 ac3b 191c 0f3d 3076 003c 098a e23c
00000230: db7e d33d fc87 b83a 0b1d 38bd 49bd 953d
00000240: e9a0 96bc 2f3b 71bd c30a a53d af35 203d
00000250: 8254 01be a4be dbb9 0210 903c 1b3a 70bd
00000260: 6c30 043d b314 fe3b 252d e63d a17f 20be
00000270: 3ce8 1abd d163 5e3d f589 cb3c a794 8abd
00000280: 055d bf3d dd75 e6bc dc33 1abd 94d5 78bc
00000290: 140e 18bd b4e3 de3d cfb5 c1bd 7f70 0a3d
000002a0: 3d38 8b3d a464 91bd c54f 873d 408a 40be
000002b0: 6c8d ac3c 7d7b 4bbd 5649 0abc a7ae 6b3d
000002c0: 1bed b33d 237f 75bc 2469 2d3c a7a8 873d
000002d0: 647f c2bd 6bb0 d93d a6e7 c13c 8c8c 683b
000002e0: 8310 17bd ff8e 203d e910 3e3d 1854 13be
000002f0: 58a2 593d 81be cbbd 265d 74bd 055b 8c3b
00000300: 1e1e 7c3d dd1c 39be ecee 6abd 6f19 84bd
00000310: 1279 2fbd 2a47 0bbd f227 2d3d 4d02 80bd
00000320: 0c3a bb3d ef4f 383c 70f2 4ebd 9206 83bc
00000330: ce1e 013d 28c5 8a3c 866b 96bd 5867 b4bd
00000340: 8701 233d 77ad b6bd 5706 57be e36b 483d
00000350: 456f 06bb 5167 853b f78f c2bd 542e 9d3c
00000360: 99a4 41bd 9ce0 70bd 171a 9c39 3da2 edbd
00000370: d15b 94bd 5d25 7f3d 829a 7d3d f795 8bbd
00000380: b889 a03d 433b ee3c 30c1 933d 024b 803d
00000390: d6c8 7b3d a2c1 8bbc 6807 89bd b425 4d3c
000003a0: fe18 013d 4438 9dbd 1141 5cbc 0a42 3c3d
000003b0: b175 1cbb 60a9 35bd 0958 e0bc 02d0 dcbc
000003c0: a793 60be 19e3 85bc 705f 3f3d b695 c33d
000003d0: 386a 11bd d52d 92bd c1a4 77bd cef9 f6bd
000003e0: cc3f 3e3d 1c43 49be a330 48bc 424e 59bd
000003f0: 5071 4cbd 55e9 dd3d b4b6 403c 940a 8c3d
-0.052365378 -0.08567104 0.006344635 -0.03350439 -0.063365005 0.029853465 -0.07048535 -0.08234897
0.030636413 -0.07170623 0.10930644 0.011946867 0.0066080545 -0.03745915 -0.022334367 -0.00862603
-0.07830801 0.078576066 -0.0915331 -0.0823237 0.10183135 0.0519414 -0.07379812 0.04965721
-0.038919315 0.07268034 -0.013846552 -0.05915307 0.05654593 0.009669435 -0.02515008 0.028017899
-0.028972674 0.021442285 0.040052712 -0.061737664 0.025456568 -0.0068479613 0.0075313337 0.031821676
-0.026670681 -0.08958642 -0.08372692 0.021903262 -0.0059335255 0.014423132 0.03255248 -0.07962762
0.05402014 0.06362594 -0.04170416 -0.009995804 0.006011255 0.05000982 0.060140304 -0.07837523
-0.06742466 -0.09007333 -0.08481647 0.038695812 -0.043777913 0.04403911 -0.023367638 0.011874183
0.055986304 -0.045704503 -0.06693243 -0.016749013 -0.055289954 0.023064239 -0.08602495 -0.00013345257
-0.039539646 0.059436306 0.015400129 -0.010226981 -0.021596413 0.08417767 -0.01975016 -0.0017108235
0.07740126 -0.08429104 -0.022959521 0.049598027 -0.07663551 0.029037565 -0.087649204 -0.08327509
-0.086528316 -0.05171524 0.046126913 0.017347584 -0.0151830325 0.013791254 -0.04279377 -0.027606167
-0.004596214 -0.094131544 -0.02095258 -0.03442155 -0.050411236 -0.054016687 -0.0028849565 -0.04016014
-0.016482616 0.06551073 0.0067453976 -0.054489598 0.0730911 -0.043106817 -0.071568586 -0.07647032
0.056904234 0.036993276 0.053159095 0.027442504 -0.011794128 -0.062143113 -0.021699721 -0.08506574
-0.013644224 -0.059117552 -0.03569358 -0.065445006 0.0030442183 -0.0112407105 -0.057698015 -0.030213851
-0.020621097 0.05051431 -0.14019501 0.042415936 0.047907062 -0.019267723 -0.0678782 0.0556281
0.0052653467 0.034938905 0.007840678 0.02765371 0.1032693 0.0014078612 -0.044949573 0.07311494
-0.018387275 -0.058894332 0.08058693 0.039113697 -0.12629893 -0.00041912973 0.017585758 -0.058649164
0.03227274 0.0077539324 0.112390794 -0.15673687 -0.037819132 0.05429441 0.024846056 -0.067666344
0.09343914 -0.028132373 -0.037647113 -0.01518764 -0.0371228 0.10883275 -0.09458505 0.03379869
0.06797836 -0.07099274 0.06607012 -0.18802738 0.021063529 -0.049678314 -0.008440336 0.05753961
0.08785459 -0.014983925 0.0105841495 0.06623965 -0.09496954 0.10629352 0.023670029 0.0035484163
-0.03688098 0.03919887 0.046402846 -0.14387548 0.05313334 -0.09948445 -0.059659146 0.0042833113
0.06155216 -0.18077417 -0.05735676 -0.064501636 -0.04284007 -0.034003414 0.042274423 -0.06250439
0.09141931 0.011249526 -0.050524175 -0.015994344 0.03152352 0.016939715 -0.07344727 -0.08808774
0.03979638 -0.089198045 -0.20998512 0.048931014 -0.00205131 0.004071154 -0.09500115 0.01918713
-0.047276113 -0.058807954 0.00029774077 -0.1160321 -0.07244075 0.06229149 0.06191493 -0.06815713
0.07838768 0.029080993 0.07214582 0.062643066 0.06147083 -0.017060105 -0.06690866 0.012521196
0.031517975 -0.076767474 -0.013443247 0.045961417 -0.002387386 -0.04435098 -0.027385728 -0.026954655
-0.21931325 -0.01634364 0.046721876 0.095500395 -0.03550169 -0.07137648 -0.060459856 -0.12059365
0.04644756 -0.19654506 -0.012218627 -0.053053148 -0.04991275 0.1083552 0.01176231 0.06837955

net.3.bias f4 [64]
00000000: d24f efbc cc8b c73d ff9c 9c3b 6d70 a2bc
00000010: 4aba 7bbc 0795 8a3d fded 89bd d390 873d
00000020: ef2b 58bd daaf 40bb a98f bb3c daee bd3d
00000030: 04ff 9fbd a9ab b7bd 7b9e 88bd 9f27 153d
00000040: ac9d 77bd 508a 04bd cc0e 8f3d 5bd5 f43d
00000050: 6e29 fe3d 71d3 6d3d 5cd7 3a3d 71d1 363e
00000060: 4cbb 7e3d ec3c 593c b816 863c 01c8 c93c
00000070: 1baf 8abb 3136 00bd 0c1c ed3d 1b12 323d
00000080: 6a49 ecbc c43b 7fbd 3b21 f03c b6bb 20bd
00000090: 988b c5bd 0d10 393d 6bd6 4c3d 6767 463d
000000a0: 17cf c5bb c81b 9a3d bfe9 753d 258d 473d
000000b0: 9c56 e33d 83b5 ad3c 54e9 1d3c 6551 0e3e
000000c0: 9f4e acbd e382 c63d f6f4 26bd f072 d23b
000000d0: 4e36 a3bd 0a44 9f3d acdd 603d fdc8 94bc
000000e0: 4d9d e6bc bd42 233e 5ef0 0b3e b779 aa3d
000000f0: 9b93 babd b3e5 a63d 100c 0c3d b73f a2bd
-0.029212866 0.09743461 0.0047794576 -0.019829 -0.015364239 0.06766706 -0.06734846 0.0661942
-0.052776273 -0.002940169 0.022895651 0.09274073 -0.07812312 -0.089682885 -0.06670853 0.03641474
-0.060453102 -0.032358468 0.06985244 0.11954757 0.12410246 0.058062974 0.04561554 0.17853333
0.06219034 0.013259154 0.016368255 0.024631502 -0.0042323 -0.03130168 0.11577615 0.043474298
-0.0288436 -0.062312856 0.02931272 -0.039241515 -0.09645766 0.045181323 0.050009172 0.048438456
-0.00603665 0.0752483 0.06003737 0.04871859 0.11100504 0.021204716 0.009638149 0.13898237
-0.08413433 0.096929334 -0.040760957 0.006422393 -0.07969342 0.07776649 0.054898903 -0.018162245
-0.028151179 0.15943427 0.13665912 0.083239965 -0.09110185 0.081492804 0.03419119 -0.07922309

net.6.weight f4 [1, 64]
00000000: bbae 41bc 8b83 033e faed 02be 2caf c53d
00000010: b71e 0dbe 9227 02bd b059 dabd 67f0 febd
00000020: 97e5 9c3c 8a81 b03b 40b1 21be 83c1 11be
00000030: b861 bdbc 78af 0bbe 6f15 25be 77cc c13d
00000040: e16b 22bd c4ff 9cbd 9f3c 70bd 3d18 bb3d
00000050: 15ad 733d 516d a73d be41 7e3b 9558 cb3d
00000060: 0df9 ff3d 9c86 8e3c cd06 f1bc 0fe8 d7bc
00000070: 682e 17be 9210 63be 2fdf edbd 2c19 b3bd
00000080: ee8e f1bd 0f74 aebd 3fa2 29bc 9cca b8bc
00000090: 3064 c03b b711 dbbd 4fad d1bd 5101 093e
000000a0: c627 c93d 386f a43d 5015 9f3d 2214 d43d
000000b0: 5f51 e43d b005 923d 45c0 e6bd 4f2a 933d
000000c0: e6bc 123e cef8 c0bd 7a6f debd ce60 b4bd
000000d0: 2cba 513c 94fa 893d eaac 0dbe 26cf 83bd
000000e0: e472 3d3d a94b 813d 4f19 2c3d 23f9 233e
000000f0: d81f 8cbd b41c c53d 3b07 96bd ad99 09be
-0.011821444 0.12843148 -0.12786093 0.09652552 -0.13781248 -0.03177602 -0.10661638 -0.12448197
0.019152446 0.005386536 -0.15790272 -0.14233975 -0.023117885 -0.13641155 -0.16121458 0.09462827
-0.039653663 -0.07665971 -0.058651563 0.091354825 0.059491236 0.08175147 0.003879651 0.09929005
0.124986745 0.017398171 -0.029422188 -0.026355771 -0.14763796 -0.2217429 -0.116148345 -0.087450355
-0.1179484 -0.0851823 -0.010353624 -0.02255755 0.0058713183 -0.10696738 -0.10238134 0.13379408
0.09822039 0.08029026 0.07767737 0.103554025 0.11148333 0.07129991 -0.11267141 0.07185804
0.14329872 -0.09422456 -0.10861106 -0.088075265 0.0128007345 0.06737247 -0.13835493 -0.06435995
0.046252146 0.06313259 0.042016324 0.16013007 -0.06842011 0.09624615 -0.07325598 -0.13437529
