best_stroke_mlp.pth (torch, 54829 bytes, 15 tensors)

net.0.weight f4 [128, 6]
000000 19 33 c6 3e 8c a4 59 3e 03 16 9c 3e 21 43 93 be
       0.3871086 0.21254176 0.30485544 -0.28762153
000010 bb 58 bd 3e db 67 bb 3e 8f 3d 5a be fe d8 82 be
       0.36981758 0.36602673 -0.21312545 -0.25556177
000020 1a 0f 56 be eb d9 52 be 9e 8c c8 3e 48 5b 69 be
       -0.20904198 -0.20590942 0.39169782 -0.22788727
000030 d3 3e da bd d4 51 92 3e 27 ca c9 be 69 1f 0d be
       -0.10656514 0.28578055 -0.39412042 -0.13781513
000040 45 ea e3 bd ae fa b5 3e ff 31 01 3e d0 e9 9a 3e
       -0.11128668 0.35542816 0.12616728 0.3025651
000050 60 26 8a be 31 01 71 be b0 47 b0 3d 39 c7 bb 3e
       -0.26982403 -0.2353561 0.08607423 0.36675432
000060 b3 ca 98 be 9d 72 0c be 67 1e 9c 3e c2 80 71 3e
       -0.29842147 -0.13715596 0.30491945 0.23584273
000070 ba 96 4e be d6 36 75 be 6e 4e 7d 3e 5c 8e 88 be
       -0.20174685 -0.239467 0.2473695 -0.26671112
000080 bf 93 a2 be 6b 86 ce 3e f9 ae 91 3e ff 81 bf bd
       -0.31753346 0.40336928 0.28453806 -0.09350967
000090 0b 32 95 bc d9 dd 39 3e 6d af c8 3d d4 3e e9 3d
       -0.018212339 0.18151034 0.09799085 0.11388937
0000a0 28 6b aa be 99 83 2f be e4 5f e7 bd 05 c2 03 be
       -0.3328488 -0.17140044 -0.112975866 -0.12866981
0000b0 8e 7c ad be 72 da 1f bd e6 d1 44 be 91 c5 1b 3e
       -0.3388409 -0.039026685 -0.19220695 0.15212084
0000c0 f2 97 ac 3e 91 be ae 3e 99 ce 9a be 24 8c ac be
       0.33709675 0.34129766 -0.30235747 -0.3370067
0000d0 a7 5a b7 3e 6b c5 7b bb 99 1b b6 3e 48 a8 c7 bd
       0.3581135 -0.003841723 0.3556793 -0.09748894
0000e0 9c 18 8b 3e 46 95 d2 bd 68 f4 c6 bd 06 ed fa 3d
       0.27167213 -0.10282378 -0.097145855 0.1225224
0000f0 21 a4 9c be 83 84 b4 3e 19 03 a4 bd fd 98 48 3d
       -0.3059397 0.35257348 -0.08008403 0.048974026
000100 03 a2 c2 be 82 51 43 3d fe ac ba 3e cc 5e 38 3e
       -0.3801423 0.047685154 0.36460108 0.18004912
000110 d0 c4 25 3d 21 d0 a7 3d 61 67 42 3e 48 b4 92 3e
       0.0404709 0.08193994 0.18984748 0.2865317
000120 ba 60 a4 3e ee 52 c0 be 8f 0f a5 3e 63 83 b8 be
       0.32105047 -0.3756327 0.32238433 -0.3603774
000130 a5 96 f7 3d 47 c0 6d 3e b4 cf c6 be 7b 2f 10 be
       0.1208928 0.23217879 -0.3883034 -0.14080612
000140 03 79 95 be 2f 56 7a be 0d f5 0c bd c4 b9 b0 3e
       -0.29193887 -0.24446939 -0.034413386 0.34516728
000150 4e aa b1 3e 69 2d 6c bc 02 68 a4 be 00 15 4e 3e
       0.34700245 -0.0144151235 -0.32110602 0.20125198
000160 ae 61 3e 3e 84 0a 66 bc e8 1b f5 3d a2 bb ba be
       0.1859195 -0.014040593 0.11968213 -0.36471277
000170 73 e0 58 3e f8 eb 32 3e 6f fc cc 3e 2b b5 8a 3e
       0.2117937 0.17472827 0.40036342 0.27091345
000180 ab 4b 9d be fe 5d 81 be 62 07 92 3e 25 83 6e be
       -0.30721793 -0.25267023 0.28521258 -0.23292215
000190 26 76 34 3d 9e 1c 92 3d c6 9c ed 3c b0 49 99 bd
       0.044057988 0.071343645 0.02900542 -0.07484758
0001a0 eb 4d ce 3e 65 0b 37 be e6 6d 00 be cd f9 82 3e
       0.40293822 -0.1787544 -0.12541923 0.25581208
0001b0 bf 4e 65 3d 0f 15 70 3d 8b 40 a5 bc ac d0 b4 3e
       0.0559833 0.058613833 -0.020172378 0.35315454
0001c0 30 0a bf 3e d7 b1 52 be f0 55 ad 3e ca 30 3e be
       0.3731246 -0.20575653 0.33854628 -0.18573299
0001d0 c4 da a4 3d 63 c3 15 3e df 07 20 be aa 32 b1 3e
       0.08049539 0.14625315 -0.15628003 0.34608966
0001e0 c0 e0 cd 3c cc f4 47 be 3e 49 b8 be 48 c6 51 be
       0.025131583 -0.19526976 -0.3599338 -0.20485795
0001f0 d8 7a b2 3e 4f 5b 1d bd 51 25 03 3e 96 a8 c1 3e
       0.34859347 -0.038417157 0.12807204 0.37823933
000200 a5 a6 87 bc fb 7c 5c be df 3b 8e bd d7 6f ad be
       -0.016558954 -0.21532051 -0.06945013 -0.3387439
000210 53 0d 95 be 73 0b 68 3e b0 f7 33 3e c8 c5 6f be
       -0.29111728 0.22660618 0.17574954 -0.23415291
000220 31 09 b4 3e f3 e7 62 be 08 dd a8 bd 48 61 95 3e
       0.35163262 -0.22158794 -0.08245283 0.29175782
000230 35 21 9e bd 49 a5 4f be 4f b3 a1 3e 3a f8 86 3e
       -0.077211775 -0.20277895 0.31582114 0.26361257
000240 27 bf 79 3d 45 11 8b 3e f1 41 84 3e 11 8e f6 bd
       0.060973313 0.27161613 0.2583156 -0.12038816
000250 af d4 96 be cd b8 76 3e bb 19 97 3e e0 15 85 be
       -0.2945914 0.24093933 0.29511818 -0.25993252
000260 cb 54 67 3e 8a 66 64 bd 2a 07 b7 be af 39 d4 3d
       0.2259094 -0.05576185 -0.35747653 0.10362565
000270 d2 44 8b 3e 41 e0 c9 bd 04 55 a9 3d 0c 6a 7c 3e
       0.27200943 -0.09857226 0.082681686 0.24649829
000280 6f 3e 74 3e b0 fe 3d bc 86 a6 cc 3e cd 06 a5 3e
       0.23851942 -0.011596367 0.39970797 0.3223175
000290 92 4e df 3d ef 15 a8 be 88 28 b2 be f9 01 aa be
       0.10903658 -0.32829234 -0.34796548 -0.3320463
0002a0 8c dd cc be 09 e6 5d 3e 72 f8 bf 3d 6e 16 71 be
       -0.40012777 0.21669783 0.09373559 -0.23543712
0002b0 32 c0 5d 3e 45 21 b5 3e 1c df d5 3d 74 ce 3a be
       0.21655348 0.35376945 0.10442945 -0.18242818
0002c0 ee 7c a1 3d 4e 0f 01 3e f2 13 ae 3e d0 58 48 be
       0.078851566 0.12603495 0.33999592 -0.1956513
0002d0 48 1d c5 3e 94 61 0c 3d e3 a9 9b 3e e9 5b c8 be
       0.38498902 0.034272745 0.3040305 -0.39132622
0002e0 35 f2 bb be 12 c6 1f 3e b7 5d 14 be ee 50 9d 3e
       -0.36708227 0.15602902 -0.14488874 0.30725807
0002f0 4e d1 b5 3e c4 38 bb be a7 d8 84 3d 43 bb bb be
       0.3551125 -0.36566746 0.06486636 -0.36666307
000300 1e 54 75 3c 8f 02 a9 be c6 2f c8 3e 63 e6 ac be
       0.014973668 -0.33009765 0.39098948 -0.3376952
000310 34 d5 bf be 9b 5c cd be 95 83 b2 be 0e 44 8b 3e
       -0.3746735 -0.40109715 -0.34866014 0.2720036
000320 21 91 41 be 79 f0 1c 3e f1 f6 a5 3e a5 e9 8b 3e
       -0.18903019 0.15326108 0.32414964 0.27326694
000330 7c 01 c1 3e 47 dc a3 3e b0 25 49 be 22 1b 18 be
       0.37696445 0.32003996 -0.19643283 -0.148541
000340 66 72 30 3e 9e ea a7 3e 73 ed b5 3e 3a 21 ac 3d
       0.1723114 0.32796186 0.35532722 0.08404775
000350 5b 29 45 be a6 67 de 3d a3 79 c6 be f4 59 62 3e
       -0.19254057 0.10859613 -0.38764676 0.22104627
000360 96 b9 ad be 94 19 5a bd 5d 81 30 3e 58 89 6a be
       -0.33930653 -0.05324705 0.17236848 -0.22903955
000370 84 33 c6 be 61 7c 8f 3e e8 be 12 bc 83 6b ab 3d
       -0.38711178 0.2802458 -0.008956648 0.083701156
000380 2d f1 c0 3e 22 62 ea 3d 8a 86 5e 3e b9 ec ca 3e
       0.37684003 0.114444986 0.2173101 0.3963373
000390 09 2f 45 be ec 01 67 3e 08 3f 87 be 1e 37 39 3e
       -0.19256224 0.22559327 -0.26415277 0.18087432
0003a0 fe 8b 30 be b6 a0 b0 bd 48 73 89 3d d8 35 22 3e
       -0.17240903 -0.08624403 0.06711441 0.15840852
0003b0 d8 07 6d 3e 20 a4 dd bc 7a f0 b4 3e 5f 95 a7 3d
       0.23147523 -0.0270558 0.3533972 0.08182787
0003c0 ae 56 18 3e 7c c8 0b be 60 82 40 be e9 03 cf 3e
       0.14876816 -0.13650697 -0.18799734 0.4043267
0003d0 37 3e 25 3e 75 26 c5 be 0d 4f 91 be db 9b b0 3e
       0.16137014 -0.38505903 -0.28380623 0.34493908
0003e0 5d ab 87 3e ec e8 ad 3e 3c c8 95 be da 6d 86 3d
       0.26497927 0.33966768 -0.2925433 0.06563921
0003f0 d2 58 9a 3e 8a ff c7 3c 86 e2 b7 be 49 ac 75 3e
       0.3014589 0.024413843 -0.3591501 0.23991503

net.0.bias f4 [128]
000000 58 98 52 be d0 68 0c 3e 8d dd 27 be 4f b8 47 bd
       -0.20565927 0.13711858 -0.16393109 -0.048759755
000010 f4 e2 91 bd b8 a5 bc 3e aa 2e 02 3e dc ed b4 3e
       -0.07123366 0.36845183 0.12713113 0.35337722
000020 da f7 91 be 5a 6c 9c 3e 6e df d2 bd b1 a9 d4 bd
       -0.28509408 0.30551416 -0.10296522 -0.103839286
000030 29 38 dc bc 29 e6 d3 bd e9 60 a2 be af c0 16 be
       -0.026882248 -0.10346634 -0.31714562 -0.1472194
000040 9b 74 55 bd 7a a6 ad 3e 72 ca 85 3d 67 aa b8 3d
       -0.052113157 0.33916074 0.06532754 0.09016877
000050 54 43 cc 3d 1f 4e 18 be 1a 14 c0 3e 76 bb 88 3e
       0.09973779 -0.14873551 0.37515336 0.2670552
000060 72 f9 5c 3e f6 e0 bd be e6 4d 80 3e 7e a3 64 3e
       0.21579531 -0.37085694 0.25059432 0.22327992
000070 65 23 c3 3e a6 d7 81 3e 45 3d 65 3e 2f 4b 8f 3d
       0.3811294 0.2535984 0.22386654 0.06996762
000080 4b f7 79 3d 04 80 a3 3e af 8a 2e be 77 9e 50 3e
       0.061026853 0.31933606 -0.17045091 0.2037295
000090 ba f3 1b 3e 11 ce 6b be 76 ea c1 3e 22 b3 c7 bd
       0.15229693 -0.23027827 0.37874192 -0.09750964
0000a0 c5 d5 4e 3d 54 7d 0b 3e 4f d1 c8 be 1e a4 a0 3e
       0.050496835 0.13622028 -0.3922219 0.3137521
0000b0 d9 8e 37 bd 56 36 aa 3d 9a c6 b9 bc 70 17 c3 be
       -0.044813965 0.08311145 -0.022677708 -0.3810382
0000c0 a3 e0 c2 3e 9c 8b 24 be c3 32 28 be cc 29 8a be
       0.3806201 -0.16068882 -0.16425614 -0.26985013
0000d0 d5 62 b2 be 38 f5 cd 3e 80 89 a8 3b 85 21 07 3e
       -0.34841028 0.4022615 0.0051433444 0.1319638
0000e0 67 24 12 3e c7 e8 00 3e f3 ec c3 bd b3 45 56 bd
       0.14271699 0.12588798 -0.09566679 -0.052312564
0000f0 b8 ce c6 be 26 4f 83 3e a7 2d af be 82 e1 f9 bd
       -0.3882959 0.25646323 -0.34214517 -0.12201215
000100 21 0f 04 3e 42 0b 7c 3d 13 a1 b6 be b7 f1 f7 bb
       0.12896396 0.061534174 -0.35669765 -0.0075666565
000110 92 1a a2 be ac dc 5b be bb 34 cc 3e 23 e6 32 bc
       -0.31660897 -0.21470898 0.3988398 -0.010919127
000120 b0 87 4d 3e b0 17 2d be 0e 62 66 3c e1 a4 d6 3d
       0.20071292 -0.16903567 0.014061464 0.10480667
000130 aa db ce 3e 47 08 50 3e 00 90 67 be d7 6a 05 be
       0.40401965 0.20315658 -0.22613525 -0.13029037
000140 8c 32 b1 be 06 cf 8a 3e cc 0a 0e 3e 13 7e 95 be
       -0.34608877 0.2711107 0.13871306 -0.2919775
000150 3c 1f 81 3e f0 ea cd be c3 6e 10 3e b7 e8 52 bd
       0.25219142 -0.40218306 0.14104752 -0.051491465
000160 b6 a6 90 3e 6e cb 59 3e 96 cc be bd 11 21 2c be
       0.2825219 0.21269009 -0.093163654 -0.16809489
000170 45 b5 d5 bd a3 19 4f be f6 80 4d bd 33 10 b8 3e
       -0.10434965 -0.20224623 -0.050171815 0.3594986
000180 77 63 8f be ea 65 33 bb e7 94 a1 be 30 cd 85 3e
       -0.28005573 -0.0027373978 -0.31558916 0.26133108
000190 05 87 70 bc 27 43 1d be 8a 2f 3c 3e 41 82 50 bc
       -0.014680629 -0.15357648 0.1837751 -0.012726367
0001a0 ac 6c bb be 64 b1 0b be fd 81 79 be 6d 12 ce be
       -0.36606348 -0.13641888 -0.24365993 -0.40248433
0001b0 a6 d4 13 3d 9a 21 fa bd 2e 0a 91 bd e5 91 34 be
       0.03609147 -0.1221344 -0.0708202 -0.1763378
0001c0 32 bb 82 be fc e8 cf be 26 6d 92 3e ba 6e ca be
       -0.25533444 -0.4060744 0.285989 -0.39537603
0001d0 68 84 a6 be f3 7e 72 be 5e 26 09 be a1 84 ba 3e
       -0.32522893 -0.2368124 -0.13393542 0.36429313
0001e0 a5 58 fb bc 01 da ec 3b 9a 09 5b 3e cf 33 52 3e
       -0.030681917 0.0072281365 0.21390381 0.20527576
0001f0 bd 83 cd 3e c5 06 05 be ae b6 84 be 50 ab 95 be
       0.4013957 -0.12990864 -0.25920624 -0.29232264

net.1.weight f4 [128]
000000 09 09 80 3f 55 e6 7f 3f f7 0a 80 3f ad f3 7f 3f
       1.0002757 0.99960834 1.0003346 0.99981195
000010 07 0d 80 3f e3 01 80 3f c0 ec 7f 3f 22 ee 7f 3f
       1.0003976 1.0000576 0.99970627 0.99972737
000020 4c 0f 80 3f 3a 10 80 3f 19 e3 7f 3f 2a 0d 80 3f
       1.0004668 1.0004952 0.999559 1.0004017
000030 b0 0d 80 3f f1 df 7f 3f 9b f9 7f 3f 0a e7 7f 3f
       1.0004177 0.9995108 0.9999024 0.9996191
000040 88 f7 7f 3f ac e0 7f 3f e3 e7 7f 3f c0 07 80 3f
       0.9998708 0.999522 0.99963206 1.0002365
000050 05 0e 80 3f b5 e2 7f 3f 2d fe 7f 3f 3b e2 7f 3f
       1.0004278 0.999553 0.99997216 0.99954575
000060 36 07 80 3f 2c 01 80 3f db 08 80 3f 65 0f 80 3f
       1.0002201 1.0000358 1.0002702 1.0004698
000070 3d e8 7f 3f 7e 0e 80 3f 67 02 80 3f f4 e6 7f 3f
       0.9996374 1.0004423 1.0000733 0.9996178
000080 b8 e7 7f 3f 46 e5 7f 3f 3d f7 7f 3f c5 0e 80 3f
       0.9996295 0.9995922 0.9998663 1.0004507
000090 39 0b 80 3f 81 0d 80 3f 11 ed 7f 3f 99 fe 7f 3f
       1.0003425 1.0004121 0.9997111 0.9999786
0000a0 9d f8 7f 3f 20 e4 7f 3f 69 f4 7f 3f d8 fa 7f 3f
       0.9998873 0.99957466 0.99982315 0.9999213
0000b0 28 e4 7f 3f 3c 10 80 3f 28 01 80 3f 8f f3 7f 3f
       0.99957514 1.0004954 1.0000353 0.99981016
0000c0 64 03 80 3f 14 0b 80 3f 08 08 80 3f be 0f 80 3f
       1.0001035 1.0003381 1.0002451 1.0004804
0000d0 5f 03 80 3f 79 e0 7f 3f 69 0e 80 3f 3f 05 80 3f
       1.0001029 0.99951893 1.0004398 1.0001601
0000e0 6e e2 7f 3f df e3 7f 3f 2b e2 7f 3f a5 e3 7f 3f
       0.9995488 0.9995708 0.9995448 0.99956733
0000f0 7a f0 7f 3f 5e f4 7f 3f 11 fe 7f 3f aa 01 80 3f
       0.99976313 0.9998225 0.9999705 1.0000508
000100 28 07 80 3f c6 e8 7f 3f f6 03 80 3f cb e0 7f 3f
       1.0002184 0.9996456 1.0001209 0.9995238
000110 49 0c 80 3f a8 02 80 3f d1 f7 7f 3f 41 06 80 3f
       1.0003749 1.0000811 0.9998751 1.0001909
000120 c6 e4 7f 3f 1d 02 80 3f 25 0b 80 3f 54 e8 7f 3f
       0.99958456 1.0000645 1.0003401 0.9996388
000130 dc 03 80 3f dc 0c 80 3f f1 fa 7f 3f e2 0e 80 3f
       1.0001178 1.0003924 0.9999228 1.0004542
000140 62 e0 7f 3f d7 fd 7f 3f 81 0c 80 3f d6 0a 80 3f
       0.99951756 0.99996704 1.0003816 1.0003307
000150 a1 0e 80 3f 59 05 80 3f f8 df 7f 3f c6 e0 7f 3f
       1.0004464 1.0001632 0.99951124 0.9995235
000160 a2 f5 7f 3f 85 ec 7f 3f 20 03 80 3f 95 0d 80 3f
       0.9998418 0.99970275 1.0000954 1.0004145
000170 ab e8 7f 3f 55 0e 80 3f 8c f9 7f 3f fc e4 7f 3f
       0.999644 1.0004374 0.99990153 0.9995878
000180 85 f9 7f 3f 46 f6 7f 3f db 03 80 3f ed fb 7f 3f
       0.9999011 0.9998516 1.0001177 0.99993783
000190 dd 0c 80 3f 6e e0 7f 3f d4 e4 7f 3f 01 09 80 3f
       1.0003926 0.9995183 0.9995854 1.0002748
0001a0 71 fc 7f 3f b4 e1 7f 3f 3a 02 80 3f c6 fa 7f 3f
       0.9999457 0.9995377 1.000068 0.99992025
0001b0 8b 0b 80 3f 50 f6 7f 3f f5 ea 7f 3f 75 06 80 3f
       1.0003523 0.9998522 0.9996789 1.000197
0001c0 4d e2 7f 3f 3b 07 80 3f c2 f1 7f 3f d1 f5 7f 3f
       0.9995468 1.0002207 0.9997827 0.9998446
0001d0 7c 03 80 3f fa e4 7f 3f 10 03 80 3f 14 f7 7f 3f
       1.0001063 0.99958766 1.0000935 0.99986386
0001e0 b6 f3 7f 3f 3a e3 7f 3f fe 0d 80 3f ab 0a 80 3f
       0.9998125 0.99956095 1.000427 1.0003256
0001f0 ac ee 7f 3f 1e 0a 80 3f 4c e3 7f 3f 9d 0b 80 3f
       0.9997356 1.0003088 0.999562 1.0003544

net.1.bias f4 [128]
000000 b5 c9 85 36 1b 15 ad b9 ea f8 bb 39 31 0f e5 b9
       3.9871907e-06 -0.00033012856 0.00035852875 -0.00043689602
000010 9f f3 e3 39 91 ab 05 b9 03 d0 ba b9 74 7d c0 b9
       0.00043478326 -0.00012747782 -0.00035631665 -0.00036714564
000020 98 f9 ef 39 90 c1 f1 39 53 94 a9 b9 a6 db 9e 39
       0.00045771594 0.00046111317 -0.00032344702 0.0003029976
000030 50 cc ee 39 4a 85 fe b9 6c 8b 8e 39 ec 43 b4 b9
       0.00045547122 -0.00048545963 0.00027188228 -0.0003438288
000040 c8 c1 15 b9 b6 68 e2 b9 43 1c 54 b9 75 b8 c0 39
       -0.00014281936 -0.00043184095 -0.00020228424 0.00036758525
000050 6e 59 0a 39 8f cf 83 b8 7e ca c7 39 7f 26 e6 b9
       0.0001319402 -6.2852276e-05 0.00038107106 -0.000438977
000060 05 ac d1 39 e6 3a c3 38 c5 bd b5 39 a1 f2 a5 39
       0.0003999175 9.309295e-05 0.000346644 0.00031652025
000070 f4 de af b9 9c 66 24 b6 37 47 e8 39 0c 40 e0 b9
       -0.00033544714 -2.449763e-06 0.00044303547 -0.00042772328
000080 4f 2f 75 b9 93 de c5 b9 31 c2 34 39 df 57 26 39
       -0.00023382645 -0.000377406 0.0001723848 0.00015863728
000090 de 9e 98 39 55 c4 8d 39 09 6f bf b9 c3 db 7e b9
       0.00029110064 0.00027039894 -0.00036513087 -0.00024305195
0000a0 bd 1d 10 b9 0a 1b e4 b9 c7 85 9e b8 c3 7f 8b b9
       -0.00013743989 -0.00043507694 -7.558945e-05 -0.00026607336
0000b0 20 4d 00 ba 8f ea fd 39 58 34 bd b8 16 4a cb b9
       -0.0004894305 0.0004843068 -9.021972e-05 -0.00038774376
0000c0 22 3c 2d 39 c5 2e 95 39 fa ff b7 b7 bc dd 00 3a
       0.00016520967 0.0002845434 -2.1934498e-05 0.00049158535
0000d0 c7 d7 ab 39 20 81 ed b9 51 c4 48 39 c1 3f eb 39
       0.00032776428 -0.00045300368 0.0001914662 0.00044870193
0000e0 ee cc f2 b9 68 b1 f0 b8 19 58 f5 b9 a8 c9 e4 b9
       -0.0004631052 -0.00011477136 -0.0004679568 -0.00043637794
0000f0 b0 4f 75 b9 47 13 65 39 0d 6d 90 39 c5 d3 c2 39
       -0.00023394707 0.00021846323 0.0002754707 0.00037160344
000100 3d 3a 5b 39 3f c1 dd b9 28 c8 a1 39 80 fd fa b9
       0.00020907163 -0.00042296384 0.0003085744 -0.00047872588
000110 f9 e0 db 39 4c 98 ad 38 57 0e 7c b8 7a 81 88 39
       0.00041938553 8.27765e-05 -6.0094837e-05 0.0002603641
000120 d8 a2 cb b9 55 76 39 b8 39 71 0f b9 b2 74 ae b9
       -0.00038840505 -4.4217642e-05 -0.00013679721 -0.0003327481
000130 8b ac 19 39 ae 21 e7 39 14 e9 52 b9 a0 b4 ce 39
       0.00014655494 0.00044084847 -0.00020113989 0.00039425958
000140 93 b3 c9 b9 39 43 98 b9 f9 93 c3 39 15 04 99 39
       -0.000384715 -0.00029041784 0.00037303547 0.00029185475
000150 fc fc f8 39 c4 46 17 b8 e3 fd f3 38 c4 48 ff b9
       0.00047490734 -3.606711e-05 0.00011634433 -0.00048691605
000160 ea 65 b4 b8 6e 48 f9 b9 15 5b 8d 39 e8 55 8b 39
       -8.602052e-05 -0.00047546945 0.00026961477 0.0002657615
000170 bd 50 9d b9 02 07 36 39 07 41 d9 39 59 cd f7 b9
       -0.00030005528 0.00017359483 0.00041437914 -0.00047264507
000180 4c 7e 18 38 80 cf 53 39 e4 1b 27 39 7f dc a2 39
       3.6357247e-05 0.00020199828 0.00015936751 0.0003106333
000190 6f fa a0 39 74 2c ea b9 65 0b d3 b9 d1 a9 1c b9
       0.00030704166 -0.00044665078 -0.00040253546 -0.00014940581
0001a0 da 53 ae 39 28 3f ef b9 7e 64 3a 38 df 18 04 b9
       0.0003325034 -0.00045632687 4.4439446e-05 -0.00012597766
0001b0 94 04 f3 39 03 25 98 38 fe 47 83 b9 c8 27 74 b8
       0.00046351983 7.254819e-05 -0.00025039905 -5.8211182e-05
0001c0 bd b9 05 b9 2b 10 db 39 be 2b c4 b9 83 9d 31 b9
       -0.00012753061 0.0004178298 -0.00037416624 -0.00016938713
0001d0 8d 0f ba b8 66 91 b3 b9 e0 6c 88 39 10 42 94 38
       -8.872068e-05 -0.0003424987 0.0002602106 7.069495e-05
0001e0 1c 0c 73 b9 ce 50 f0 b9 10 c6 ea 39 2c d1 3a 39
       -0.00023178797 -0.0004583657 0.00044779526 0.00017816265
0001f0 32 cf c6 b9 19 24 b2 39 56 b4 e2 b9 9c 9a 2c 38
       -0.00037919875 0.000339777 -0.0004324044 4.1151987e-05

net.1.running_mean f4 [128]
000000 6f 54 ac bd 60 13 70 3d 2e 4c 8b bd 31 63 a3 bc
       -0.08414542 0.058612227 -0.068016395 -0.01994476
000010 f9 cb fd bc 29 7a 1d 3e ae b8 50 3d 54 43 14 3e
       -0.03098105 0.15378632 0.050957374 0.14478809
000020 40 d7 e9 bd e6 1d 00 3e 2f 65 37 bd 40 53 2d bd
       -0.11418009 0.12511405 -0.04477423 -0.04231572
000030 64 a9 2b bc 79 90 31 bd ad ac 02 be ef 3f 75 bd
       -0.010477398 -0.04335067 -0.12761183 -0.059875425
000040 8d 84 b9 bc 32 69 0c 3e c6 96 e7 3c 91 c2 15 3d
       -0.022646213 0.13712004 0.028270137 0.036562506
000050 ce 0e 33 3d 8d da 76 bd b1 80 1d 3e dd ea df 3d
       0.04371529 -0.06026702 0.15381123 0.109334685
000060 16 45 b0 3d b9 42 1c be c8 d3 d4 3d 48 b1 bc 3d
       0.08606927 -0.15259828 0.103919566 0.09213501
000070 9f ed 1d 3e 66 82 d8 3d 7e 1c ba 3d b2 fe e7 3c
       0.15422677 0.105717465 0.09087466 0.02831969
000080 37 0d cc 3c 71 19 05 3e 1b 5c 8d bd ce 71 aa 3d
       0.024908645 0.12997986 -0.06902333 0.08322488
000090 41 4f 73 3d 4e 38 c5 bd b1 5a 1e 3e 5f d9 23 bd
       0.059401754 -0.0962988 0.15464284 -0.040002223
0000a0 78 9f bd 3c 22 82 56 3d b0 49 21 be dd ec 02 3e
       0.02314733 0.052370198 -0.15750766 0.12785669
0000b0 5e 3b a8 bc 0e 80 07 3d ff c3 1c bc 86 b6 1f be
       -0.020536121 0.033081107 -0.0095682135 -0.15596971
0000c0 a4 22 21 3e b9 15 8c bd f7 98 8a bd 89 c4 df bd
       0.1573587 -0.06840081 -0.06767457 -0.10926158
0000d0 f9 75 14 be bf 0d 29 3e 03 a4 81 38 a1 d9 68 3d
       -0.14498128 0.1650915 6.181749e-05 0.056848172
0000e0 dd 9f 6a 3d 82 69 52 3d 50 a1 23 bd 15 8c a3 bc
       0.057281364 0.05137015 -0.03994876 -0.019964257
0000f0 79 91 24 be b7 4d da 3d f7 76 0f be f8 9c 51 bd
       -0.16071118 0.10659354 -0.14010225 -0.051175088
000100 c1 9a 5a 3d 09 9a dc 3c 58 69 15 be 4d c4 5d b9
       0.05337024 0.026928918 -0.14590967 -0.0002114933
000110 87 ac 03 be 40 45 b2 bd 70 a9 26 3e e6 f3 cc bb
       -0.12858783 -0.08704615 0.16275573 -0.006254661
000120 4c 93 a6 3d 99 ad 8a bd 5e 72 70 3b cc 8d 25 3d
       0.081335634 -0.067713924 0.0036689262 0.04041843
000130 67 5f 2c 3e 9d e3 ab 3d 38 7c bd bd bc b6 57 bd
       0.16833268 0.08393023 -0.092522085 -0.052664503
000140 c2 a7 13 be 96 ba e1 3d 9d e1 70 3d d0 4d f5 bd
       -0.14419463 0.110219166 0.05880891 -0.11977732
000150 6b 37 d2 3d 1f 1e 2b be b4 78 6c 3d 7d e2 b5 bc
       0.102644764 -0.16710709 0.0577323 -0.022202725
000160 93 8a ee 3d 1a 6b b2 3d b9 ab 1a bd c6 e5 8f bd
       0.11647525 0.08711834 -0.037761424 -0.07026248
000170 5e bc 2e bd d9 97 aa bd 40 03 ad bc d5 e1 14 3e
       -0.04266011 -0.08329744 -0.021119714 0.14539273
000180 d9 99 e7 bd 4f cd cf ba 3a bb 04 be 19 cc df 3d
       -0.11308641 -0.0015854033 -0.12962046 0.109276004
000190 79 71 28 bb 23 c0 82 bd 35 d5 94 3d 0e ff 8d bb
       -0.00257024 -0.063843034 0.072672285 -0.0043333834
0001a0 07 fb 19 be 15 43 6c bd 10 dc cc bd 05 8a 29 be
       -0.15037166 -0.057681162 -0.10002911 -0.16556557
0001b0 a6 12 8b 3c ef 73 48 bd 45 30 ee bc ce 7f 92 bd
       0.016976666 -0.048938688 -0.029075751 -0.07153283
0001c0 94 18 d9 bd 95 6b 2a be 28 bb ec 3d d4 5b 26 be
       -0.10600391 -0.16642602 0.11559135 -0.16245967
0001d0 9a 90 05 be 8f a5 cd bd b2 52 5f bd 32 71 1b 3e
       -0.13043442 -0.100413434 -0.054522224 0.151799
0001e0 dd de 3c bc d8 af 43 3b dd c2 b2 3d bc bb ad 3d
       -0.011527744 0.002985945 0.087285735 0.08483073
0001f0 69 13 29 3e 7b e3 63 bd ab 5c e0 bd 2a 69 f6 bd
       0.1651131 -0.055636864 -0.10955175 -0.12031777

net.1.running_var f4 [128]
000000 f8 69 5c 3f 76 68 3e 3f 2e 91 3e 3f 17 90 3b 3f
       0.86099195 0.74378145 0.74440277 0.7326674
000010 32 16 3f 3f 19 90 48 3f 9c 0c 27 3f 1a 9a 2b 3f
       0.7464324 0.78344876 0.65253615 0.67032015
000020 a2 17 57 3f 5a e7 39 3f 00 1a 42 3f aa cd 3c 3f
       0.84020436 0.7261864 0.7582092 0.7375132
000030 c2 bb 54 3f 57 e5 4b 3f 70 99 3d 3f 58 25 41 3f
       0.83098996 0.7964682 0.7406225 0.7544761
000040 e9 9f 3d 3f c3 49 31 3f c0 85 30 3f 96 53 3d 3f
       0.7407213 0.69253176 0.68954086 0.73955667
000050 ac 44 35 3f d0 10 37 3f a2 8e 41 3f 77 c4 33 3f
       0.7080791 0.7151003 0.75608265 0.70221657
000060 67 e5 32 3f 2e b8 3f 3f 35 03 30 3f 37 61 5b 3f
       0.6988129 0.7489041 0.68754894 0.85695213
000070 4b 87 4d 3f 95 6f 2a 3f fb c8 54 3f d4 93 46 3f
       0.80284566 0.6657651 0.8311917 0.7756932
000080 59 42 53 3f 5b 04 4a 3f 4c 4b 4d 3f 67 10 43 3f
       0.82523113 0.78912896 0.8019302 0.76196903
000090 89 67 45 3f 9c 29 37 3f 48 5b 30 3f aa 92 2a 3f
       0.7711111 0.71547866 0.68889284 0.6663004
0000a0 0f d3 3b 3f 6b e3 4a 3f d1 c8 46 3f 56 0c 3e 3f
       0.73368925 0.7925326 0.7765017 0.74237573
0000b0 87 66 3c 3f c7 a7 51 3f 29 01 3f 3f 39 70 43 3f
       0.73593944 0.8189663 0.74611145 0.76343113
0000c0 10 44 35 3f 69 de 54 3f 85 88 2e 3f c4 6a 44 3f
       0.7080698 0.8315187 0.6817706 0.7672541
0000d0 a8 2f 29 3f 26 40 3e 3f 93 6c 50 3f 73 32 3e 3f
       0.6608834 0.7431663 0.8141567 0.7429573
0000e0 9c 3f 41 3f 0c f9 28 3f 8c d8 45 3f ce 09 5e 3f
       0.75487685 0.66005015 0.7728355 0.8673371
0000f0 3f 99 52 3f d5 2d 35 3f d5 51 3e 3f c7 d3 30 3f
       0.82265085 0.7077306 0.74343616 0.69073147
000100 3f 59 30 3f 0a 24 5f 3f 3a f0 34 3f c6 e6 53 3f
       0.6888618 0.87164366 0.70679057 0.8277401
000110 ab 3d 38 3f 88 03 47 3f be 54 36 3f f4 24 50 3f
       0.719691 0.77739763 0.71223056 0.81306386
000120 5a 52 3f 3f e9 06 40 3f 60 8f 2c 3f b4 9c 2d 3f
       0.74735034 0.75010544 0.6740627 0.67817235
000130 50 34 3a 3f f9 74 3b 3f 2d b1 35 3f 96 35 59 3f
       0.7273607 0.7322536 0.70973474 0.8484739
000140 12 0d 43 3f bc a8 29 3f ac a9 35 3f 32 6b 24 3f
       0.7619182 0.66273093 0.70962024 0.6422607
000150 c7 7e 29 3f 45 12 47 3f ce a9 3b 3f 44 dc 35 3f
       0.6620907 0.7776225 0.73305976 0.71039224
000160 6d 29 32 3f 03 70 37 3f 72 07 31 3f f5 34 24 3f
       0.6959446 0.7165529 0.69151986 0.64143306
000170 98 1d 46 3f a4 2f 33 3f e0 49 3e 3f 23 aa 4a 3f
       0.77388906 0.6999457 0.74331474 0.7916586
000180 ee 18 55 3f 7b 66 49 3f 05 29 26 3f be 1b 2e 3f
       0.83241165 0.78672 0.6490634 0.6801108
000190 47 48 4d 3f 37 cc 47 3f 43 a8 46 3f b0 fc 35 3f
       0.8018841 0.7804598 0.77600497 0.71088696
0001a0 e2 e6 50 3f e2 3b 4e 3f 16 18 2d 3f 46 35 40 3f
       0.816023 0.80560124 0.6761488 0.7508129
0001b0 9b 3c 34 3f ad 89 3a 3f 19 57 3a 3f 2a a3 5a 3f
       0.70404977 0.72866327 0.7278915 0.8540522
0001c0 b8 cc 30 3f 55 43 37 3f 7b d3 2a 3f 9b 47 3c 3f
       0.69062376 0.71587116 0.66728944 0.7354676
0001d0 48 ea 3f 3f d7 17 3d 3f 89 0b 28 3f 7b 1f 54 3f
       0.7496686 0.738645 0.656426 0.82860535
0001e0 ee ed 35 3f 2d f0 45 3f 72 2a 47 3f e0 f9 28 3f
       0.71066177 0.77319604 0.7779914 0.6600628
0001f0 8e 5f 21 3f c7 ae 53 3f 24 75 48 3f 05 16 2f 3f
       0.6303643 0.82688564 0.7830374 0.68392974

net.4.weight f4 [64, 128]
000000 2f 5b 3b 3d 52 63 1e bb 03 83 5c 3d c0 a4 c9 bc
       0.045741256 -0.0024168086 0.05383588 -0.024614692
000010 2f a7 24 3d b8 7b ab 3d 6c f1 95 3d bf 9a 8b 3c
       0.0401985 0.08373207 0.07321438 0.017041562
000020 e2 dd 91 3d 31 e4 a2 bc 82 e5 79 3b 7a bf 6e 3d
       0.07122399 -0.0198842 0.0038131182 0.058288075
000030 03 58 1d 3d 23 eb 53 3d 29 30 51 bc a4 f2 a9 bd
       0.038414013 0.051737916 -0.01276783 -0.08298233
000040 06 c9 83 bd 4c d0 a1 3b ea c0 16 bd 9b a7 82 bd
       -0.064348266 0.004938161 -0.03680507 -0.063796245
000050 78 41 4f bd d0 c5 ea 3c bb 08 97 bd 65 7f 41 3d
       -0.050599545 0.028658777 -0.07374712 0.047240634
000060 82 62 3c 3d cb 8f ac bd e7 4a 24 bd 0f ef 87 bd
       0.045992382 -0.08425864 -0.040110495 -0.06637394
000070 ef 3e 11 bd 3e cf ab bd b6 34 c1 3b f8 0e 18 3d
       -0.03546041 -0.08389138 0.005896176 0.03712365
000080 20 a5 b1 3d 18 f2 85 3d bc 99 c0 b8 5d a0 fd bb
       0.08674073 0.06540316 -9.183909e-05 -0.007740064
000090 c7 84 6e bd c7 76 32 3d f2 60 90 bd f5 ec 2d bc
       -0.058232095 0.043570306 -0.07049741 -0.010615577
0000a0 66 53 67 bd a9 3e 15 3d 7a 0a 21 bd 21 4e 69 3d
       -0.05647602 0.03643671 -0.03931663 0.056959275
0000b0 5a 34 8b 3d b9 6c 2f 3d 56 d1 ab 3b 37 f7 5f bd
       0.06797095 0.042828295 0.0052434606 -0.05467912
0000c0 4f 39 a8 bd 57 13 8e 3d f1 88 a2 bd 18 a8 99 3d
       -0.08214056 0.069372825 -0.07936276 0.075027645
0000d0 1b 1e b2 3b 6b b7 6a 3d b5 8f 79 3c 1e 1b 37 3d
       0.0054357178 0.057303827 0.015232016 0.044703595
0000e0 02 2a 8c 3b 2d b9 a9 bb 0b c5 ef bb f2 7b a4 bd
       0.0042774687 -0.0051795454 -0.0073171905 -0.08031453
0000f0 e1 4e 04 3d 26 a3 1c 3d 90 91 2c 3d 75 b5 2a bb
       0.032301787 0.038241528 0.042131007 -0.0026048098
000100 cd 60 1e 3d a1 bb 55 bd 35 3f 88 bc 07 fb 02 3d
       0.038666535 -0.05218089 -0.016631702 0.03197768
000110 d0 78 a7 3d 5b 3f e3 3c 90 8f d0 bc 7a 67 98 bd
       0.0817734 0.027740171 -0.025459081 -0.074416116
000120 7e 08 47 3d 32 f4 98 3b 76 35 ab bd f7 cf e4 3c
       0.048592083 0.004667782 -0.08359806 0.027931197
000130 35 4a 81 3d 01 5f db 3c 73 44 32 bd bc 3b 7e 3d
       0.06312982 0.0267787 -0.04352231 0.062068686
000140 96 4b 9c 3d 68 1f 11 3d 18 ed 92 bd c3 ef 23 3d
       0.076316044 0.035430342 -0.07174128 0.040023576
000150 b5 0c ae bd d9 cc 83 bd aa 98 a4 3d 8b 12 34 bd
       -0.084985174 -0.06435556 0.08036931 -0.043962996
000160 15 ee 0e 3c db 3c 38 3c 49 69 f0 3c cd 11 39 3d
       0.008723755 0.011244978 0.029347079 0.04518299
000170 3b 0b 55 3d ae cb b3 3d 81 c8 a1 3c 51 c0 8a bc
       0.052012663 0.08779083 0.019748928 -0.016937407
000180 0e 49 a9 bd 50 24 0f bd 0d c0 83 bd 95 06 92 bd
       -0.08265887 -0.03494674 -0.06433115 -0.07130162
000190 6f 9d 59 bd 9d f2 99 bc 86 7f 38 3d 15 e7 89 3d
       -0.053128656 -0.018792445 0.04504349 0.067335285
0001a0 3f fa 0f 3c 91 60 1c 3d 04 35 20 3c fa 1f d0 3c
       0.008787691 0.03817803 0.009778265 0.025405873
0001b0 3d aa 7e bd f4 41 a7 3d 98 0b 5c bd 9b 9e 96 bd
       -0.06217407 0.081668764 -0.053721994 -0.0735447
0001c0 97 c2 b1 bd ca 03 8c 3d 6a 38 51 bd ab ed 9b 3a
       -0.08679693 0.0683666 -0.05107919 0.0011896392
0001d0 a7 96 4d bd 38 be 9b bd da 08 50 3d 5c fe 71 bc
       -0.0501925 -0.07604641 0.05078969 -0.014770117
0001e0 8d 7e e9 3c 8c 59 b0 3d bd 48 84 3d f9 21 b4 bd
       0.028502727 0.0861083 0.06459186 -0.08795542
0001f0 7a 73 5d bd 75 e6 ab 3d b8 89 7e 3d 21 ae 9b bd
       -0.054065205 0.083935656 0.062143058 -0.07601572
000200 8c ac 68 bb f1 d5 ca bc 15 e4 67 bd e9 fc b4 bd
       -0.0035503237 -0.024760218 -0.056614 -0.08837301
000210 e9 6f a9 bd 06 a3 f9 bc 64 5c ad bd 80 97 f4 bc
       -0.08273298 -0.030473243 -0.08464888 -0.029857397
000220 e7 01 87 bd 78 c9 8a bd 3c 24 a5 3d 77 f9 26 bd
       -0.0659216 -0.06776708 0.08063552 -0.040765252
000230 ea bf 36 3d d5 9d 42 bd 72 96 08 bd 16 c7 67 bd
       0.044616617 -0.0475138 -0.0333466 -0.056586348
000240 5f f0 2d bd a4 94 34 bd 3a 2a 34 3d d5 cd 70 3d
       -0.042465564 -0.044087067 0.043985583 0.058790047
000250 29 6e 2a 3c 9d d2 77 bd 0e 6e 2f bd e7 38 6b 3d
       0.010402241 -0.06050359 -0.042829566 0.057427313
000260 a4 ba 6f bd bf 4f 12 bd ea 6c 24 bd f8 97 8a 3d
       -0.058527604 -0.035720583 -0.04014293 0.06767267
000270 af 47 3d 3d 21 db 28 3d 34 21 a4 bd bf e6 22 bd
       0.04621094 0.041224603 -0.080141455 -0.039770838
000280 e2 4d ad bd 69 20 a7 bd e5 dd 0b bd d6 f8 2c bd
       -0.084621206 -0.081604786 -0.034147162 -0.042229496
000290 9e 41 13 3d 44 af a7 3d 87 17 af 3d 02 8e 88 3d
       0.03595125 0.08187726 0.08549409 0.06667711
0002a0 f4 0a 66 bc 54 dc 83 3d 13 bf 15 3d 41 c4 14 3c
       -0.014040697 0.06438509 0.036559176 0.009079994
0002b0 a4 2a ae 3c eb ab 95 bd 5b 77 90 3d 90 8c 19 bd
       0.021260567 -0.073081814 0.07054015 -0.037487566
0002c0 59 6a 48 3d a6 1e 22 bd a3 b1 c7 3c 2f a6 a1 3d
       0.048929546 -0.03958001 0.024376696 0.07893025
0002d0 c8 94 99 3d de 56 8d 3c 46 d2 76 bd 80 aa 9a 3b
       0.07499081 0.017253336 -0.060259126 0.004720032
0002e0 92 75 2a 3d 49 a2 09 bd 30 3f 15 bd f1 b0 22 bd
       0.04161603 -0.033602033 -0.036437213 -0.039719526
0002f0 23 eb 81 3d 5c 88 05 3d 5d 21 b2 bd 73 fb 55 bc
       0.06343677 0.032600746 -0.0869777 -0.013060438
000300 ed 2d b0 3d 17 b1 a9 3d a2 c2 98 bd fc 63 a7 bd
       0.0860251 0.0828573 -0.07458998 -0.081733674
000310 7c 94 ad 3d 82 19 e3 3c bd 4f 25 3d cf 28 2a 3c
       0.08475587 0.027722124 0.040359247 0.010385706
000320 5a 8a 29 bd 6e 70 80 3d 78 f0 97 3d d8 fc d8 bb
       -0.041391708 0.06271444 0.07418913 -0.006621938
000330 60 a7 54 bd 10 8e 26 3d 9b 27 a9 bb ff 42 a1 3c
       -0.051917434 0.040662825 -0.005162192 0.019685267
000340 d1 f3 5c 3b 30 19 14 bd dc be fa 3c ba 89 1a 3c
       0.0033714662 -0.036156833 0.030608587 0.009432251
000350 49 2f 88 bc 7f cb a0 bd 07 aa a6 3d c7 c8 b5 3c
       -0.01662411 -0.07851314 0.08137899 0.022190465
000360 bf f3 98 3c f1 5f cc 3b 3f 34 86 bd 5f 89 4c bd
       0.018670915 0.006237023 -0.06552934 -0.049935695
000370 a7 67 e4 3c 70 69 4f 3d 4e 06 a9 3d 6e 3e 1b 3d
       0.027881457 0.050637662 0.08253156 0.037901334
000380 72 98 b3 3b 79 5c 83 bd a5 80 2a 3d 8a 40 4f 3d
       0.0054808194 -0.06414122 0.04162659 0.05059866
000390 e3 ce 5a bd 58 52 18 3d ba 47 5b 3d cd de 03 3d
       -0.05341996 0.037187904 0.0535352 0.0321949
0003a0 3f 1e 30 3c 68 a9 f3 bc 00 0e ef bc 46 2d a4 bd
       0.010749399 -0.029743865 -0.02918148 -0.08016448
0003b0 60 c2 af bd 87 b4 8c bd f9 ec 98 3b 56 27 10 bd
       -0.08581996 -0.0687037 0.004666921 -0.035193764
0003c0 22 f3 71 3d e2 d9 a0 3d 88 b4 a9 3d 41 8a a9 bd
       0.05906976 0.07854058 0.08286387 -0.08278323
0003d0 31 93 46 3d 7b 03 e1 bc 22 c7 93 bd 27 4a 75 3d
       0.048480216 -0.02746748 -0.07215716 0.05988517
0003e0 5b fe ab 3c 5e 94 89 3d 83 e8 7c 3d 46 03 ac 3d
       0.02099531 0.06717752 0.061745178 0.08399062
0003f0 41 24 a0 3c 24 d0 36 bd 4c 35 af bd 89 64 a6 3d
       0.019548537 -0.044632092 -0.085550874 0.08124644

net.4.bias f4 [64]
000000 9b f4 5e bd 28 e2 4f bd 5f bd 44 bd 49 62 01 bc
       -0.054432493 -0.05075279 -0.04803216 -0.007896968
000010 ab cf 93 3d b3 77 cd bc ff e3 5d 3d c6 d7 97 bd
       0.07217344 -0.025081491 0.054172512 -0.074142024
000020 58 6e 2f bc 9e 67 17 3d d3 e3 de 3c 4e 5d a2 3a
       -0.01070746 0.03696405 0.027208244 0.0012387426
000030 46 bf 92 bd 23 e2 ac bd 54 7e 45 3d b6 9e 82 bd
       -0.07165389 -0.0844157 0.04821618 -0.06377928
000040 43 cd 5a 3d 2a 45 83 bd 6d 98 6c bc 85 cd 90 3d
       0.05341841 -0.064096764 -0.014440638 0.0707045
000050 17 8a 6f 3c 9e fc a6 3b 06 9c 14 bd 3c ec f9 bb
       0.0146203255 0.0050960323 -0.036281608 -0.0076270383
000060 82 ce 9f bc 61 e1 56 3d b1 da 20 3c 59 7f 2b 3d
       -0.01950765 0.05246103 0.009817765 0.041869495
000070 9b c7 6a bd c1 55 94 3d cb e4 09 3d 44 85 aa bd
       -0.057319265 0.07242919 0.03366546 -0.083262
000080 80 09 2f bd 3e 7b 01 bc 23 9c 97 3d c6 30 b1 bd
       -0.04273367 -0.007902918 0.074028276 -0.08651881
000090 d4 dc 8f bd 1e 54 30 3a 2d 26 97 3d f3 e9 ca 3b
       -0.070245415 0.00067264016 0.07380328 0.0061924397
0000a0 b1 72 bd 3c 89 9a 47 bd b4 2d 6c bd c0 39 5a 3d
       0.023125978 -0.04873136 -0.057660773 0.05327773
0000b0 86 f7 ad bd 70 2a 60 3c 79 17 81 3d 26 9c 37 3d
       -0.08494477 0.013681993 0.06303305 0.04482665
0000c0 58 0c 5f bd 16 1e 27 bd 12 5a 81 bd ad 24 81 bc
       -0.05445513 -0.040800177 -0.06316008 -0.015764559
0000d0 8d 13 b0 3d 33 87 8f bd e6 60 7b bd de 36 1f bd
       0.08597479 -0.07008209 -0.061371706 -0.038870685
0000e0 d8 12 41 bd d7 0c ae 37 2c 15 dc 3c 34 98 a2 bd
       -0.04713711 2.0748395e-05 0.026865564 -0.07939187
0000f0 d6 f9 91 bd 50 4c 64 bd 30 87 86 3d e9 82 ae 3c
       -0.071277305 -0.05573684 0.06568754 0.021302657

net.5.weight f4 [64]
000000 55 e5 7f 3f 91 ed 7f 3f ea 0f 80 3f 34 e3 7f 3f
       0.9995931 0.9997187 1.0004857 0.9995606
000010 60 00 80 3f 06 f0 7f 3f 7f 0d 80 3f fe 0e 80 3f
       1.0000114 0.9997562 1.0004119 1.0004575
000020 0f 0a 80 3f b4 e1 7f 3f 6b 04 80 3f 81 f6 7f 3f
       1.000307 0.9995377 1.0001348 0.9998551
000030 3b f2 7f 3f 57 e0 7f 3f 27 e5 7f 3f 4d f5 7f 3f
       0.9997899 0.9995169 0.99959034 0.99983674
000040 2c 04 80 3f e7 09 80 3f 24 e6 7f 3f 8c e6 7f 3f
       1.0001273 1.0003022 0.9996054 0.9996116
000050 03 e8 7f 3f 42 e4 7f 3f a5 e4 7f 3f 1d ed 7f 3f
       0.99963397 0.9995767 0.9995826 0.9997118
000060 f7 05 80 3f ff df 7f 3f d3 0c 80 3f 30 09 80 3f
       1.000182 0.99951166 1.0003914 1.0002804
000070 22 f5 7f 3f 3b 09 80 3f 23 07 80 3f a6 04 80 3f
       0.9998342 1.0002817 1.0002178 1.0001419
000080 2a 02 80 3f 86 06 80 3f 80 df 7f 3f c1 01 80 3f
       1.000066 1.0001991 0.9995041 1.0000535
000090 db 04 80 3f 4b 0f 80 3f f1 e2 7f 3f 61 0d 80 3f
       1.0001482 1.0004667 0.9995566 1.0004083
0000a0 e5 f1 7f 3f 81 e0 7f 3f 87 0d 80 3f 88 e0 7f 3f
       0.99978477 0.9995194 1.0004128 0.9995198
0000b0 4f 0d 80 3f 9c 06 80 3f 98 ff 7f 3f 10 f3 7f 3f
       1.0004061 1.0002017 0.9999938 0.9998026
0000c0 c7 e3 7f 3f 58 04 80 3f 0b e1 7f 3f f6 df 7f 3f
       0.99956936 1.0001326 0.99952763 0.9995111
0000d0 17 0f 80 3f d7 e4 7f 3f a6 0a 80 3f 0b e3 7f 3f
       1.0004605 0.99958557 1.000325 0.99955815
0000e0 f1 e5 7f 3f 02 e2 7f 3f 35 0f 80 3f f8 e2 7f 3f
       0.9996024 0.99954236 1.0004641 0.999557
0000f0 6f f6 7f 3f 67 ff 7f 3f 5d f2 7f 3f a4 f3 7f 3f
       0.999854 0.9999909 0.9997919 0.9998114

net.5.bias f4 [64]
000000 ef 66 07 b9 46 c8 9f b9 4c d8 ed 39 da fb c6 b9
       -0.00012912949 -0.0003047606 0.00045365316 -0.00037953147
000010 94 bc 33 b9 c9 2a b8 b9 82 30 cc 39 82 81 7b 39
       -0.00017141021 -0.00035127092 0.00038946053 0.00023985471
000020 ac fa 9f 39 56 de ef b9 a8 ed 37 39 5e 2e ce 38
       0.00030513608 -0.00045751286 0.00017540774 9.831482e-05
000030 5f 50 27 b9 9d 17 f4 b9 a3 95 d3 b9 32 ab 6e b9
       -0.00015956302 -0.000465569 -0.00040356544 -0.00022761224
000040 0c a5 db 38 09 64 e3 39 7f 70 6c b9 5e 11 c5 b9
       0.00010473476 0.00043371346 -0.00022548622 -0.00037587708
000050 67 59 db b9 86 4f f2 b9 af 7d ac b9 7b e0 70 b8
       -0.00041837545 -0.00046217086 -0.00032900038 -5.7429523e-05
000060 fb 28 f4 39 a4 c0 ed b9 9d b9 d4 39 0f ec d2 38
       0.0004656984 -0.0004534769 0.00040574084 0.0001005755
000070 17 17 4a b8 8e 67 98 38 80 ff 5e 35 6d b4 4d 39
       -4.8182057e-05 7.2672134e-05 8.3073246e-07 0.00019617537
000080 a1 10 07 39 97 66 a5 39 1e fa e5 b9 7e 32 cc b8
       0.00012880798 0.00031547688 -0.00043864636 -9.736883e-05
000090 a0 46 94 39 1a f6 79 39 15 64 52 b9 0c 96 97 39
       0.0002828138 0.0002383817 -0.00020064444 0.00028912758
0000a0 34 1b be b9 8d 7e f9 b9 89 6e e2 39 03 de e4 b9
       -0.00036259892 -0.0004758727 0.00043188434 -0.0004365296
0000b0 6e b9 d9 39 4b 60 fb 39 2e 62 33 39 b3 2f ed 37
       0.0004152762 0.00047946195 0.00017107345 2.8274813e-05
0000c0 41 1c e1 b9 cc 31 ad b9 b8 5e f5 b9 8d 27 91 b8
       -0.00042936395 -0.00033034233 -0.00046800612 -6.921506e-05
0000d0 f1 5e f1 39 7f 35 cc b9 ac c1 e3 39 24 85 e8 b9
       0.0004603784 -0.0003894977 0.0004344111 -0.00044349686
0000e0 80 a5 8b b9 b5 05 f1 b9 5e f9 e5 39 e3 fe ee b9
       -0.00026635453 -0.00045971354 0.00043864077 -0.00045584803
0000f0 3f 57 95 39 68 a9 15 37 b4 09 e6 39 29 13 ed b9
       0.00028484498 8.920535e-06 0.00043876248 -0.00045218438

net.5.running_mean f4 [64]
000000 33 22 8d 3c 37 4a 99 bc fc 1d b8 bd a0 7a 07 bd
       0.017228222 -0.018712146 -0.08990094 -0.03307593
000010 2b fe d6 3b 9c 1f 8c be ed 14 63 3d 52 6b cd bc
       0.006561061 -0.27367866 0.05543988 -0.025075588
000020 7a ad d6 bd 83 da 18 3e e1 dc fb bb 09 5f ee 3d
       -0.10482307 0.14927106 -0.007686243 0.1163922
000030 eb a7 d4 bd 57 62 80 3c e6 7a 3d be 1c e4 ce bd
       -0.1038359 0.015671892 -0.18503913 -0.10102102
000040 e9 98 9f 3d c8 86 af bd 8d ab 6c be be 78 d8 3d
       0.07792837 -0.08570629 -0.23112316 0.10569905
000050 bd 3e a1 bc 96 05 b2 3d d6 86 70 bd 59 db 12 3e
       -0.019683236 0.08692472 -0.05872234 0.14341487
000060 e8 c7 24 bb 33 0c a8 bd 5e bb f4 3d 90 cd f4 3d
       -0.0025143567 -0.08205452 0.119498 0.119532704
000070 d5 97 45 3d 80 12 c3 bd dd b7 06 be 1a d8 99 3d
       0.0482405 -0.09525013 -0.13156076 0.07511921
000080 97 0d 0e be fb 41 4b 3d b5 5e 7d 3d 4e 36 c8 bd
       -0.13872372 0.04962347 0.061857898 -0.09775983
000090 dc a7 08 bd 89 37 5f 3d dc a2 a3 3d 84 9d 7f 3d
       -0.03336321 0.05449632 0.07990047 0.062406078
0000a0 ec b1 16 3e e8 29 aa bd d3 51 5a 3d 6f 43 8a 3d
       0.1471631 -0.08308774 0.05330069 0.06751143
0000b0 1d 72 91 be 00 40 32 be 00 a2 06 be 1a 9d cc bd
       -0.28407374 -0.17407227 -0.13147736 -0.09990902
0000c0 cb 95 96 bd 83 d6 06 3c 4b a4 98 bd 0d e7 19 3e
       -0.073527895 0.0082298545 -0.074532114 0.15029545
0000d0 2b 4f 28 3e b2 59 25 be 2a 5d ca 3c af 59 43 3d
       0.1643645 -0.16147497 0.024702627 0.04769295
0000e0 d2 42 93 3c d6 89 c3 bd 45 b9 97 3a 09 e3 19 3d
       0.017976198 -0.095477745 0.00115756 0.037570033
0000f0 66 92 97 bd 37 8a 02 bc d0 a9 54 3e 3d a9 c8 bd
       -0.0740097 -0.007967523 0.20767903 -0.09797905

net.5.running_var f4 [64]
000000 3e 97 2a 3f d2 ab 31 3f 9e 4b 35 3f 16 54 28 3f
       0.6663703 0.694028 0.7081851 0.65753305
000010 84 62 2a 3f 4f 32 51 3f e5 f5 27 3f de dc 32 3f
       0.6655657 0.8171739 0.6560958 0.69868267
000020 c4 eb 2e 3f cb 0b 38 3f d5 ca 2c 3f 12 e4 2a 3f
       0.683285 0.71892995 0.67497 0.6675426
000030 1e a1 2c 3f f2 fa 2b 3f 81 61 35 3f 6b 13 2f 3f
       0.67433345 0.6717979 0.70851904 0.68389004
000040 61 2e 27 3f a7 71 2d 3f ae 4d 2b 3f 04 a3 28 3f
       0.65305144 0.67751545 0.66915405 0.6587374
000050 84 0e 28 3f 77 1c 31 3f c5 fa 2d 3f 48 ab 2a 3f
       0.6564715 0.6918406 0.6796077 0.66667604
000060 f8 18 35 3f 46 79 33 3f db 40 30 3f 1e a3 33 3f
       0.70741224 0.70106924 0.6884896 0.7017077
000070 07 9c 25 3f db a3 2d 3f 5c 0f 2a 3f 25 43 26 3f
       0.64691204 0.6782815 0.66429687 0.64946204
000080 33 38 26 3f f3 ae 3d 3f 25 bc 2e 3f b3 85 26 3f
       0.64929503 0.74095076 0.68255836 0.6504776
000090 8c 72 36 3f 12 b7 32 3f 39 67 31 3f 0e e1 3a 3f
       0.71268535 0.69810593 0.6929813 0.72999656
0000a0 1e 3b 27 3f f8 23 2f 3f 72 84 29 3f 43 04 3f 3f
       0.6532458 0.6841426 0.6621772 0.7461588
0000b0 30 b0 34 3f aa 6e 3a 3f e5 33 31 3f 2d fc 29 3f
       0.7058134 0.7282511 0.6921981 0.66400415
0000c0 e5 bc 2e 3f f6 75 2a 3f 4c 84 28 3f ba 53 2c 3f
       0.6825698 0.66586244 0.6582687 0.67315257
0000d0 13 05 34 3f e8 58 27 3f 60 40 35 3f f4 3a 29 3f
       0.7032024 0.65370035 0.70801353 0.6610558
0000e0 73 0f 26 3f 40 9c 44 3f c6 aa 2e 3f 5b 24 28 3f
       0.64867324 0.7680092 0.6822933 0.65680474
0000f0 74 77 2a 3f 0c 1b 2c 3f e5 c7 34 3f 98 4d 2e 3f
       0.6658852 0.6722877 0.70617515 0.6808715

net.8.weight f4 [32, 64]
000000 4a 37 5b bd 01 8f 99 bd 91 17 77 bd f7 4b d2 bd
       -0.053519525 -0.07497979 -0.06032521 -0.102683954
000010 df ec cc 3d 6f 6f 92 bc 6a e2 38 3b c1 e9 ff 3a
       0.10006117 -0.017875401 0.0028211125 0.001952462
000020 49 1c a8 bd 44 c7 8f 3d 72 37 b8 3d 50 07 38 bd
       -0.0820852 0.07020429 0.0899495 -0.04492885
000030 ea 95 c7 bd e6 c0 e8 3d 46 54 c0 bd 5b 13 6a bd
       -0.09745391 0.113649175 -0.09391074 -0.057147365
000040 15 27 79 bd 93 f8 2d 3b b9 71 22 bd fb 99 df bd
       -0.060828287 0.0026545867 -0.039659236 -0.10918041
000050 df ba f3 3c 4b ee 18 bd eb c0 a7 bd f4 22 92 3b
       0.029752193 -0.03733663 -0.08191093 0.004459733
000060 59 b3 73 3d 8d 50 d8 bd 20 aa e0 3d f9 f6 cf bd
       0.05949721 -0.10562239 0.10969949 -0.10154528
000070 f8 24 9a 3d 08 ae 31 3c 61 f2 87 bc ff 10 f2 bd
       0.075265825 0.010844715 -0.016595067 -0.11819648
000080 e2 4a 7a 3d 65 c2 e6 bb 5b 2d 3d bd 21 16 f8 3d
       0.06110657 -0.0070422166 -0.046185832 0.12113596
000090 8e ef b7 bd 66 dc 41 3c 56 a6 d6 bd 23 c3 dc 3d
       -0.08981238 0.011832332 -0.10480945 0.10779407
0000a0 0c 64 1c 3c 05 0e 55 3c 68 db 23 3c a1 5e 15 bc
       0.009545337 0.013003831 0.010001041 -0.0091168
0000b0 50 c2 e6 bd a7 3f ef bd 82 20 81 3d ce 3c cf bc
       -0.11267531 -0.116820626 0.063050285 -0.025297549
0000c0 64 dc 66 bb 41 2b 8f bc c6 71 fd 3d 59 fd b5 3d
       -0.0035226578 -0.01747668 0.12375216 0.08886213
0000d0 cf 91 3f 3d 52 48 93 bc c1 f9 5a 3d 77 9f 23 bc
       0.046769913 -0.017978821 0.05346084 -0.00998675
0000e0 1d 80 c1 3c 87 1b 62 bc 2a f3 ce 3d b2 c3 78 bd
       0.02362066 -0.013800508 0.101049736 -0.060733505
0000f0 cc 09 cc bd b3 5b 9e bd 6d a8 ea bd f9 29 df bd
       -0.09962806 -0.07732334 -0.11457906 -0.108966775
000100 20 8f e7 3d be e3 f8 bc f0 b9 65 bc 9d d7 d6 bd
       0.11306596 -0.030382033 -0.014021382 -0.10490344
000110 99 e4 97 bc 20 5b 66 bd c9 ee 65 bd ff 4c ce bc
       -0.018541621 -0.056239247 -0.056135926 -0.025183199
000120 09 f5 21 bd 57 a8 ce bd 72 a3 ee 3d 89 b9 03 bd
       -0.039540324 -0.10090702 0.116522685 -0.032159362
000130 cf 28 6c bd e0 7a dc bd 0d 65 a0 bd c8 7d 08 3d
       -0.057656106 -0.10765624 -0.07831774 0.03332308
000140 e9 9d 9d 3d 74 10 64 3d 53 39 af bd 15 43 b9 3d
       0.076961346 0.055679753 -0.085558556 0.09045998
000150 03 65 74 3d f8 f3 f2 3d e3 1b d8 3d aa 54 f1 3d
       0.059666645 0.118629396 0.10552194 0.117837265
000160 d9 2f a3 3d 61 7e 56 bc 56 b5 4d 3d 6b 1c c4 3c
       0.079681106 -0.0130916545 0.050221764 0.023939332
000170 8f 98 33 bd 43 ba ff 3d 27 f9 11 bd 6b f4 8b b9
       -0.043846663 0.124866985 -0.035638 -0.00026694252
000180 01 d5 ab 3d ee 70 b1 bd b1 87 a1 bd 70 cf a2 3d
       0.08390237 -0.08664118 -0.07887209 0.07949722
000190 9d 25 59 bb 6f 7a 71 bc fc 9f 80 3d 29 63 97 3c
       -0.0033133992 -0.014738663 0.062805146 0.0184799
0001a0 98 61 3a 3d b7 66 44 3d ed 76 0d bd 14 5c b5 bd
       0.04550323 0.04794952 -0.034537245 -0.08855453
0001b0 3e 5f 92 3d 82 6a 8e bd b5 da 82 3b 39 35 d1 bd
       0.07147072 -0.069539085 0.003993357 -0.102152295
0001c0 a6 cd bb 3d 6c b5 e5 3d 4a af 2b 3d 4c 3e f3 3d
       0.09170084 0.11216244 0.041915216 0.118771166
0001d0 3a 4c 49 bd ea ac d2 3d 71 e9 ba 3d 13 a8 f5 bd
       -0.04914496 0.10286887 0.09126557 -0.11994948
0001e0 0a 33 ab 3d f3 57 c5 bc 64 82 c6 bd 6e 68 82 3d
       0.08359344 -0.024089789 -0.09692839 0.06367575
0001f0 86 67 9a bd 66 45 89 bd 37 73 81 3d d8 00 9d 3d
       -0.07539277 -0.0670269 0.063208036 0.076661766
000200 35 ef ec 3d ae fb dd 3d 21 4c 41 3d b8 1a 9a b9
       0.115690626 0.1083902 0.047191743 -0.00029393076
000210 d8 1c e3 3d 27 ac 8f bc 6f dd 08 bd 9d 65 a2 bd
       0.11089486 -0.017538143 -0.0334143 -0.079295374
000220 7e 20 27 3d 7b 33 63 3d 2a b8 88 bd 98 ab a4 3d
       0.04080247 0.055469017 -0.066757515 0.080405414
000230 b8 84 d5 bd 7b 2a 26 3d d8 eb 77 bd c0 bc 2e bd
       -0.10425705 0.040567856 -0.060527653 -0.042660475
000240 9b af c5 bc a9 91 fa 3d 9c db 7a 3d ae 70 97 bd
       -0.024131587 0.12234814 0.061244592 -0.07394539
000250 c4 c3 ab bd 10 2e 62 bd 49 8d 31 ba 81 0c 57 3d
       -0.08386949 -0.05521971 -0.0006773067 0.05250216
000260 29 14 e8 bd 19 83 64 bc 60 98 69 bc ba b8 26 bc
       -0.1133197 -0.013947272 -0.01425752 -0.010175878
000270 dd a3 72 3c d0 26 79 3d 13 9a a1 3c f5 2d d5 3c
       0.014809576 0.06082803 0.019726789 0.02602289
000280 5d 4a c8 bc d6 78 f0 3d a4 d1 b4 3d e2 dc fd bd
       -0.024449522 0.117417976 0.08829048 -0.12395646
000290 d4 0c 49 3c e3 6e b3 3d 91 ba 6b 3d 2d 6e ef bd
       0.012271125 0.08761384 0.05755097 -0.11690936
0002a0 a8 36 fa 3d 64 59 8d 3d c3 e3 97 bc 87 5a f8 bd
       0.12217456 0.069018155 -0.018541222 -0.12126642
0002b0 d0 02 22 3b 6c 69 5c 3c cf 1c 60 bb fc fe 19 3d
       0.0024720915 0.013452869 -0.0034196859 0.037596688
0002c0 23 a2 45 bc 55 c8 a7 bd 88 9e 81 bd ee 05 d0 bd
       -0.012062582 -0.08192507 -0.063290656 -0.10157381
0002d0 db 72 de 3d 49 b1 c2 bd d8 8a 5a 3d ec 11 d1 bd
       0.10861751 -0.09506471 0.053355068 -0.102084965
0002e0 f8 b6 1c 3d 10 82 86 bd 38 00 e9 bd 1e 2a 28 3b
       0.03826043 -0.06567776 -0.11376995 0.002565987
0002f0 5a 0e dd bd 4f 17 0d 3d 50 bc c4 bd 5e 78 14 3d
       -0.10793753 0.034446057 -0.0960623 0.036247604
000300 05 bc 1c bc e2 45 01 bc c2 20 c6 3c ce 94 f1 3c
       -0.009566312 -0.0078901965 0.024185542 0.0294899
000310 df 01 d0 3d d5 f0 ae 3c ad 2a fd bc 2b cf 60 3d
       0.10156607 0.021355072 -0.030904138 0.05488507
000320 b3 fc b4 bd 72 a0 70 bd 2f d8 78 3c b1 e8 9f bd
       -0.08837261 -0.058746763 0.015188261 -0.07808054
000330 95 52 01 3d be 15 3c 3d 98 e6 d2 3d 12 e6 f9 3d
       0.031572897 0.045919172 0.102978885 0.122020856
000340 4c 7b 91 bd 6c eb 12 3d c3 de cd 3d b1 86 ee bc
       -0.07103595 0.035869047 0.10052254 -0.02911696
000350 b3 e2 bf 3d 2e 38 88 3b 30 eb 89 bd d8 f9 6f 3d
       0.09369411 0.0041570878 -0.067343116 0.05858788
000360 7e 80 d8 3d 7f 35 5c bd da 1c a7 bd 0c 4f fb 3d
       0.10571383 -0.053761955 -0.081598 0.12270936
000370 76 1b fd bc 11 a7 b7 bd 28 e0 30 bc 34 60 bd 3c
       -0.030896883 -0.08967412 -0.0107956305 0.023117162
000380 78 b4 6d 3c e0 ac 24 3d 57 0d 7f 3c b2 3d ce 3d
       0.014508359 0.04020393 0.015567145 0.10070361
000390 3b 7f 9d 3d ae 3b b1 bd 67 83 22 3c 4e 45 37 bb
       0.07690283 -0.08653961 0.009919024 -0.0027964893
0003a0 db c8 5e 3d eb e2 e7 bd a5 6f 85 3c 28 b7 07 3c
       0.05439077 -0.11322578 0.016288588 0.008283414
0003b0 07 aa eb 3d 02 7c ee 3c 47 e4 03 bd 01 a7 a4 3d
       0.115070395 0.029111866 -0.032200124 0.08039666
0003c0 b1 de 92 bc 70 99 9c bc 8a fa d2 bd 20 e1 c4 3c
       -0.017928453 -0.019116133 -0.10301693 0.02403313
0003d0 18 de b2 3d a2 43 a5 bd 27 95 f3 bd aa af dd bd
       0.08733767 -0.080695406 -0.11893683 -0.10824521
0003e0 f2 d5 8f 3d c8 a2 cf 3c dd a7 bb bd f0 6d 7e bd
       0.07023229 0.025346175 -0.09162877 -0.062116563
0003f0 b2 36 d8 bd a1 e2 dc bd 1b 9f 20 3d f5 f2 fe bd
       -0.10557307 -0.107854135 0.039214235 -0.12448684

net.8.bias f4 [32]
000000 81 2d 7b bc bd 65 e5 bd d5 88 de bd 6e 99 cc bd
       -0.015330673 -0.11201046 -0.108659424 -0.09990202
000010 a6 d7 c9 bd 87 df b1 3d de 63 9c bd 49 e5 ac 3d
       -0.09855585 0.086852126 -0.07636236 0.0844217
000020 51 c4 55 bb 05 1a 78 bd d8 34 c7 3d 9b 96 69 3d
       -0.0032618234 -0.06057169 0.09726876 0.057028394
000030 6b 3c 71 3d a9 62 44 3d aa a4 bb bc 99 7b eb 3d
       0.05889551 0.047945652 -0.022905666 0.11498184
000040 a7 99 ea bd f9 7e fa 3d b6 1e 9d 3d 5b c9 36 3c
       -0.11455088 0.12231249 0.07671873 0.011156405
000050 77 c1 7c 3d b2 a8 42 bd 6c 87 02 3d e2 8e 98 bd
       0.06170794 -0.04752416 0.03186743 -0.07449128
000060 44 32 cd bd 61 27 c6 3d d6 a4 32 bd 23 e0 a9 3d
       -0.10019353 0.0967548 -0.04361423 0.08294704
000070 51 2b ca 3d 23 ca e6 bd e8 2f 9f bd 09 b0 61 bb
       0.09871543 -0.11269023 -0.07772809 -0.00344372

net.10.weight f4 [1, 32]
000000 fd 6e d0 bd c3 44 f8 3d f4 97 16 3c b0 dd ba bd
       -0.10177419 0.1212249 0.009191502 -0.09124315
000010 7a 57 11 bd 15 15 b2 3d cd 94 21 3e 8a 51 da 3d
       -0.035483815 0.08695427 0.15779419 0.106600836
000020 5e 00 18 be e7 ec 29 3e e4 e2 95 3d db 2f fc 3c
       -0.1484389 0.16594277 0.073186666 0.030784538
000030 b1 19 1d be 16 b1 17 3e d9 99 d7 bd c3 f3 16 3e
       -0.15341832 0.14813647 -0.10527391 0.14741425
000040 95 6b 2c 3c ea 9d 81 3d 82 0e 77 3d a8 4a 03 3e
       0.010523696 0.06328948 0.06031657 0.12821448
000050 18 ee f8 bd 14 b9 f9 bd e2 e7 84 3d 6a 67 7f 3d
       -0.12154788 -0.12193504 0.06489541 0.062354483
000060 15 38 d2 3d 2b af 0d 3e 66 79 ef 3d 70 01 0f bd
       0.10264603 0.13836353 0.11693077 -0.03491348
000070 01 a3 a1 3d a6 0f 6d 3d 91 d8 1d 3e 05 5d 96 bc
       0.07892419 0.05787625 0.15414645 -0.018354902
