best_model.pth (torch, 669237 bytes, 27 tensors)

conv.0.weight f4 [32, 1, 3]
0	0x3eb0ae1f	0.34507844
1	0x3eec1ac4	0.4611417
2	0xbf05f41d	-0.5232561
3	0x3ddf853b	0.109140836
4	0xbe3aaf91	-0.18231036
5	0xbe137000	-0.14398193
6	0xbf0cb88a	-0.54969084
7	0xbd8cb306	-0.068700835
8	0xbefd486c	-0.49469316
9	0xbd9846dd	-0.07435391
10	0x3dca4d6d	0.09878049
11	0x3ea9b818	0.33148265
12	0xbe82809f	-0.25488755
13	0xbd80a10e	-0.06280719
14	0xbf1062d2	-0.5640079
15	0xbf1536a1	-0.5828648
16	0x3e985668	0.29753423
17	0x3ea57cb2	0.32321697
18	0x3e8a8902	0.27057654
19	0x3d5fd737	0.054648604
20	0xbefc2484	-0.4924661
21	0xbd294890	-0.041328967
22	0xbd7e2ff3	-0.062057447
23	0xbf0597f2	-0.52184975
24	0x3dec2074	0.115296274
25	0x3e9840fb	0.29737076
26	0xbe9e2e80	-0.30894852
27	0x3df460a4	0.11932495
28	0x3e9c5e57	0.30540726
29	0xbef53f67	-0.47899935
30	0x3e3aec10	0.18254113
31	0xbf0220cb	-0.5083129
32	0xbc690721	-0.014222891
33	0xbefdfaa1	-0.49605277
34	0x3c9bdaee	0.019025292
35	0xbd445216	-0.047929846
36	0x3eeaef02	0.45885473
37	0xbb624085	-0.003452332
38	0xbed3ac0f	-0.41342208
39	0xbd804b2b	-0.06264337
40	0xbe71f05c	-0.23626846
41	0x3e641b2a	0.22275987
42	0x3eca0da9	0.39463547
43	0x3efa037e	0.4883079
44	0x3cc222f3	0.023698306
45	0x3e46e300	0.19422531
46	0xbe989d8a	-0.29807693
47	0xbee06397	-0.4382598
48	0xbf04da7d	-0.51895887
49	0x3efa2dad	0.48862973
50	0x3ed9f023	0.42566022
51	0xbdc63e93	-0.09679904
52	0xbcd8bb4d	-0.0264565
53	0x3e474d38	0.1946305
54	0x3e1af29a	0.15131608
55	0x3da7f3eb	0.082008205
56	0xbef40cd2	-0.4766603
57	0xbdda655a	-0.106638625
58	0x3cc63043	0.024192935
59	0x3e570f9c	0.21002048
60	0xbedf7f3d	-0.43651763
61	0x3efa1345	0.48842826
62	0x3ee5e122	0.44898325
63	0xbe7c4d82	-0.24638942
64	0x3eff0f45	0.49816337
65	0x3ed52190	0.4162717
66	0x3dcf24aa	0.10114415
67	0x3c38dee3	0.011283609
68	0x3ec8be86	0.39207858
69	0xbf08fbce	-0.53509223
70	0x3e3ac42a	0.18238893
71	0x3ea9c80c	0.33160436
72	0xbf14dee4	-0.58152604
73	0xbece7645	-0.40324607
74	0x3e9bd25d	0.30433932
75	0xbeb8e9d4	-0.36115897
76	0x3f07bb51	0.530202
77	0x3f0332d2	0.5124942
78	0x3eb59195	0.35462633
79	0x3eec1c52	0.46115357
80	0x3f058df2	0.52169716
81	0x3f0b804b	0.54492635
82	0xbe4fee5f	-0.20305775
83	0xbf105023	-0.5637228
84	0xbeef1857	-0.46698257
85	0xbea64185	-0.32471862
86	0x3e573417	0.21015964
87	0x3e7bbfe2	0.24584916
88	0x3f0a9063	0.54126567
89	0xbe33d0d2	-0.17560127
90	0x3db2478a	0.08705051
91	0xbf064712	-0.52452195
92	0xbeac8a0d	-0.33699074
93	0xbe70cfd7	-0.23516785
94	0x3ef02ad0	0.46907663
95	0xbe656c8b	-0.22404687

conv.0.bias f4 [32]
0	0xbe22df07	-0.1590539
1	0xbe5138b2	-0.20431784
2	0xbf0b3626	-0.543795
3	0xbec640d3	-0.38721332
4	0xbf01c7c2	-0.5069543
5	0x3d9bf6ec	0.07615456
6	0x3ee2dd8c	0.44309652
7	0x3e32e3c9	0.17469706
8	0xbeb22255	-0.34791818
9	0x3e9b6494	0.30350173
10	0x3f112935	0.567035
11	0xbe084e79	-0.13311185
12	0x3e2747a2	0.1633592
13	0x3f0df315	0.5544904
14	0xbca4e734	-0.020129777
15	0xbef5b7ca	-0.47991782
16	0x3dacf267	0.08444672
17	0xbf154115	-0.5830243
18	0xbd8d279c	-0.068923205
19	0x3ec9a562	0.3938399
20	0xbea3d5d4	-0.31999075
21	0xbecc0819	-0.39849928
22	0xbe10d1f3	-0.1414259
23	0xbcc3eb3d	-0.023915881
24	0xbe99bdba	-0.30027562
25	0xbea72c7a	-0.3265112
26	0x3e108947	0.14114867
27	0xbe482a99	-0.195475
28	0xbe54add7	-0.2076944
29	0x3e364bc9	0.17802347
30	0x3ed1bb41	0.40963176
31	0xbeebaa71	-0.46028474

conv.1.weight f4 [32]
0	0x3f7f4d4c	0.9972732
1	0x3f8156f4	1.0104661
2	0x3f80ebac	1.0071921
3	0x3f79319a	0.9734131
4	0x3f80fc03	1.0076908
5	0x3f80d155	1.0063883
6	0x3f814bcc	1.0101256
7	0x3f7cd137	0.98756737
8	0x3f800f8d	1.0004746
9	0x3f80a445	1.0050131
10	0x3f80b8b0	1.0056362
11	0x3f7ae1d7	0.98000854
12	0x3f8216c5	1.0163199
13	0x3f829f68	1.0204897
14	0x3f793e0c	0.973603
15	0x3f7fecd5	0.9997075
16	0x3f82a707	1.0207223
17	0x3f81cbfc	1.0140376
18	0x3f7dc45e	0.9912776
19	0x3f81b498	1.0133238
20	0x3f7a3dcf	0.9775056
21	0x3f803af3	1.001799
22	0x3f7f314a	0.99684584
23	0x3f803474	1.0016007
24	0x3f819b20	1.0125465
25	0x3f7cb43d	0.9871252
26	0x3f7dced7	0.9914374
27	0x3f823a1a	1.0173981
28	0x3f79f27d	0.9763563
29	0x3f7e0817	0.99231094
30	0x3f7d5407	0.9895634
31	0x3f826fbc	1.0190349

conv.1.bias f4 [32]
0	0x3d5abca5	0.05340256
1	0x3c2cfc83	0.01055825
2	0x3bd9e1b7	0.0066492218
3	0xbbb56334	-0.0055355076
4	0x3c024f44	0.007953469
5	0xbc0dc267	-0.008652306
6	0xba6544e0	-0.000874592
7	0xbc9e4ee2	-0.019324724
8	0xbc2c3aae	-0.010512037
9	0xbcc3beb9	-0.023894655
10	0x3cdda200	0.027054787
11	0xbbd0cf38	-0.0063723586
12	0x3c727cfd	0.014800307
13	0xba333a82	-0.00068370264
14	0xbcfe30ec	-0.031029187
15	0xbc4c73a7	-0.012478746
16	0x3d250a2c	0.040292904
17	0x3d2b9cff	0.04189777
18	0xbceec867	-0.029148294
19	0xbd2a2d0d	-0.04154687
20	0x3c092853	0.00837143
21	0x3cbe331a	0.023217726
22	0xbc52f889	-0.012876638
23	0x3d020d44	0.031750932
24	0xbcd67f78	-0.026183829
25	0x3c9fff69	0.019530969
26	0xbc08d073	-0.008350479
27	0xbd1e5ae7	-0.03866091
28	0xbce428d5	-0.027851501
29	0xbc9bddf9	-0.019026743
30	0x3c87ffe8	0.016601518
31	0xbc83c58f	-0.016085414

conv.1.running_mean f4 [32]
0	0xbe2f295d	-0.17105623
1	0xbe4794a2	-0.19490293
2	0xbeffc602	-0.49955755
3	0xbeccb00c	-0.39978063
4	0xbef16ab8	-0.47151732
5	0x3d99a0c3	0.07501366
6	0x3ee6301a	0.44958574
7	0x3e4c61a8	0.19959128
8	0xbeb45528	-0.3522122
9	0x3e9c0ca1	0.30478385
10	0x3f148559	0.5801597
11	0xbde4d832	-0.111740485
12	0x3e24a023	0.16076712
13	0x3f0f1fcc	0.55907893
14	0xbd687f8f	-0.056762274
15	0xbeeb0157	-0.4589946
16	0x3d8c177b	0.06840416
17	0xbf160ab2	-0.5861007
18	0xbd765ba4	-0.06014599
19	0x3ec7e932	0.390451
20	0xbeae0417	-0.33987495
21	0xbed94307	-0.4243395
22	0xbe24b174	-0.16083318
23	0xbcba0371	-0.02270672
24	0xbe8b7e0c	-0.27244604
25	0xbeb4e539	-0.35331133
26	0x3db3a420	0.08771539
27	0xbe403f2d	-0.187741
28	0xbe3bfbbc	-0.18357748
29	0x3e1d9e9e	0.15392539
30	0x3ee1bda7	0.44090006
31	0xbeebe6ab	-0.46074423

conv.1.running_var f4 [32]
0	0x3f08fbf0	0.53509426
1	0x3d7aef7d	0.06126355
2	0x3f017436	0.5056795
3	0x3de70e38	0.11282009
4	0x3eb44ef5	0.3521649
5	0x3eeb4124	0.45948136
6	0x3e8ba20b	0.27272066
7	0x3e7dc5ad	0.24782439
8	0x3e327c47	0.1743022
9	0x3e9529d6	0.2913348
10	0x3e8b4cc1	0.27206996
11	0x3e618228	0.22022307
12	0x3ea6cab7	0.32576534
13	0x3dc654d4	0.096841484
14	0x3ec854c9	0.39127186
15	0x3e954d3e	0.29160494
16	0x3f1d1023	0.6135275
17	0x3d271287	0.040789153
18	0x3e610acf	0.2197678
19	0x3d465c0d	0.04842763
20	0x3f1182b0	0.5684004
21	0x3ee71766	0.4513504
22	0x3e166875	0.14688285
23	0x3ebc621b	0.367936
24	0x3f0a059c	0.5391481
25	0x3f1e8329	0.61918885
26	0x3f1b94e4	0.60774064
27	0x3f10d037	0.5656771
28	0x3eac503e	0.3365497
29	0x3ebcc069	0.36865547
30	0x3ec63bba	0.38717443
31	0x3e93d1b3	0.28870925

conv.4.weight f4 [64, 32, 3]
0	0xbda8e8dd	-0.0824754
1	0x3dfe2d89	0.12411029
2	0xbc33b9a2	-0.010969551
3	0x3b9ca82a	0.004780789
4	0xbdbdcb07	-0.0926724
5	0xbd365bd5	-0.04452117
6	0x3c6aa4d7	0.014321527
7	0x3da6922d	0.081333496
8	0xbb1fd959	-0.0024391024
9	0xbac77c5b	-0.0015219556
10	0xbd8cb6e0	-0.06870818
11	0xbcefd936	-0.029278379
12	0xbc017b22	-0.007902892
13	0x3cb4e388	0.022081152
14	0xbda39eda	-0.07989283
15	0x3cafa981	0.02144313
16	0x3db160c6	0.08661036
17	0x3de3a6c2	0.11115791
18	0x3d71f9dd	0.05907618
19	0xbd291441	-0.04127908
20	0xbd96a9ef	-0.07356631
21	0xbd96b0f7	-0.07357972
22	0x3c2d646f	0.010583027
23	0x3cba1377	0.02271436
24	0xbdbf51e5	-0.09341792
25	0x3dcad5ae	0.099040374
26	0xbc904e0e	-0.017615344
27	0xbd793e99	-0.060850713
28	0xbceaea86	-0.028676283
29	0xbe01ef0f	-0.1268885
30	0x3cb1b162	0.021691028
31	0x3db02422	0.08600642
32	0x3de5982c	0.11210665
33	0x3dd2a6e2	0.102857366
34	0xbc607a3a	-0.013701016
35	0xbd95a98e	-0.073077306
36	0x3cc64fd4	0.024207987
37	0x3dcf64da	0.10126658
38	0xbda56756	-0.080763504
39	0xbd938223	-0.07202556
40	0xbdb06854	-0.08613649
41	0x3d43e3f7	0.047824826
42	0x3d23467c	0.03986214
43	0x3c9f1f6a	0.01942416
44	0x3db83df5	0.08996192
45	0xbd8f85d7	-0.0700795
46	0xbd6eb168	-0.058274657
47	0x3dc113e5	0.09427623
48	0xbd68a74c	-0.05680017
49	0xbd4fb44a	-0.050709046
50	0xbd2dd554	-0.042439774
51	0x3d94fd8c	0.07274923
52	0xbd35cbd0	-0.044383824
53	0x3ce79503	0.028269297
54	0xbd6b23f1	-0.057407323
55	0xbca16655	-0.019702116
56	0xbcab549b	-0.020914366
57	0xbb0d0490	-0.0021517612
58	0x3de08603	0.10963061
59	0xbdb73ff4	-0.08947745
60	0xbd506edf	-0.050886985
61	0xbd4a6a41	-0.049417738
62	0x3dc87876	0.09788601
63	0x3d2c1e93	0.042021345
64	0x3cec0922	0.028812949
65	0x3d4129e1	0.04715908
66	0x3d2e22af	0.042513546
67	0x3ddc9bde	0.10771917
68	0x3d41375c	0.047171935
69	0xbc685ded	-0.01418255
70	0x3db88128	0.090090096
71	0x3d820232	0.06348075
72	0x3ddd236c	0.10797772
73	0xbc820193	-0.015869891
74	0xbc905760	-0.017619789
75	0xbdb7231a	-0.08942242
76	0xbb43dfa8	-0.0029887948
77	0x3c1ec196	0.009689709
78	0x3ce74419	0.028230714
79	0xbd06a644	-0.032873407
80	0x3c11db29	0.0089023495
81	0xba351455	-0.0006907632
82	0xbb993022	-0.0046749273
83	0x3cab92a9	0.020943956
84	0x3d4ab1cb	0.049485963
85	0x3cbaaffc	0.022788994
86	0xbd84d8ae	-0.06486641
87	0xbd94263d	-0.07233856
88	0x39722b52	0.00023095057
89	0xbcdaa96a	-0.026692111
90	0xbdbc4a5a	-0.09193869
91	0x3de008e8	0.10939199
92	0xbd8b9d65	-0.0681713
93	0x3d88572a	0.0665725
94	0x3d25792f	0.040398773
95	0xbd7893ab	-0.060687702
96	0x3d252de7	0.04032698
97	0xbd1112f8	-0.03541848
98	0xbd4012fa	-0.046893097
99	0x3d510081	0.05102587
100	0x3ca36a0c	0.019948028
101	0xbdd83e62	-0.105587736
102	0xbd90368a	-0.070416525
103	0x3dabe641	0.08393527
104	0x3d02d72e	0.031943493
105	0xbdab8a93	-0.0837604
106	0xbcb86bef	-0.022512404
107	0x3d99e5a5	0.07514504
108	0xbb8759f7	-0.0041305977
109	0xbd940c4e	-0.072289094
110	0xbc5e3b48	-0.013563938
111	0x3cfec297	0.031098647
112	0x3c6f4e2b	0.014606039
113	0xbdc692d3	-0.09695973
114	0x3d4f4636	0.050604068
115	0xbdbca75d	-0.092116095
116	0x3d2ba275	0.041902978
117	0x3bf77896	0.0075522168
118	0x3db01f23	0.08599689
119	0xbdbba084	-0.09161475
120	0x3c859f64	0.016311355
121	0xbd882b39	-0.06648869
122	0x3d4b3ad6	0.049616657
123	0x3d8b8fa5	0.068145074
124	0xbd6e3d7a	-0.058164097
125	0x3d277616	0.0408841
126	0xbccc3bfc	-0.024930947
127	0xbd93bb91	-0.0721351
128	0x3cf4665b	0.029833963
129	0xbdd2ae80	-0.102871895
130	0xbd977187	-0.073947005
131	0x3b23a654	0.0024970965
132	0xbdb85097	-0.08999746
133	0x3d80a863	0.06282117
134	0xbdfc68a1	-0.12324644
135	0x3da430e4	0.08017138
136	0xbcb484e6	-0.022036027
137	0x3d72da96	0.05929049
138	0xbd87270d	-0.06599245
139	0x3c3fd452	0.011708336
140	0x3ceb63ac	0.02873405
141	0xbda4d4fa	-0.080484346
142	0xbcf830df	-0.030296741
143	0xbc44a748	-0.012002774
144	0x3d44b8a2	0.048027642
145	0x3c1ba884	0.0095006265
146	0xbd0e38ab	-0.03472201
147	0xbb57bfac	-0.0032920642
148	0xbc6d6ae9	-0.014490821
149	0xbe0cb392	-0.13740376
150	0x3d3362d3	0.043795418
151	0x3d9a4372	0.075323954
152	0x3c9a16e0	0.018809736
153	0xbcbd8e3d	-0.023139114
154	0xbc35d816	-0.011098882
155	0xbdf4b165	-0.11947898
156	0x3dc5b6c7	0.09654003
157	0xbdb970cc	-0.090547174
158	0xbc777196	-0.015102765
159	0x3dd85d19	0.10564632
160	0xbc5a7915	-0.013334532
161	0xbda469a7	-0.08027964
162	0xbdbf85df	-0.09351706
163	0xb9885154	-0.00026000536
164	0xbdb7337e	-0.08945368
165	0x3dca999b	0.09892579
166	0x3d9bd5c2	0.076091304
167	0xbccabab8	-0.024747238
168	0x3d861bd0	0.065482736
169	0x3d194442	0.03741861
170	0xbdc71a8c	-0.0972186
171	0xbd9abfa9	-0.075560875
172	0xbcbe0f6a	-0.02320071
173	0xbde426c3	-0.11140206
174	0x3db80098	0.08984488
175	0x3d4f3b77	0.05059382
176	0xbdebff54	-0.11523309
177	0x3d987843	0.07444813
178	0x3ca99c73	0.020704484
179	0xbd892745	-0.06696943
180	0x3c04d4c0	0.008107364
181	0x3da94cd6	0.082666084
182	0xbdac3141	-0.08407832
183	0xbcd934b4	-0.026514389
184	0xbbee5f63	-0.0072745546
185	0xbde4c1e0	-0.11169791
186	0xbd179527	-0.037007477
187	0xbc9f136d	-0.019418443
188	0x3c1b1abe	0.009466825
189	0xbc9b55ec	-0.01896187
190	0x3d395873	0.045250367
191	0x3db77553	0.08957925
192	0x3b112ccc	0.0022151945
193	0x3d803c92	0.06261553
194	0x3dbb4f1f	0.091459505
195	0x3ca14fcc	0.01969137
196	0x3d8fb327	0.070165925
197	0x3d94f4ae	0.072732314
198	0xbd399037	-0.04530355
199	0x3d472530	0.04861945
200	0xbc2fe85b	-0.01073655
201	0x3d60d8aa	0.054894127
202	0xbc3cea44	-0.011530463
203	0xbd4c9c98	-0.049954027
204	0xbd560c77	-0.05225798
205	0xbdb80bbc	-0.08986613
206	0x3d2dc032	0.04241962
207	0x3dd7ecee	0.105432376
208	0xbdbc2c27	-0.09188109
209	0x3d4ea0c2	0.05044628
210	0x3db082d7	0.08618706
211	0x3dc50a13	0.09621062
212	0xbd545222	-0.05183614
213	0xbd028d70	-0.031873167
214	0x3db95802	0.09049989
215	0x3d093f3a	0.033507563
216	0xbca8f2ab	-0.020623526
217	0xbd6526f8	-0.055945367
218	0x3dea4596	0.11439054
219	0x3db1b1c1	0.08676482
220	0xbd910ba0	-0.070822954
221	0x3d215562	0.039388068
222	0xbc6e792a	-0.014555255
223	0xbdb579e3	-0.08861139
224	0xbd3856fe	-0.045004837
225	0xbd9734e3	-0.07383134
226	0xbdd983ec	-0.10620865
227	0xbd18d926	-0.037316464
228	0x3daec52e	0.08533703
229	0x3c0c502c	0.008564036
230	0xbd80877d	-0.06275842
231	0xbd224aa1	-0.039621953
232	0xbd841a74	-0.06450358
233	0xbc458038	-0.0120544955
234	0x3daf822f	0.085697524
235	0xbc5c15d5	-0.01343294
236	0xbd9bd079	-0.076081224
237	0x3d7eb3e9	0.062183294
238	0x3dd18f0f	0.102323644
239	0xbd83f16a	-0.064425305
240	0x3d5134a1	0.05107558
241	0xbd96f2f3	-0.07370558
242	0x3ca8dcea	0.020613153
243	0x3cb890f9	0.022530066
244	0xbc28ad95	-0.010295291
245	0x3cf0557a	0.029337633
246	0xbd2927bf	-0.04129767
247	0xbd8b6617	-0.068065815
248	0xbd804327	-0.06262808
249	0x3dbfbc42	0.09362079
250	0x3d8a00f3	0.06738462
251	0x3dd702c1	0.10498572
252	0xbd2e500b	-0.042556804
253	0x3d013ce1	0.0315522
254	0xbd124e56	-0.03571924
255	0x3dd421c0	0.10358

conv.4.bias f4 [64]
0	0xbd5716f7	-0.052512135
1	0xbcbe2347	-0.02321018
2	0x3da79cdf	0.08184218
3	0x3d4c0699	0.04981098
4	0xbdb6a4f7	-0.08918183
5	0x3cc4dcce	0.02403107
6	0x3d83bcca	0.06432493
7	0x3d15beda	0.036558963
8	0x3d87b8ad	0.06627021
9	0x3d0adecb	0.03390388
10	0xbd8a2127	-0.067446046
11	0x3daec279	0.085331865
12	0x3d2a4e98	0.04157886
13	0xbd98b54b	-0.07456454
14	0xbd35b9ca	-0.044366635
15	0xbdc25a1c	-0.09489843
16	0xbd692637	-0.05692121
17	0xbd228395	-0.039676268
18	0xbb2a5c95	-0.0025995125
19	0xbdc1bd74	-0.094599634
20	0xbc8c0eb8	-0.017096862
21	0xbca42ddb	-0.020041397
22	0x3d9e7391	0.07736886
23	0x3d73e1d0	0.059541523
24	0xbdc4f9c0	-0.096179485
25	0xbd98c0ba	-0.07458635
26	0x3cb90c4b	0.02258887
27	0xbd5b5148	-0.053544313
28	0xbd1dbb12	-0.038508482
29	0x3c3359f4	0.010946739
30	0xbd1211d2	-0.035661526
31	0x3daf23e8	0.085517704
32	0x3d46232e	0.048373394
33	0xbdb5eb38	-0.08882755
34	0x3cf44a33	0.029820537
35	0xbd84603d	-0.064636685
36	0xbc590faa	-0.0132483635
37	0xbaaff115	-0.0013423288
38	0xbdbcf522	-0.09226443
39	0x3d177e62	0.036985762
40	0x3d89fd5b	0.06737777
41	0x3d4515b1	0.04811639
42	0xbd861da0	-0.06548619
43	0xbcffc890	-0.031223565
44	0x3d803576	0.06260197
45	0x3dc3fb15	0.095693745
46	0x3dcd5308	0.100256026
47	0xbdbac2d4	-0.09119192
48	0xbc50dfec	-0.0127487
49	0xbdb59a1a	-0.08867283
50	0xbd5ba14b	-0.053620618
51	0x3c98aa75	0.018635968
52	0x3d490289	0.049074683
53	0xbdd62332	-0.10455932
54	0x3d814547	0.06312042
55	0xbc4a98fb	-0.012365575
56	0xbcd43ca1	-0.025907816
57	0xbd25e44d	-0.040500928
58	0x3d2f9872	0.042869993
59	0x3dc60c1d	0.09670279
60	0x3db02a1d	0.086017825
61	0x3d38e0a6	0.045136116
62	0xbc39d7fe	-0.011343
63	0xbdae77a6	-0.08518915

conv.5.weight f4 [64]
0	0x3f7c8e65	0.98654777
1	0x3f81b653	1.0133766
2	0x3f818bb6	1.0120761
3	0x3f7c9857	0.9866995
4	0x3f7d943b	0.99054307
5	0x3f7e9fbd	0.9946249
6	0x3f7ae0dc	0.9799936
7	0x3f807c00	1.0037842
8	0x3f7a9de2	0.9789716
9	0x3f7c5720	0.9857044
10	0x3f7f382f	0.99695104
11	0x3f83944d	1.0279633
12	0x3f734a36	0.9503511
13	0x3f801dcd	1.0009094
14	0x3f82c83f	1.021736
15	0x3f78c378	0.9717326
16	0x3f820eab	1.0160726
17	0x3f80e3af	1.0069484
18	0x3f7fc011	0.99902445
19	0x3f7b2ac9	0.9811216
20	0x3f833732	1.0251219
21	0x3f81202d	1.0087944
22	0x3f81c0c5	1.0136954
23	0x3f7cd887	0.98767895
24	0x3f847d2f	1.0350703
25	0x3f7c73c6	0.98614156
26	0x3f7f94c6	0.99836385
27	0x3f7a2cfa	0.9772488
28	0x3f8083d0	1.0040226
29	0x3f7e9b55	0.9945577
30	0x3f7fb728	0.9988885
31	0x3f7fcca9	0.9992166
32	0x3f78321e	0.9695147
33	0x3f823da7	1.0175065
34	0x3f8139ff	1.0095824
35	0x3f819faf	1.0126857
36	0x3f756a8a	0.9586569
37	0x3f807f32	1.0038817
38	0x3f7f9467	0.9983582
39	0x3f7cc847	0.987431
40	0x3f841eaa	1.0321858
41	0x3f7d6254	0.9897816
42	0x3f7f0a40	0.99625015
43	0x3f849a09	1.0359508
44	0x3f7d00c3	0.9882929
45	0x3f80d169	1.0063907
46	0x3f7752a5	0.9661048
47	0x3f8357f5	1.0261217
48	0x3f82514e	1.0181062
49	0x3f7eed99	0.99581295
50	0x3f7937d2	0.973508
51	0x3f7d4673	0.9893562
52	0x3f7e824c	0.9941757
53	0x3f7d42db	0.9893014
54	0x3f77a7f8	0.96740675
55	0x3f83ff1b	1.0312227
56	0x3f7f7756	0.9979147
57	0x3f7dbcad	0.9911602
58	0x3f844842	1.0334551
59	0x3f802a27	1.0012864
60	0x3f83c2df	1.0293845
61	0x3f86a49f	1.0518988
62	0x3f7de98d	0.99184495
63	0x3f7d4305	0.9893039

conv.5.bias f4 [64]
0	0xbd206910	-0.039162695
1	0xbd214fb0	-0.039382637
2	0xbc3a0fb4	-0.011356283
3	0xbd45fcf1	-0.048336927
4	0xbc696672	-0.014245616
5	0xbcc07cbd	-0.02349698
6	0xbd162921	-0.036660317
7	0xbcea49a8	-0.028599575
8	0xbd1ad00b	-0.03779606
9	0xbd1deeb7	-0.038557734
10	0xbcd3c5c8	-0.025851145
11	0xbd0d8644	-0.034551874
12	0xbcc93c47	-0.024564875
13	0xbcf8fa95	-0.030392924
14	0x3d10d9de	0.035364024
15	0xbc135a07	-0.008993632
16	0x3c1c44d7	0.009537897
17	0xbc3e99f7	-0.011633388
18	0x3bd65243	0.006540568
19	0xbca54f22	-0.020179335
20	0x3ca4ee5d	0.020133192
21	0xbd0b485a	-0.034004547
22	0xbb5e58d8	-0.0033927467
23	0xbcebc51f	-0.028780518
24	0x3c00dbbe	0.007864891
25	0xbd26fdb2	-0.040769286
26	0x3b9183b1	0.0044407477
27	0xbce01833	-0.02735529
28	0x3bd803a4	0.006592231
29	0x3bcc8e0d	0.0062425197
30	0xbcf9362d	-0.03042134
31	0xbc6f3795	-0.014600654
32	0xbc8183c0	-0.015809894
33	0xbc452f70	-0.012035236
34	0xbc85f5d5	-0.016352573
35	0xbce35af7	-0.027753336
36	0xbb140862	-0.0022588004
37	0xbccc448b	-0.024935028
38	0x3c55c52c	0.013047498
39	0xbd385756	-0.045005165
40	0x3c4ac24a	0.012375424
41	0xbca4f631	-0.020136924
42	0xb9b91745	-0.00035303287
43	0x3c620c7f	0.013796925
44	0xb9a67551	-0.00031749395
45	0xbcecac93	-0.028890884
46	0xbc8b6a56	-0.017018478
47	0x3c84b371	0.016198846
48	0xbc8d0abb	-0.01721703
49	0xbb64f577	-0.0034936348
50	0xbd0a3a1a	-0.033746816
51	0xbd0fc2d2	-0.035097905
52	0xbd108841	-0.03528619
53	0xbc40e00d	-0.011772168
54	0xbdae0763	-0.08497503
55	0xbd07abca	-0.033122815
56	0xbd294665	-0.0413269
57	0xbc2002a7	-0.009766257
58	0x3ccf2630	0.025286764
59	0xbd004066	-0.031311415
60	0x3cb19d5a	0.021681476
61	0x3c70b029	0.014690437
62	0xbcc8359d	-0.024439627
63	0xbc26bd4a	-0.010176966

conv.5.running_mean f4 [64]
0	0x3dbb2154	0.09137216
1	0xbf02244f	-0.5083665
2	0x3e154d44	0.14580256
3	0xbe990cdd	-0.29892626
4	0xbe6e3152	-0.23261002
5	0xbf223243	-0.63357943
6	0xbec36db6	-0.3816964
7	0x3e3932fb	0.18085854
8	0xbd708f2d	-0.058730293
9	0xbe3ff18c	-0.18744487
10	0xbdfb034b	-0.122564875
11	0x3efcf0f5	0.49402586
12	0x3f05922f	0.52176183
13	0x3ce1a9e9	0.02754684
14	0x3c86b406	0.016443264
15	0x3ef03a63	0.46919546
16	0xbf3a135f	-0.7268581
17	0xbe9100d3	-0.2832094
18	0xbe08abfd	-0.13346858
19	0x3e9fe309	0.31227902
20	0x3dc9fa46	0.09862189
21	0xbf371fcd	-0.715329
22	0x3cfe06b7	0.031009061
23	0xbeba1c4f	-0.36349723
24	0xbf5c9511	-0.8616496
25	0xbebc91ee	-0.36830086
26	0xbf114da3	-0.5675909
27	0xbf81ebfe	-1.0150144
28	0xbdaa0608	-0.083019316
29	0x3d914104	0.07092479
30	0x3f7ae66f	0.98007864
31	0x3ec13799	0.3773773
32	0xbeabb467	-0.33536074
33	0xbf54687c	-0.8297193
34	0x3f30b2d0	0.69022846
35	0xbef6308a	-0.48083907
36	0xbe9f5342	-0.31118208
37	0xbea79399	-0.32729796
38	0x3f07ae28	0.53000116
39	0x3ddbdb88	0.10735232
40	0xbf4c9d14	-0.7992718
41	0xbd917169	-0.071017094
42	0xbd91a3e1	-0.071113355
43	0xbf104b00	-0.5636444
44	0xbf0d4aa3	-0.5519201
45	0xbf2f8f5a	-0.6857811
46	0xbd474a05	-0.048654575
47	0xbe849138	-0.25892043
48	0xbe193ac0	-0.14963818
49	0xbcda74af	-0.026666967
50	0x3ee6364d	0.44963303
51	0xbc9c2fe1	-0.0190658
52	0xbf14f505	-0.5818637
53	0xbdb9a9e7	-0.090656094
54	0x3f37796e	0.7166966
55	0xbef4fab6	-0.47847527
56	0x3e5ed0ae	0.21759292
57	0x3e813660	0.25236797
58	0xbe1333b8	-0.14375198
59	0x3d2c1119	0.042008493
60	0xbd4ecd3d	-0.0504887
61	0xbaeba9c5	-0.0017979672
62	0xbce2441b	-0.027620366
63	0xbefee96a	-0.49787456

conv.5.running_var f4 [64]
0	0x3e0212be	0.12702462
1	0x3e707c5f	0.23484944
2	0x3e378cff	0.1792488
3	0x3e0cd292	0.13752201
4	0x3ee97bf4	0.4560238
5	0x3ecb76c1	0.3973904
6	0x3e8d439c	0.27590644
7	0x3e7cc0b3	0.24682884
8	0x3e0d86c9	0.13820948
9	0x3de8d1ea	0.11368163
10	0x3e6a07dd	0.22854562
11	0x3e223bfd	0.15843196
12	0x3e46ec45	0.19426067
13	0x3e290141	0.16504385
14	0x3df65bc9	0.120292254
15	0x3e5c138b	0.2149183
16	0x3e678eec	0.22613114
17	0x3dec6669	0.11542971
18	0x3e5a5e6b	0.2132508
19	0x3e872079	0.26391962
20	0x3e3b71b0	0.18305087
21	0x3e70df9d	0.23522802
22	0x3ea31e7f	0.31859204
23	0x3ea73cea	0.3266366
24	0x3e572302	0.21009448
25	0x3e4b63e2	0.19862321
26	0x3e9fd71a	0.31218797
27	0x3eb7f2bd	0.35927382
28	0x3db72616	0.08942811
29	0x3e0a890c	0.13528842
30	0x3e68a9aa	0.22720972
31	0x3e082664	0.13295895
32	0x3e6b6572	0.22987917
33	0x3e8d134e	0.2755379
34	0x3e851cf4	0.25998652
35	0x3de46a90	0.11153138
36	0x3e617d21	0.22020389
37	0x3de56a31	0.11201895
38	0x3e16abba	0.14713946
39	0x3e6cac61	0.23112632
40	0x3ec2a69f	0.38017747
41	0x3dfee7c3	0.12446549
42	0x3e627bf3	0.22117595
43	0x3e6a2ba1	0.22868206
44	0x3ec0a385	0.37624756
45	0x3e817e9d	0.2529191
46	0x3e77b986	0.24191865
47	0x3e7c4719	0.24636497
48	0x3e0e2ae5	0.1388355
49	0x3e074d86	0.13213167
50	0x3e20d867	0.15707551
51	0x3e5bb90e	0.21457312
52	0x3e606b35	0.21915896
53	0x3e32de9c	0.17467731
54	0x3e907bb5	0.2821938
55	0x3e85a297	0.2610061
56	0x3e1f503c	0.1555795
57	0x3e8baee4	0.27281868
58	0x3e4a4b13	0.19755201
59	0x3e9b5e1f	0.30345246
60	0x3e0a10a6	0.13482913
61	0x3dc49d3d	0.09600303
62	0x3e81fa50	0.25386286
63	0x3e934925	0.28766742

conv.8.weight f4 [128, 64, 3]
0	0xbca8ed6e	-0.020621028
1	0xbd232bc8	-0.039836675
2	0x3cf29ebb	0.029616704
3	0x3d043572	0.032277532
4	0x3c072636	0.008248856
5	0x3cd732cf	0.026269345
6	0x3d9a77c7	0.07542377
7	0x3d0ae899	0.03391323
8	0x3c325d3d	0.010886488
9	0x3c00f89a	0.007871771
10	0x3d12f380	0.03587675
11	0xbd478cfa	-0.04871843
12	0xbbc4f27c	-0.0060103517
13	0x3d033da5	0.03204121
14	0xbda12cac	-0.078698486
15	0x3c76dad6	0.015066823
16	0xbca9c810	-0.02072528
17	0xbbc9ab54	-0.006154457
18	0xbb5dec87	-0.0033862905
19	0xbd840971	-0.06447113
20	0x3d978c84	0.07399848
21	0x3d2cb2dd	0.042162765
22	0x3d2f2a6b	0.042765062
23	0xbc96eaa3	-0.01842243
24	0x3d3065f4	0.04306598
25	0xbd1dc13d	-0.038514365
26	0xbdb75167	-0.08951073
27	0xba0db681	-0.00054059183
28	0xbc5cd7b7	-0.013479165
29	0xbd1e2a0b	-0.038614314
30	0xbbfdc067	-0.0077438834
31	0x3c93b9b8	0.018032894
32	0xbb61ed2c	-0.003447364
33	0xbca17f99	-0.019714164
34	0x3d830567	0.06397515
35	0xbdce5bc3	-0.10076096
36	0xbd559446	-0.052143358
37	0x3cb003b9	0.02148615
38	0x3cbf270c	0.023334049
39	0xbc945c4f	-0.018110422
40	0x3dd11fe8	0.10211164
41	0xbd31576b	-0.04329626
42	0xbc22c749	-0.009935209
43	0xbd8a5e1c	-0.06756231
44	0x3da5911c	0.08084318
45	0xbd2e65ee	-0.042577676
46	0xbd7b706e	-0.06138652
47	0x3d5e6c57	0.05430254
48	0xbd1d15d5	-0.0383509
49	0x3cc34081	0.023834469
50	0xbc5b0f55	-0.013370355
51	0xbd4d17b9	-0.05007145
52	0x3c7ab6c6	0.015302366
53	0xbd243972	-0.040093847
54	0x3cf1b42a	0.029504854
55	0xbd08fd46	-0.033444665
56	0xbc8ae4fb	-0.01695489
57	0xbd16d9a7	-0.036828663
58	0xbd9ff9bd	-0.07811306
59	0x3cced244	0.025246747
60	0x3ce458e7	0.027874423
61	0x3d274e79	0.04084632
62	0xbd51c22a	-0.05121056
63	0xbcf420f1	-0.029800864
64	0xbb29f5e4	-0.0025933916
65	0x3d56405c	0.05230747
66	0x3c9d778a	0.01922204
67	0x3b320ff0	0.0027170144
68	0xbd6bf17c	-0.057603344
69	0x3c9866db	0.018603733
70	0x3bc83600	0.006109953
71	0xbcde7c9a	-0.027159024
72	0xbb8741b0	-0.0041277036
73	0xbc58b735	-0.013227274
74	0x3b8bd0b0	0.004266821
75	0x3d867da1	0.065669306
76	0xbd9e5e77	-0.077328615
77	0x3c87204a	0.016494889
78	0xbb38b3c9	-0.0028183332
79	0xbd0c16d1	-0.034201447
80	0xbdcfa105	-0.10138134
81	0xbccd12ef	-0.025033442
82	0x3d444d11	0.04792506
83	0x3d64afb8	0.05583164
84	0xbcf310fc	-0.029671185
85	0xbcafbc52	-0.021452103
86	0xbc639c2a	-0.013892213
87	0xbd5c4751	-0.05377895
88	0xbd1ddc6d	-0.038540293
89	0xbd8a6f05	-0.067594565
90	0xbcb91dcb	-0.022597214
91	0xbdc59054	-0.09646669
92	0x3d7d54ad	0.06184833
93	0x3cace151	0.021103533
94	0xbd6ae1fe	-0.05734443
95	0xbd726ed2	-0.059187718
96	0xbd66d856	-0.056358658
97	0xbd8af2fb	-0.06784626
98	0x3d03fe65	0.03222503
99	0xbd1a8587	-0.037724998
100	0xbc98a829	-0.018634873
101	0x3c501b55	0.012701829
102	0xbc803208	-0.015648857
103	0x3ce318f9	0.027721869
104	0xbc2dcd4f	-0.010608031
105	0xbd66c31c	-0.056338415
106	0xbc11caa3	-0.00889841
107	0xbcb61297	-0.022225661
108	0xbcc9736f	-0.024591176
109	0xbcc5bcba	-0.024137843
110	0x3d5d8be0	0.054088473
111	0x3d827b97	0.06371229
112	0x3c5281e8	0.012848355
113	0x3c6485b3	0.013947892
114	0x3cb298ce	0.021801379
115	0x3d1a508d	0.037674475
116	0xbd097c2c	-0.033565685
117	0xbd6db6c7	-0.05803564
118	0xbc226857	-0.009912572
119	0x3b5ed032	0.0033998606
120	0xbd4dfd98	-0.050290674
121	0x3af6421a	0.001878801
122	0x3d2f4bdf	0.042796966
123	0xbce16d7c	-0.027518027
124	0xbaadecb9	-0.0013269401
125	0xbd93ef8d	-0.07223425
126	0xbd7bfc33	-0.061519813
127	0xbd1dcbcb	-0.03852443
128	0xbd8a9514	-0.06766716
129	0x3cf94566	0.0304286
130	0x3ced0a0d	0.028935457
131	0xbc01e4cb	-0.007928084
132	0xbdb021fb	-0.08600231
133	0x3d3a5298	0.045488924
134	0x3d25ae68	0.04044953
135	0xbc011c50	-0.007880285
136	0xbdb0f39a	-0.08640213
137	0x3d60f2c2	0.054919012
138	0x3b2ea740	0.0026649982
139	0x3da8485f	0.08216929
140	0x3bcbb3d3	0.006216505
141	0x3d4be3d7	0.049777832
142	0x3bdffa8a	0.0068352865
143	0x3d329370	0.04359764
144	0xbdaed7a9	-0.08537228
145	0xbd795d8a	-0.06088022
146	0x3a54cc70	0.0008117622
147	0x3d7f73af	0.062366184
148	0x3c73890d	0.014864218
149	0x3d83969e	0.06425212
150	0x3d47d7b4	0.048789695
151	0x3d913ba6	0.07091455
152	0xbc86dea9	-0.016463595
153	0x3d344a7a	0.04401634
154	0x3daf1650	0.08549178
155	0xbdb04720	-0.08607316
156	0x3c7e3dee	0.015517695
157	0xbc948cad	-0.018133486
158	0x3cc1a62c	0.023638807
159	0xbca8ea48	-0.020619527
160	0xbd4d44b1	-0.050114337
161	0x3c8b62b8	0.017014846
162	0xbd374ce8	-0.044751078
163	0x3d7c65dc	0.06162058
164	0xbc086570	-0.008324966
165	0xbc7104b3	-0.014710593
166	0xbd16aa44	-0.03678347
167	0x3d236de7	0.039899733
168	0xbce323c4	-0.027727015
169	0x3d9144d2	0.070932046
170	0xbd9d7b01	-0.07689477
171	0xbd3178b1	-0.04332799
172	0xbd8ebdb2	-0.06969775
173	0x3cdaed4e	0.026724484
174	0xbca18141	-0.019714953
175	0x3d64eafa	0.055888154
176	0x3d5826b7	0.052771296
177	0x3d48c72d	0.049018074
178	0x3d782a4c	0.060587212
179	0x3d1499f7	0.036279645
180	0xbce1074e	-0.027469303
181	0x3d3399b1	0.043847743
182	0xbdb62e6f	-0.08895575
183	0xbc26a6ec	-0.010171633
184	0x3d70a91f	0.058755036
185	0x3b29c1c2	0.0025902842
186	0x3c84fcf6	0.016233902
187	0xbd5d5c24	-0.05404295
188	0x3d24205d	0.040069927
189	0xbd53c4ff	-0.051701542
190	0x3d7d79a3	0.06188358
191	0x3d7efaa0	0.062250733
192	0xbc983d52	-0.018583927
193	0xbd489f5f	-0.048980113
194	0x3cbac647	0.022799624
195	0xbc1cfbc8	-0.009581514
196	0x3d676c8c	0.056500003
197	0xbc25da5e	-0.010122864
198	0xbbd99564	-0.006640123
199	0x3d20de78	0.039274663
200	0xbdb9b8c6	-0.09068446
201	0xbcd23ca3	-0.02566368
202	0xbd80f3c2	-0.06296493
203	0x3d200d20	0.039075017
204	0x3d76ad9c	0.06022416
205	0xbc8c2ce7	-0.017111255
206	0xbac5c4e2	-0.0015088583
207	0xbd8872bc	-0.06662509
208	0xbd4250a8	-0.0474402
209	0x3c2e2e54	0.010631163
210	0x3d8edc7d	0.069756486
211	0xbcd33e65	-0.025786588
212	0xbd381fba	-0.04495213
213	0x3ca0ffaa	0.01965316
214	0xbaa09f7e	-0.0012254564
215	0xbd5f0acc	-0.054453656
216	0x3d5ea8e1	0.054360274
217	0x3d065c64	0.032802954
218	0xbd5e9af9	-0.054347012
219	0x3d998aee	0.07497202
220	0xbd09ffbd	-0.033691157
221	0xbda277eb	-0.07933029
222	0x3c89a08c	0.016800188
223	0xbdadab39	-0.08479924
224	0xbcbf7e5b	-0.02337568
225	0x3c34c171	0.011032448
226	0xbd919358	-0.07108182
227	0xbd42fd70	-0.047604978
228	0x3c879038	0.016548261
229	0xbd8f7552	-0.07004799
230	0xbbf2d91d	-0.007411136
231	0xbc3ecab3	-0.011645007
232	0x3c8f8858	0.017521068
233	0xbd591b9f	-0.053004857
234	0xba2d5d8a	-0.00066133647
235	0xbb8eec6c	-0.00436168
236	0x3c9065ba	0.017626632
237	0xbd98b8c1	-0.07457114
238	0x3d2dcc4e	0.04243117
239	0xbd2a2353	-0.041537594
240	0x3ccb94a7	0.024851156
241	0x3dab311b	0.083589755
242	0xbcca0b28	-0.024663523
243	0x3d19a85a	0.03751407
244	0xbd7927d8	-0.060829014
245	0x3d0eb61d	0.034841646
246	0xbd34320e	-0.04399305
247	0xbd08c9b0	-0.03339547
248	0xbd0e9c44	-0.034816995
249	0xbd1a32e1	-0.03764618
250	0x3cbb3f18	0.022857234
251	0xbc17343a	-0.00922876
252	0xbc9edfee	-0.019393887
253	0x3c8dfd7c	0.017332785
254	0x3c802b66	0.015645694
255	0xbd397d29	-0.045285378

conv.8.bias f4 [128]
0	0x3c98abdf	0.018636642
1	0x3cca0e87	0.02466513
2	0x3d867e5f	0.06567072
3	0x3c1a468d	0.009416235
4	0x3d4a64b8	0.04941246
5	0xbd55b8d4	-0.05217822
6	0xbd2e4b12	-0.04255206
7	0x3d730f82	0.05934096
8	0x3d4ed6b2	0.05049772
9	0x3c8b0fb3	0.01697526
10	0xbc87db19	-0.016583966
11	0x3d8afbd7	0.06786316
12	0xbc880af4	-0.016606785
13	0x3c1218d1	0.0089170495
14	0x3c9ada01	0.01890278
15	0x3d330175	0.04370256
16	0xbd51ae5b	-0.05119167
17	0xbc636a2f	-0.013880297
18	0x3d47ceb2	0.048781104
19	0x3bcf7725	0.006331342
20	0xbd91d748	-0.0712114
21	0xbd8b4c17	-0.06801622
22	0x3d2644a1	0.040592793
23	0xba69c422	-0.00089174707
24	0x3d613963	0.05498637
25	0xbaeb2bfe	-0.0017942188
26	0x3c1e431d	0.009659556
27	0x3c6b9a05	0.014379983
28	0xbc6a70f7	-0.0143091595
29	0x3d78c2a7	0.06073251
30	0x3d0d4343	0.034487974
31	0xbd2151eb	-0.039384764
32	0x3ce2477e	0.02762198
33	0x3cf565f1	0.029955836
34	0x3cfd1992	0.030895982
35	0xbd8a38cd	-0.06749115
36	0xbc1e48d3	-0.009660917
37	0x3b6e00db	0.0036316428
38	0x3d628d2c	0.055310413
39	0xbd8bfac5	-0.0683494
40	0xbced377d	-0.028957123
41	0xbd8631c0	-0.06552458
42	0x3c84f4e3	0.016230052
43	0x3d060efa	0.032729127
44	0xbcdd8fe2	-0.027046148
45	0xbd0fe430	-0.035129726
46	0x3d893094	0.06698719
47	0xbd8d739e	-0.06906818
48	0x3c3bb7fb	0.011457439
49	0x3d51c812	0.051216193
50	0x3c32b80a	0.010908136
51	0xbc8eb33b	-0.017419448
52	0x3d5bbec9	0.053648744
53	0xbd0e69bf	-0.034768816
54	0xbcc8688b	-0.024463912
55	0x3cfc8373	0.030824399
56	0x3d1c0a3f	0.03809571
57	0x3d52c84d	0.051460553
58	0x3cc178c8	0.023617163
59	0xbd0c5934	-0.03426476
60	0x3c49d72a	0.0123193655
61	0xbd734508	-0.059392005
62	0x3d0ab0be	0.03385996
63	0xbd482202	-0.048860557
64	0xbcb3a31d	-0.021928364
65	0x3d1d42db	0.038393836
66	0xbd5999ad	-0.053125072
67	0xbcfad19e	-0.030617531
68	0xbca286d6	-0.019839685
69	0xbd5602d1	-0.05224878
70	0x3caa26cb	0.020770451
71	0x3c318daa	0.010836998
72	0xbd619604	-0.055074707
73	0xbcca9d7f	-0.024733303
74	0xbd378cc6	-0.044811986
75	0x3d7ef2e9	0.062243376
76	0xbb425b80	-0.002965659
77	0xbd6603a1	-0.056155805
78	0x3cf594fd	0.02997827
79	0xbd7e40ef	-0.062073644
80	0xbd425cd6	-0.047451816
81	0xbcf1d440	-0.029520154
82	0x3abaa9c9	0.0014241274
83	0xbd5c93e3	-0.053851973
84	0x3d6bfe93	0.057615828
85	0x3d4dc82d	0.05023973
86	0xbc01e8c5	-0.007929032
87	0xbd90bcc4	-0.07067254
88	0x3d207667	0.039175417
89	0x3ba66f5b	0.0050791926
90	0xbd363f40	-0.044493914
91	0xbd256d4e	-0.040387444
92	0xbc492693	-0.012277263
93	0x3d73bfdb	0.05950914
94	0xbd6ca459	-0.05777392
95	0x3d255ac3	0.04036976
96	0x3b4b2213	0.0030995652
97	0x3d4e79bf	0.050409075
98	0x3d6d03bb	0.057864886
99	0xbd23d430	-0.03999728
100	0x3ae2a591	0.0017291774
101	0x3ba25fb3	0.004955256
102	0x3d8e5cd0	0.06951296
103	0xbc5ad923	-0.0133574335
104	0x3d32a4d5	0.043614227
105	0xbd6f9026	-0.05848708
106	0xbd46e1c6	-0.048555158
107	0x3b8bc94b	0.0042659394
108	0xbd4e7a15	-0.050409395
109	0x3d142e24	0.036176816
110	0x3d03476f	0.032050546
111	0x3d8e0545	0.06934599
112	0xbd1a9b97	-0.03774604
113	0x3cd640de	0.026153978
114	0x3ced5594	0.02897147
115	0x3c76df2b	0.015067856
116	0xbd7972f8	-0.06090066
117	0xbd46dccf	-0.048550423
118	0x3b77fc7e	0.0037839706
119	0xbcaccde1	-0.021094264
120	0x3c399e56	0.011329254
121	0xbc63f5a9	-0.01391355
122	0x3c9f6d62	0.019461337
123	0xbd4c00eb	-0.049805563
124	0x3d0c2f38	0.03422472
125	0x3d25d27a	0.04048393
126	0x3cbf3404	0.023340233
127	0x3d382b9b	0.04496346

conv.9.weight f4 [128]
0	0x3f83907e	1.027847
1	0x3f7c9193	0.9865963
2	0x3f802525	1.0011336
3	0x3f819cb3	1.0125946
4	0x3f7cc7d8	0.9874244
5	0x3f7edae6	0.9955276
6	0x3f740bde	0.9533061
7	0x3f866776	1.0500324
8	0x3f833787	1.0251321
9	0x3f7e7892	0.99402726
10	0x3f76b50e	0.9637002
11	0x3f78cae9	0.97184616
12	0x3f831299	1.024005
13	0x3f787eb5	0.9706834
14	0x3f758293	0.95902365
15	0x3f7b4cb5	0.9816392
16	0x3f76e994	0.9645016
17	0x3f7729ab	0.96547955
18	0x3f7f29e3	0.9967329
19	0x3f799bc3	0.975033
20	0x3f7c1ff1	0.9848624
21	0x3f7a0d18	0.9767623
22	0x3f763f8d	0.9619072
23	0x3f7e94ef	0.99446005
24	0x3f7a3faa	0.97753394
25	0x3f75df6a	0.9604403
26	0x3f80bed6	1.0058239
27	0x3f736c6b	0.9508731
28	0x3f7ed50d	0.9954384
29	0x3f795e62	0.9740964
30	0x3f7788f6	0.9669336
31	0x3f79543b	0.9739415
32	0x3f7f32f0	0.996871
33	0x3f800144	1.0000386
34	0x3f83a331	1.0284177
35	0x3f7f775c	0.997915
36	0x3f80fa48	1.007638
37	0x3f7f3204	0.9968569
38	0x3f7fad3f	0.9987373
39	0x3f803de2	1.0018885
40	0x3f7fa671	0.99863344
41	0x3f7f6167	0.99758
42	0x3f7e9eb2	0.994609
43	0x3f7d71b7	0.9900164
44	0x3f7a7ef4	0.97849965
45	0x3f8127fd	1.0090328
46	0x3f83231d	1.0245091
47	0x3f8544f8	1.0411673
48	0x3f82e102	1.0224917
49	0x3f7c6d79	0.9860454
50	0x3f824506	1.0177314
51	0x3f866423	1.0499309
52	0x3f807872	1.0036757
53	0x3f805af0	1.0027752
54	0x3f74defe	0.9565276
55	0x3f7d6a25	0.9899009
56	0x3f793c3f	0.97357553
57	0x3f8417ec	1.03198
58	0x3f816ec2	1.0111926
59	0x3f787555	0.97054034
60	0x3f7f1ebb	0.99656266
61	0x3f7da4a3	0.9907934
62	0x3f7fe2c8	0.99955416
63	0x3f814361	1.0098687
64	0x3f7ae520	0.98005867
65	0x3f7fa26b	0.99857205
66	0x3f7f9b8c	0.9984672
67	0x3f760ad0	0.9611025
68	0x3f7b2b5b	0.9811303
69	0x3f7c3b15	0.9852765
70	0x3f7ecdd4	0.9953282
71	0x3f75d749	0.96031624
72	0x3f7fb1bd	0.9988058
73	0x3f815875	1.010512
74	0x3f7ca1a6	0.98684156
75	0x3f843a3a	1.0330269
76	0x3f833d63	1.0253109
77	0x3f798c85	0.9748004
78	0x3f80e05d	1.006847
79	0x3f7ad74c	0.97984767
80	0x3f7ae785	0.9800952
81	0x3f7eb3a2	0.9949285
82	0x3f803e25	1.0018965
83	0x3f77285a	0.96545947
84	0x3f79fabc	0.97648215
85	0x3f80d618	1.0065336
86	0x3f7a4fed	0.9777821
87	0x3f82f23b	1.0230173
88	0x3f7dd486	0.9915241
89	0x3f7fa7ea	0.9986559
90	0x3f7f751e	0.9978808
91	0x3f7b6e1d	0.98214895
92	0x3f789853	0.9710743
93	0x3f77f8f5	0.96864253
94	0x3f7eef03	0.9958345
95	0x3f824a17	1.017886
96	0x3f7e6cc6	0.99384725
97	0x3f78aa18	0.9713454
98	0x3f803f5c	1.0019336
99	0x3f815bcc	1.0106139
100	0x3f7efc4d	0.9960373
101	0x3f80159b	1.0006593
102	0x3f7596d3	0.95933264
103	0x3f815ab6	1.0105808
104	0x3f80453c	1.0021129
105	0x3f7bae84	0.98313165
106	0x3f7eec8c	0.9957969
107	0x3f7e9cc3	0.9945795
108	0x3f81dfeb	1.0146459
109	0x3f8027aa	1.0012105
110	0x3f81721a	1.0112946
111	0x3f7aceeb	0.9797198
112	0x3f81542a	1.010381
113	0x3f78dd9a	0.9721314
114	0x3f825446	1.0181968
115	0x3f7776a0	0.9666538
116	0x3f816d71	1.0111524
117	0x3f81f62f	1.0153254
118	0x3f819467	1.0123414
119	0x3f7e55d0	0.9934969
120	0x3f7b5a3b	0.98184556
121	0x3f822d9f	1.0170172
122	0x3f80f2a5	1.0074049
123	0x3f830349	1.0235378
124	0x3f7e7e7d	0.99411756
125	0x3f8272ac	1.0191245
126	0x3f793455	0.9734548
127	0x3f856c80	1.0423737

conv.9.bias f4 [128]
0	0x3c93d17a	0.018044222
1	0xbc2cf023	-0.0105553
2	0x3c45f948	0.012083359
3	0xb91480d9	-0.0001416238
4	0xbd284bec	-0.04108803
5	0xbc98f719	-0.018672513
6	0xbd03b497	-0.032154646
7	0xbb26e54f	-0.0025466268
8	0x3c78ff99	0.015197658
9	0xbc78743b	-0.01516443
10	0xbd17a898	-0.037026018
11	0xbcdbc2f0	-0.026826352
12	0x3bac70c7	0.0052624675
13	0x3c0ac208	0.008469112
14	0xbcb84d93	-0.022497928
15	0xbd7079bb	-0.05870984
16	0x3ad9de09	0.0016621958
17	0xbce33090	-0.027733117
18	0xbaee6e3c	-0.0018190811
19	0xbd55fec7	-0.052244928
20	0xbcb8aa52	-0.022542153
21	0xbd247a10	-0.04015547
22	0xbd50a06f	-0.05093425
23	0xbcaab6f9	-0.020839201
24	0xbd850d50	-0.0649668
25	0xbc318264	-0.01083431
26	0xbce0027f	-0.02734494
27	0xbd0b87b1	-0.034064952
28	0x3b9ca61f	0.0047805454
29	0xbd30c748	-0.0431588
30	0xbd04f9bb	-0.032464724
31	0xbd735281	-0.059404854
32	0xbcf4a170	-0.029862136
33	0xbc4ccfc5	-0.012500708
34	0xbaa7d9a6	-0.0012805953
35	0x3c5d827e	0.013519881
36	0xbc9fff06	-0.019530784
37	0xbd204f9b	-0.039138418
38	0xbd18c1f6	-0.03729435
39	0xbc2e771a	-0.010648513
40	0xbcaa9e46	-0.020827424
41	0xbadd3786	-0.0016877509
42	0xbd071df1	-0.03298754
43	0xbd35f2ed	-0.044421125
44	0xbc7cba7d	-0.015425322
45	0xbc44c82f	-0.012010618
46	0x3b527a33	0.0032116293
47	0xbb1cf340	-0.00239487
48	0xbbb6662f	-0.0055663805
49	0x3a0314f7	0.00050003774
50	0xbccc24e3	-0.024919933
51	0xbcc85f49	-0.024459498
52	0xbce4540b	-0.027872106
53	0x3cba0c70	0.022711009
54	0xbd5f0ac0	-0.05445361
55	0xbd33a916	-0.043862425
56	0x3c4b7a62	0.012419315
57	0x3b2c7074	0.0026312144
58	0xbceda65e	-0.029009994
59	0xbc369a51	-0.01114519
60	0x3c87ed97	0.016592784
61	0xbce1970a	-0.027537841
62	0xbd4631da	-0.048387386
63	0xbccdde8a	-0.025130529
64	0xbc98e92e	-0.018665876
65	0xbc4bcec9	-0.012439438
66	0xbd09d8da	-0.03365407
67	0xbd803f00	-0.06262016
68	0xbcac66e0	-0.021045148
69	0x3b5ef161	0.0034018385
70	0xbcb3a850	-0.021930844
71	0xbc2f7bb9	-0.01071065
72	0xba1aab98	-0.0005900203
73	0xbb80e62c	-0.0039336886
74	0xbd09f192	-0.033677645
75	0x3c974a60	0.018468082
76	0xbd819f4d	-0.06329212
77	0xbc563411	-0.013073937
78	0xbc861fc5	-0.01637257
79	0xbd169df2	-0.036771722
80	0x3bcb5d3f	0.006206184
81	0xbd0bbc8e	-0.034115367
82	0xbbe17d73	-0.00688141
83	0xbd0636ff	-0.032767292
84	0xbc47253b	-0.0121548725
85	0xbb3ffa59	-0.0029293506
86	0xbd157d75	-0.0364966
87	0x3b97ef26	0.004636663
88	0xbcd7ffbf	-0.026367066
89	0xbd12016d	-0.03564589
90	0x3b45f1cd	0.003020394
91	0x3d06788c	0.032829806
92	0xbc835c90	-0.016035348
93	0xbc65bb26	-0.01402167
94	0x3c747ebb	0.014922793
95	0xbd1cc88d	-0.038277198
96	0xbcf46b92	-0.02983645
97	0xbc8c79ba	-0.017147887
98	0xbca6132f	-0.02027282
99	0xbbb4ea78	-0.005521115
100	0xbd2c15e6	-0.04201307
101	0xbc349988	-0.011022933
102	0xbd1eeef2	-0.038802095
103	0x3b10d198	0.0022097584
104	0xbca1645f	-0.019701181
105	0x3bc78fd4	0.0060901437
106	0xba0a9ba3	-0.0005287474
107	0xbd44c34c	-0.048037812
108	0xbccc60c4	-0.024948485
109	0xbc268ae1	-0.010164947
110	0x3beb7e6f	0.007186703
111	0x3ac8562f	0.0015284474
112	0x3bbb381d	0.0057134763
113	0xbd0612e6	-0.032732867
114	0xba628242	-0.0008640626
115	0xbc2279db	-0.009916748
116	0xbd25275a	-0.04032073
117	0xbbf725fc	-0.00754237
118	0x3c8d5e02	0.01725674
119	0x3b6f9aa3	0.0036560677
120	0x3c5848cf	0.013200953
121	0x3ccf3aa1	0.025296511
122	0xbcdaab61	-0.026693048
123	0x3a1158a5	0.000554452
124	0x3c7bae76	0.015361419
125	0xbcc04386	-0.023469698
126	0x3c43c66b	0.011949162
127	0xbd1397b6	-0.036033355

conv.9.running_mean f4 [128]
0	0xbe7810ef	-0.2422521
1	0xbf1a7cae	-0.60346496
2	0xbe708912	-0.23489788
3	0xbe289863	-0.16464381
4	0xbe96a4e9	-0.2942269
5	0x3cf6cef9	0.03012799
6	0xbea4560a	-0.32096893
7	0xbe09f974	-0.13474065
8	0xbf21d832	-0.6322051
9	0xbe795cbc	-0.24351782
10	0xbe916b7b	-0.28402314
11	0xbd8983f3	-0.067146204
12	0x3ea1b3c8	0.31582475
13	0xbf0e1e3c	-0.55514884
14	0x3d1f3128	0.03886524
15	0x3ef168f3	0.47150382
16	0xbf5a18b6	-0.85193956
17	0xbe19fe14	-0.1503833
18	0xbe155e6d	-0.14586802
19	0xbe6bff69	-0.2304665
20	0xbf004bcc	-0.50115657
21	0xbcde9264	-0.027169414
22	0x3f0e2f2d	0.55540735
23	0x3e9c3fb6	0.30517358
24	0x3ed08e88	0.40733743
25	0xbf07e209	-0.5307928
26	0x3f8ad2f6	1.084563
27	0x3e7bf3d2	0.24604729
28	0x3e8fa45e	0.2805509
29	0x3dca363d	0.098736264
30	0xbef7fff6	-0.4843747
31	0x3e78d785	0.24300964
32	0xbe16cdf4	-0.14727002
33	0x3da913c0	0.0825572
34	0x3e1d811e	0.15381286
35	0xbf15026c	-0.5820682
36	0xbdb0658c	-0.086131185
37	0x3ed8adb2	0.4232002
38	0xbf08c8d2	-0.5343143
39	0x3d4f6b66	0.050639533
40	0x3e242859	0.16031016
41	0xbedf119a	-0.43568116
42	0xbecc5b87	-0.3991358
43	0x3f36042c	0.71100116
44	0xbeb6063c	-0.3555163
45	0xbd0bedf2	-0.03416247
46	0xbe8223ea	-0.25418025
47	0xbdaebb56	-0.08531825
48	0xbe5cb9f3	-0.21555309
49	0x3d134fa2	0.035964616
50	0xbe1851b8	-0.14874923
51	0xbe40bf45	-0.18822964
52	0xbee7d3ea	-0.45278865
53	0xbe04b4ec	-0.12959641
54	0xbe532781	-0.20620538
55	0xbd1e9718	-0.038718313
56	0xbe938206	-0.28810138
57	0x3ec28c11	0.37997487
58	0xbdf5bc53	-0.119988106
59	0xbf3fafa5	-0.7487739
60	0xbd4d7f31	-0.050170127
61	0x3e35c28f	0.1775
62	0x3d862b27	0.065511994
63	0x3d918a5d	0.07106469
64	0xbf443425	-0.76642066
65	0x3a737961	0.0009287801
66	0xbf0d5695	-0.5521024
67	0x3d028525	0.031865258
68	0xbe91acdb	-0.2845219
69	0xbda45e4b	-0.080257975
70	0xbed83605	-0.42228714
71	0xbeed4da4	-0.46348298
72	0xbcef6b93	-0.0292261
73	0xbdf670d0	-0.12033236
74	0x3eafcbf1	0.34335282
75	0xbd7cc0ac	-0.061707184
76	0xbf32e91e	-0.6988696
77	0xbed8d8d4	-0.42352927
78	0x3ea7d5ed	0.327804
79	0xbe01143a	-0.12605372
80	0xbf7755a3	-0.96615046
81	0xbef467af	-0.47735354
82	0xbe0388a2	-0.1284509
83	0xbed6788e	-0.4188885
84	0xbe063489	-0.13105978
85	0x3f0658f8	0.52479506
86	0x3d962744	0.07331708
87	0xbd24b230	-0.040208995
88	0x3ec3af36	0.38219613
89	0x3f29722f	0.66189855
90	0xbeababfa	-0.33529645
91	0x3cc02894	0.02345685
92	0xbe002ae0	-0.12516356
93	0xbf16f9ab	-0.58974713
94	0xbe8fdb6d	-0.28097096
95	0x3e65e51c	0.2245068
96	0xbe8f6fcb	-0.2801498
97	0xbdfdf720	-0.12400651
98	0xbe0c2bc0	-0.13688564
99	0x3d7530f2	0.05986113
100	0xbe346bda	-0.17619267
101	0x3e816177	0.25269672
102	0xbf0d3294	-0.551553
103	0xbee377ee	-0.44427437
104	0xbf09238d	-0.5356987
105	0xbd321003	-0.0434723
106	0xbe8a7d45	-0.27048698
107	0xbec12d30	-0.37729788
108	0xbec9d4a7	-0.39420053
109	0xbe868cfd	-0.2627944
110	0xbc1042fa	-0.008805031
111	0xbf312cbb	-0.6920888
112	0x3e8b1d1a	0.2717064
113	0x3df2bbd3	0.11852231
114	0xbdcec48a	-0.100960806
115	0xbe027165	-0.12738569
116	0x3d83d45b	0.06436988
117	0x3e039e63	0.12853388
118	0x3e135889	0.14389242
119	0xbc605ad2	-0.013693528
120	0x3ea25d93	0.31712016
121	0xbdd2239e	-0.102607
122	0x3e9b318f	0.30311248
123	0xbe5a143e	-0.21296784
124	0xbf0035c9	-0.5008207
125	0x3ceb1654	0.02869717
126	0xbf1e170a	-0.61753905
127	0x3d5d4a4e	0.05402594

conv.9.running_var f4 [128]
0	0x3e115429	0.14192261
1	0x3f2a6517	0.665605
2	0x3e62256b	0.22084586
3	0x3e366980	0.17813683
4	0x3e19c729	0.1501738
5	0x3ea84e93	0.32872447
6	0x3ef11450	0.4708581
7	0x3e0a404c	0.1350109
8	0x3e352ffb	0.17694084
9	0x3f0bd591	0.5462275
10	0x3e4e0d0b	0.20122163
11	0x3e9ebe4f	0.3100457
12	0x3e1b2ca3	0.15153746
13	0x3f0479a2	0.51748097
14	0x3e2923b3	0.16517524
15	0x3e2b5b62	0.16734079
16	0x3fa44646	1.2833946
17	0x3e525079	0.2053851
18	0x3e385b55	0.1800359
19	0x3e5f7219	0.21820869
20	0x3e952342	0.29128462
21	0x3e4437a3	0.19161849
22	0x3e134598	0.14382017
23	0x3e37817e	0.17920491
24	0x3e7369cd	0.23770829
25	0x3f7b0ccc	0.980664
26	0x3e809213	0.25111446
27	0x3e033bb3	0.12815742
28	0x3dc496c8	0.09599072
29	0x3df9a852	0.12190308
30	0x3e245e74	0.16051656
31	0x3e825927	0.25458643
32	0x3e2b9c3e	0.1675882
33	0x3e5ce410	0.21571374
34	0x3e1348ab	0.1438319
35	0x3f2017b0	0.62536144
36	0x3e1a373c	0.15060133
37	0x3e2cdddb	0.16881506
38	0x3dfcf602	0.1235161
39	0x3e62d241	0.22150518
40	0x3dd74384	0.105109245
41	0x3e677f54	0.22607166
42	0x3e5ad780	0.21371269
43	0x3e124972	0.1428583
44	0x3e9d97bb	0.30779824
45	0x3e47a7b3	0.19497566
46	0x3de12819	0.10993976
47	0x3de138f4	0.10997191
48	0x3e79d9ae	0.24399444
49	0x3e742a2e	0.23844215
50	0x3dda53b2	0.10660495
51	0x3e32665a	0.17421857
52	0x3e122a4a	0.14273944
53	0x3ebbfbc5	0.36715522
54	0x3e85b087	0.26111242
55	0x3e0a4d74	0.13506109
56	0x3f328791	0.6973811
57	0x3e0b5e04	0.13610083
58	0x3da38241	0.07983828
59	0x3f422b7f	0.7584762
60	0x3f2c5600	0.67318726
61	0x3de97c12	0.11400618
62	0x3dfaa99a	0.1223938
63	0x3e012291	0.12610842
64	0x3f1df2ae	0.61698425
65	0x3e21d007	0.15802012
66	0x3e1fb5b6	0.15596661
67	0x3e415373	0.1887949
68	0x3e736998	0.2377075
69	0x3ec76451	0.38943723
70	0x3e43e7d6	0.19131407
71	0x3f56e58d	0.83944017
72	0x3e0457e3	0.12924151
73	0x3e107f47	0.14111052
74	0x3e1771c2	0.14789489
75	0x3e2335bc	0.15938467
76	0x3e1cb42e	0.15303108
77	0x3f324ea0	0.6965122
78	0x3df1417b	0.117800675
79	0x3e86409e	0.26221174
80	0x3f6de751	0.92931086
81	0x3dd2e363	0.10297277
82	0x3dd76483	0.10517218
83	0x3eba8d6c	0.3643602
84	0x3f04d348	0.5188489
85	0x3e603934	0.21896821
86	0x3e17cd4b	0.14824407
87	0x3e1c9548	0.15291321
88	0x3e14a14e	0.14514658
89	0x3e6e45c6	0.23268804
90	0x3ea250f4	0.31702387
91	0x3f0a0567	0.53914493
92	0x3e35e35a	0.17762509
93	0x3f95e74f	1.1711215
94	0x3e32aae6	0.17448005
95	0x3dd89120	0.105745554
96	0x3e212965	0.15738447
97	0x3e8dc365	0.27688137
98	0x3e2d7ae0	0.16941404
99	0x3decdea3	0.11565902
100	0x3dfa5d70	0.12224853
101	0x3dd896fc	0.10575673
102	0x3f03ed53	0.51534003
103	0x3e044318	0.12916219
104	0x3e6ae80c	0.22940081
105	0x3f1efd3f	0.6210517
106	0x3eaf7b48	0.34273744
107	0x3e591500	0.21199417
108	0x3e48c4f6	0.19606385
109	0x3eb3d57a	0.35123807
110	0x3e3cfc38	0.18455589
111	0x3e5d47e2	0.21609452
112	0x3e31e640	0.1737299
113	0x3e2aa4b0	0.16664386
114	0x3e3d4b2a	0.18485704
115	0x3f781183	0.9690172
116	0x3e227317	0.15864216
117	0x3e60c149	0.21948732
118	0x3da7fdc9	0.082027026
119	0x3e917ff2	0.28417927
120	0x3eb90ac1	0.36141017
121	0x3de35ea6	0.11102037
122	0x3e083d4d	0.13304634
123	0x3db71f24	0.089414865
124	0x3e7e35c6	0.248252
125	0x3e3528f2	0.176914
126	0x3fafb1ce	1.3726137
127	0x3dc6739e	0.09690021
