best_model.pth (torch, 9913 bytes, 5 tensors)

conv.0.weight f4 [16, 1, 3]
0	0xbf6521bd	-0.89504606
1	0x3da6dc9c	0.08147547
2	0xbec0748b	-0.37588915
3	0xbd7bbb9f	-0.061458226
4	0x3eef79b3	0.46772537
5	0x3edfd5a7	0.4371769
6	0x3f43c4c5	0.7647212
7	0x3f27d96a	0.6556612
8	0x3f38cad1	0.72184473
9	0xbf16b1bf	-0.5886497
10	0xbf15afa5	-0.5847114
11	0xbe186f44	-0.14886194
12	0xbec6490c	-0.38727605
13	0x3f3ee77a	0.74571955
14	0x3e41ed18	0.189381
15	0x3d864950	0.06556952
16	0xbd740110	-0.059571326
17	0xbd47ad70	-0.048749387
18	0x3d775c70	0.06039089
19	0x3f4d20bf	0.8012809
20	0xbe84ca99	-0.2593582
21	0x3f2b5894	0.66932034
22	0x3eaac21c	0.3335122
23	0xbfa29a45	-1.2703329
24	0xbd69563a	-0.056966998
25	0x3f72351e	0.946123
26	0x3f083e3b	0.53219956
27	0xbed43713	-0.41448268
28	0xbc49afff	-0.012310027
29	0x3eaf5ae9	0.34249046
30	0xbf465097	-0.7746672
31	0xbeabf259	-0.33583334
32	0x3d2b384d	0.04180174
33	0xbf7ef1f0	-0.9958792
34	0x3f23ec52	0.6403247
35	0x3dc942cc	0.098271936
36	0xbed4041c	-0.41409385
37	0x3e3372c2	0.17524245
38	0x3f2c83d3	0.6738865
39	0xbef03ad5	-0.46919885
40	0xbf02caa6	-0.51090467
41	0x3f5fbb1e	0.87394893
42	0x3e845577	0.25846455
43	0xbf42bf44	-0.760731
44	0x3f2e6851	0.68127924
45	0xbdcacc1b	-0.09902211
46	0x3e0115f1	0.12606026
47	0x3f326a6e	0.6969365

conv.0.bias f4 [16]
0	0xbe5ad73c	-0.21371168
1	0xbef895d2	-0.48551804
2	0x3e89674e	0.26836628
3	0x3eaa0260	0.33204937
4	0x3e37eaff	0.17960738
5	0xbf105264	-0.5637572
6	0x3f33ff94	0.70311856
7	0x3ddc6f4e	0.10763417
8	0x3f21b6bf	0.63169473
9	0x3f2923ee	0.6607045
10	0xbecea9ac	-0.40363824
11	0xbd675c72	-0.056484647
12	0x3e91a83d	0.28448668
13	0x3e0a2bc4	0.13493258
14	0x3e9ecd99	0.31016234
15	0x3e94abf8	0.29037452

conv.3.weight f4 [32, 16, 3]
0	0xbd44cffb	-0.048049908
1	0x3e30cf15	0.17266496
2	0xbca05aa3	-0.019574469
3	0xbe84a626	-0.2590801
4	0x3d8c0e84	0.06838706
5	0x3e955524	0.2916652
6	0xbd3fd56c	-0.046834394
7	0x3e41f260	0.18940115
8	0x3e37ae9d	0.17937703
9	0xbe978087	-0.29590246
10	0x3bafeb29	0.0053686094
11	0x3e7d8e55	0.24761327
12	0xbd106e22	-0.03526128
13	0x3db4ab51	0.088217385
14	0x3d1c8942	0.038216837
15	0x3dc66ad6	0.09688346
16	0x3e033d30	0.1281631
17	0x3e0b1fda	0.13586369
18	0xbe17aa17	-0.14810978
19	0x3dc15400	0.0943985
20	0xbd8de217	-0.06927889
21	0x3cc9a06f	0.024612634
22	0xbe98eafd	-0.29866782
23	0x3e429618	0.19002569
24	0xbdb7cec5	-0.08974985
25	0x3e4b8638	0.19875419
26	0x3dd1208c	0.10211286
27	0xbe37cbdd	-0.17948861
28	0xbd11b5f7	-0.035573926
29	0x3caaf009	0.02086641
30	0xbe798aa0	-0.24369287
31	0xbe8d24e9	-0.27567223
32	0xbf4e4bc6	-0.8058437
33	0xbd2e2de7	-0.042524245
34	0x3e5f930d	0.21833439
35	0xbe05bd31	-0.13060452
36	0xbe273eb2	-0.1633251
37	0x3e191ba6	0.14951953
38	0x3df69a31	0.120411284
39	0xbe485d3d	-0.19566818
40	0xbd28fe8d	-0.041258384
41	0x3db592ad	0.08865867
42	0xbe07a85d	-0.13247819
43	0x3d130cf0	0.03590101
44	0x3e225e3b	0.15856259
45	0xbe2f277e	-0.17104909
46	0x3d204c51	0.03913528
47	0x3d520274	0.05127187
48	0x3e22190e	0.1582987
49	0xbd54ca74	-0.051950887
50	0x3dfec760	0.124403715
51	0x3d3f7064	0.046738043
52	0xbc5139a1	-0.012770087
53	0xbe0ee3a5	-0.13954027
54	0x3defb0cd	0.11703644
55	0x3e67856e	0.22609493
56	0xbe3d9717	-0.18514667
57	0x3da3c535	0.07996599
58	0x3b001ece	0.001954961
59	0x3d90ea6c	0.070759624
60	0x3d1ead79	0.038739655
61	0x3e22318a	0.1583921
62	0xbdfd9a14	-0.12382904
63	0x3d48b6f4	0.049002603
64	0x3d00e99c	0.031472787
65	0x3dd51b42	0.1040559
66	0xbd71265c	-0.058874473
67	0x3c7a6331	0.015282438
68	0xbe9c8f8d	-0.3057827
69	0xbc3ea382	-0.011635663
70	0x3e209f96	0.15685877
71	0xbeb3802b	-0.35058722
72	0x3db5364a	0.088482454
73	0x3e391b8a	0.18076912
74	0xbd9d174b	-0.076704584
75	0x3e1ed4e2	0.15510896
76	0x3e113aef	0.14182638
77	0x3daed14a	0.085360125
78	0xbd7c84be	-0.06165003
79	0x3e368da0	0.17827463
80	0x3e84f9a7	0.2597172
81	0x3dc939aa	0.09825452
82	0x3e917c38	0.28415084
83	0x3db53a5a	0.0884902
84	0x3e825a18	0.2545936
85	0xbcb415f7	-0.02198313
86	0x3e3e5ac5	0.18589313
87	0x3e5a9804	0.21347052
88	0x3e8cd5a3	0.27506742
89	0x3e650e2d	0.22368689
90	0xbe3ef824	-0.18649346
91	0x3dcfee54	0.10152879
92	0x3eed40e6	0.46338576
93	0xbc92f628	-0.017939642
94	0xbdac5253	-0.084141396
95	0x3e53c93a	0.2068223
96	0x3d9439d9	0.07237596
97	0xbd2484c8	-0.040165693
98	0x3e77a03f	0.24182223
99	0x3dcc751a	0.09983273
100	0x3dfcd157	0.12344616
101	0x3ea943ed	0.33059636
102	0x3e2e72b9	0.1703595
103	0xbe588455	-0.2114423
104	0x3e25fe64	0.16210324
105	0x3d87892f	0.066179626
106	0xbddc1e98	-0.10748023
107	0x3d9dca66	0.0770462
108	0x3e81dd5c	0.25364196
109	0xbdbae456	-0.09125583
110	0x3c628c74	0.013827432
111	0xbc746050	-0.014915541
112	0xbd665ee2	-0.05624283
113	0xbdf4d633	-0.11954918
114	0x3e28a81a	0.16470376
115	0xbdde3d27	-0.10851508
116	0x3e1771a9	0.14789452
117	0x3db84be3	0.08998849
118	0xbb796930	-0.0038057081
119	0xbdc8ba46	-0.09801154
120	0x3e266339	0.16248788
121	0xbcf7770a	-0.03020813
122	0xbe2d8eb0	-0.16948962
123	0xbcef8fb2	-0.029243324
124	0x3e623153	0.22089128
125	0xbe32a42f	-0.17445444
126	0x3c8e0f4e	0.017341282
127	0xbef42185	-0.47681823
128	0xbe9a2aca	-0.3011077
129	0x3e4c668e	0.19960997
130	0x3e65ccfb	0.22441475
131	0xbdaa5f01	-0.08318902
132	0x3e2371b1	0.15961339
133	0x3dcb3341	0.09921885
134	0xbdf0f0cc	-0.11764678
135	0xbd1a0709	-0.037604365
136	0xbd419d8f	-0.0472694
137	0xbc5b0b91	-0.013369457
138	0x3d63aacb	0.055582803
139	0xbe159550	-0.1460774
140	0x3e898098	0.26855922
141	0x3d2c52dc	0.04207121
142	0x3d8d3ea3	0.06896713
143	0x3dbd596b	0.09245571
144	0x3e6e3a93	0.23264532
145	0xbc712ce7	-0.014720178
146	0xbe45ffe6	-0.19335899
147	0xbddc078e	-0.107436284
148	0xbd0bca22	-0.034128316
149	0x3ee52e8c	0.44762075
150	0x3e232feb	0.15936248
151	0xbd9fc2f1	-0.07800854
152	0xbe19c58f	-0.15016769
153	0x3dbc9194	0.09207454
154	0xbdeb7a8d	-0.11497984
155	0xbe6968e3	-0.22793917
156	0xbd13c347	-0.036074903
157	0x3d0a2b99	0.033732984
158	0x3e2182c2	0.15772536
159	0xbdae91be	-0.08523892
160	0x3e08d2f4	0.13361722
161	0x3dd7b1a2	0.10531928
162	0x3db0e9d8	0.08638352
163	0x3db19188	0.08670336
164	0x3df0f5cb	0.11765631
165	0xbe68b5b7	-0.22725569
166	0xbd8264ef	-0.06366908
167	0x3dbb1e92	0.0913669
168	0x3dca7483	0.09885504
169	0x3ce42781	0.027850868
170	0x3c3d681c	0.011560466
171	0x3df146c1	0.11781073
172	0xbd4ac9bd	-0.0495088
173	0xbcd741d9	-0.026276516
174	0x3e0cf0e0	0.13763762
175	0xbee68987	-0.450268
176	0xbed6aaf3	-0.419273
177	0x3e8a1382	0.26968008
178	0x3cada86e	0.021198478
179	0x3dc6e970	0.097124934
180	0xbd0ff893	-0.03514917
181	0xbe64b2ab	-0.22333781
182	0x3e708e6a	0.23491827
183	0xbd34c4a9	-0.044132862
184	0xbe472568	-0.19447863
185	0x3e102652	0.14077118
186	0x3e0fce2f	0.14043497
187	0x3e216926	0.15762767
188	0xbe4eb76b	-0.20187156
189	0xbe0277b7	-0.1274098
190	0xbe6b1a3e	-0.2295923
191	0x3e16c3c0	0.1472311
192	0x3df9e085	0.12201027
193	0xbe44e04f	-0.19226192
194	0x3e809e35	0.25120702
195	0x3e25ec7e	0.16203496
196	0x3dfa5d39	0.12224812
197	0x3e3f2f01	0.18670274
198	0x3e0c370d	0.13692875
199	0xbdd5e48e	-0.10443984
200	0x3c5df7cb	0.013547848
201	0xbddeb826	-0.10874967
202	0xbd7df65d	-0.06200253
203	0xbe1eb3da	-0.15498295
204	0x3e6632cf	0.2248032
205	0x3c9e160f	0.019297628
206	0xbdbbeaa1	-0.09175611
207	0x3d613dfc	0.054990754
208	0x3ca68a08	0.02032949
209	0xbe058e23	-0.13042502
210	0x3e045e2d	0.1292655
211	0xbdcd1ee9	-0.10015661
212	0x3e4ef696	0.20211253
213	0x3d4006cd	0.046881486
214	0x3d42f2e6	0.047594927
215	0x3d0f7cde	0.035031192
216	0xbc1ff370	-0.00976263
217	0x3aeb99aa	0.0017974873
218	0x3c811cb7	0.015760763
219	0x3db23e8e	0.087033376
220	0x3e23ee83	0.16008954
221	0xbe221f49	-0.15832247
222	0xbe109a52	-0.14121369
223	0xbeb33e81	-0.35008624
224	0xbe0ba675	-0.13637717
225	0x3e7abaf4	0.2448538
226	0xbd80894d	-0.06276188
227	0x3ba89eeb	0.0051458976
228	0x3d2ba2ff	0.041903492
229	0x3ce5054b	0.027956625
230	0xbda18905	-0.078874625
231	0xbb285274	-0.0025683912
232	0xbdb5a486	-0.08869271
233	0xbdb17ac3	-0.08665993
234	0x3deb85cd	0.1150013
235	0xbd92131f	-0.07132553
236	0x3e6b7c84	0.22996718
237	0x3e3ea984	0.18619353
238	0xbdb07868	-0.08616716
239	0x3e03a527	0.1285597
240	0xbd16dfe2	-0.036834605
241	0x3e2e4402	0.1701813
242	0x3e602b7b	0.21891586
243	0x3e4c3b85	0.1994458
244	0xbe527d25	-0.20555551
245	0xbcf76491	-0.030199321
246	0xbd974f22	-0.0738814
247	0x3e1008f7	0.1406592
248	0x3d1f2461	0.038853053
249	0x3e9c1528	0.3048489
250	0x3da9f1a2	0.08298041
251	0x3dfbc587	0.12293535
252	0xbe7a8b6d	-0.24467249
253	0x3d23ecf4	0.040020898
254	0x3df674c6	0.120339915
255	0xbde9721a	-0.11398716

conv.3.bias f4 [32]
0	0x3bc3d830	0.0059766993
1	0xbb8f2c99	-0.00436933
2	0xbe28277d	-0.16421314
3	0xbd87b285	-0.06625847
4	0xbbdefaca	-0.0068047987
5	0x3d9e3cb2	0.077264205
6	0xbd42eb12	-0.04758746
7	0xbd75b5ce	-0.059987836
8	0x3d482809	0.048866306
9	0x3dd40b69	0.10353739
10	0x3d9a683c	0.075394124
11	0xbdbfb05a	-0.09359808
12	0x3d592bcf	0.053020295
13	0x3e69950a	0.2281076
14	0xbd2a6b4e	-0.04160624
15	0xbd71bcfb	-0.059018116
16	0xbd381fc8	-0.044952184
17	0xbd784e2d	-0.06062143
18	0xbd3807db	-0.044929367
19	0x3de9ed96	0.11422269
20	0x3af35994	0.0018566125
21	0x3dc4a688	0.09602076
22	0x3e1b29f6	0.15152726
23	0x3e16df33	0.14733581
24	0x3dd72930	0.10505903
25	0xbe1ad1a4	-0.15119034
26	0xbd209116	-0.039200865
27	0x3df640e9	0.120240994
28	0x3e37cf8d	0.17950268
29	0xbc2a8777	-0.010408274
30	0xbc0449c9	-0.008074232
31	0x3bd725bc	0.0065657776

fc.1.weight f4 [1, 32]
0	0x3e3df97f	0.18552206
1	0xbe8b1320	-0.2716303
2	0x3e4c926a	0.19977728
3	0x3eb14a66	0.34627074
4	0x3e8114c4	0.25211155
5	0xbe25bff4	-0.16186506
6	0x3e80cb39	0.25155047
7	0x3da34fee	0.0797423
8	0xbe97f49a	-0.29678804
9	0xbeaa7e51	-0.33299497
10	0x3eac729c	0.3368119
11	0xbeb3e1e5	-0.3513328
12	0x3ee899f6	0.45429963
13	0xbeae72ee	-0.3407206
14	0x3ec03db3	0.37547073
15	0x3e717c65	0.23582609
16	0x3ec25bd6	0.3796069
17	0x3ed1920e	0.40931743
18	0x3e71a8b9	0.23599519
19	0xbe6cf007	-0.23138438
20	0x3e832b45	0.2561895
21	0x3cf52550	0.029925019
22	0x3e9799e9	0.29609612
23	0x3ea2b5cb	0.31779322
24	0x3e9251dd	0.28578082
25	0x3f018a58	0.5060172
26	0xbe94646c	-0.28982866
27	0xbefd4ead	-0.49474087
28	0xbe877427	-0.26455805
29	0xbef87167	-0.4852402
30	0xbe849b7b	-0.25899872
31	0xbeb60739	-0.35552385
