best_stroke_mlp.pth (torch, 54829 bytes, 15 tensors)

net.0.weight f4 [128, 6]
000000 b7 d3 18 3e 7a 69 c0 3c 87 42 7b 3e 54 c6 c9 be
       0.14924513 0.023487795 0.24537097 -0.39409125
000010 af 47 a4 3e f5 8a 3c 3b 4d c8 97 3e 72 e2 74 3e
       0.3208594 0.0028769348 0.29645005 0.23914507
000020 f8 3f 9c 3e 9d 8f 43 3e 15 20 9d 3e 4d d3 ad be
       0.30517554 0.19097753 0.3068854 -0.33950272
000030 9a cc 87 be 15 6e 83 bd 33 2e 55 3e 1d 40 b4 3d
       -0.26523286 -0.06417481 0.20818405 0.08801291
000040 2a 18 4c 3e bd 32 d4 3d 98 c6 93 bd ee 68 3b be
       0.19931093 0.1036124 -0.07215613 -0.18301746
000050 2e e5 a9 be d6 59 82 3d fd 3f c0 3e 72 ad be be
       -0.33182663 0.06364791 0.3754882 -0.37241703
000060 c8 d4 77 3e 90 34 a6 3e 56 10 b3 be ea ed 9b bd
       0.24202263 0.32461977 -0.349734 -0.07613738
000070 fb da c1 be fb 02 5e be e1 0c 9a 3e 5b 1e 90 be
       -0.3786238 -0.21680824 0.3008795 -0.2814816
000080 82 82 53 3d 69 5c 00 be 4e 74 94 3d a4 77 37 3e
       0.051638134 -0.12535252 0.07248746 0.17916733
000090 a5 aa fd bc 13 5a 78 3d db a3 75 3e 79 44 a4 be
       -0.030965159 0.060632776 0.23988287 -0.3208349
0000a0 2f 4c ae be 00 e6 9f bb 54 b4 0c bd 55 6d c6 3e
       -0.34042498 -0.004879713 -0.03435166 0.3875529
0000b0 96 7b 22 be ce 34 45 be e8 14 a9 3e 2f 86 a8 be
       -0.15867457 -0.19258425 0.33023763 -0.32914874
0000c0 a6 22 37 3d 56 63 6f be 20 a4 4b 3c 98 8d 53 be
       0.044710778 -0.23377737 0.012429267 -0.20659482
0000d0 67 50 75 3e a1 4c de bd 19 7b b6 3e 46 c7 03 be
       0.23956452 -0.108544596 0.3564079 -0.12868986
0000e0 d4 9f 2f be b4 b6 9d 3e fd 5d 5d be ef 0c a0 be
       -0.17150813 0.30803454 -0.21617885 -0.31259868
0000f0 03 18 92 be 57 9f 7c be 6e 05 b8 3e b4 8e 57 be
       -0.28533944 -0.24670158 0.35941643 -0.2105053
000100 24 14 d4 3d 50 d4 26 3e 78 f2 84 bd cd 61 9b 3e
       0.10355404 0.16291928 -0.0649156 0.30348054
000110 f5 e4 63 be eb 5e 2e 3e b5 56 77 3e 6d 51 96 3e
       -0.22255309 0.17028396 0.2415417 0.29358998
000120 a9 3a 51 3e ca cd 34 3d 70 45 80 be 1e 6e 5e be
       0.20432533 0.04414157 -0.25052977 -0.21721694
000130 0b a7 38 be bb 0c 13 be ae 28 a8 be 7b 0a c3 be
       -0.18032472 -0.14360325 -0.32843536 -0.38093933
000140 34 ad d9 3d d2 66 46 bd 9a b3 bb 3e 54 3f c6 be
       0.10628739 -0.0484379 0.36660463 -0.3872019
000150 24 71 cc be a6 8e 59 be b3 bf 67 bc 0e 0a 8a 3e
       -0.3993007 -0.21245822 -0.014144826 0.26960796
000160 23 d2 98 be 87 91 95 3e 3a 1f 3c be 85 93 5a 3e
       -0.29847822 0.2921259 -0.18371287 0.21345337
000170 22 36 8f be 87 dd b8 be db 57 e6 3d 2f 10 ac 3e
       -0.27970988 -0.36106512 0.11247226 0.33606097
000180 87 6d af be d3 7f a2 3e 7d b1 9f 3e fc 21 e9 bd
       -0.3426325 0.31738147 0.311901 -0.11383435
000190 2c 89 db bd 5d 87 6b be b6 84 ae bd 78 74 f5 bd
       -0.10719523 -0.23000856 -0.08521406 -0.11985105
0001a0 14 ee a9 3d 33 26 9a 3d 55 fc 90 3d 20 aa 47 3c
       0.08297363 0.07526817 0.070793785 0.012186557
0001b0 79 3b 9e 3e 84 87 69 be ce 68 b1 3d df ba 56 3e
       0.3090475 -0.22805601 0.08662568 0.20969723
0001c0 3a 42 6a 3e 99 32 8b be 98 8e 6c bd 3d 4f 8d 3e
       0.22876826 -0.2718704 -0.057753175 0.27599517
0001d0 d6 50 4e be d7 18 32 be 50 41 a3 be 56 e5 b3 be
       -0.20148024 -0.17392288 -0.31885767 -0.35135907
0001e0 b5 32 a5 be 27 66 cf 3e 7a 3f 18 3c 67 d4 be bd
       -0.3226525 0.40507624 0.009292478 -0.09317856
0001f0 ac c5 ea 3d 95 65 9e be b2 b5 9e 3d cb e8 89 be
       0.11463484 -0.30936876 0.077494994 -0.2693542
000200 21 5f 2f 3e d1 21 a9 bd 36 2e 05 3c 2d 73 9a 3e
       0.17126133 -0.08258403 0.008128693 0.30165997
000210 2d fa d2 be f0 da b6 3c 2f 1b c4 be 03 fb c1 be
       -0.41206494 0.022321194 -0.3830199 -0.3788682
000220 98 b4 99 3e ab 71 d1 bd 6c 3d 56 3d 7f 55 2f be
       0.30020595 -0.102267586 0.05230467 -0.17122458
000230 56 0f 53 be 30 6e 63 3d 5d 1a ba 3e cb 3d b3 bd
       -0.20611319 0.055525005 0.3634824 -0.087520204
000240 0d 58 ab 3e 04 32 47 be 2b a9 7b 3e 77 2b b7 3e
       0.33465615 -0.19452673 0.24576251 0.3577535
000250 ae 99 6f be 45 f5 d1 3d d1 ea bf 3d 61 33 64 3d
       -0.23398468 0.102518596 0.093709596 0.05571306
000260 4d d4 29 3d 3f 8c 24 3e d6 26 b3 3e c6 54 24 be
       0.04146223 0.16069125 0.34990567 -0.16047964
000270 b5 80 d8 3d f9 20 6f bd 52 29 80 3e cf c9 d4 3d
       0.10571424 -0.058381055 0.25031525 0.103900544
000280 1d bb a3 bc 4e 69 7a bd 7f 1b 98 be aa 9d 52 3e
       -0.019986684 -0.061135583 -0.29708478 0.20567957
000290 e6 db 92 be 16 2a ce 3d 5d 9d 9f 3e eb 05 c8 bd
       -0.28683394 0.10066621 0.31174746 -0.09766754
0002a0 55 37 d3 3e 5b 3e 9b 3e f3 cf b0 be db 01 8a bd
       0.41253152 0.3032101 -0.34533653 -0.06738635
0002b0 7d 2a 19 3e c3 6e 12 be d0 1d dd bc df b4 1a 3e
       0.14957614 -0.14300065 -0.026991755 0.1510806
0002c0 7f b8 0f 3e 8e e4 87 3d e7 04 93 bc 7d c2 ca bd
       0.14035223 0.0663539 -0.017946674 -0.09900377
0002d0 a4 2b 48 be 58 da 87 3e 8d 96 6d be 9c ae 84 be
       -0.19547898 0.2653377 -0.23201962 -0.25914466
0002e0 c6 af 80 be 7c 58 88 3e b4 f6 d8 bd ad 1b f8 3d
       -0.25134104 0.26630008 -0.1059393 0.12114654
0002f0 27 9b c3 3e 77 7f 7f 3e ce d5 9e bc f9 d0 20 3e
       0.3820431 0.24950968 -0.01938906 0.15704717
000300 88 2a 2c be 15 35 45 3e f4 1d 55 be d1 fc bd 3e
       -0.168131 0.1925853 -0.20812207 0.37106946
000310 ff b6 9d bd 21 51 87 be d5 3b 30 be aa e5 c2 3e
       -0.07700919 -0.26429084 -0.17210324 0.38065845
000320 51 f3 a8 3e 5a 68 b8 be 6e 49 70 bc 1b 21 a7 bd
       0.32998136 -0.36017114 -0.0146659445 -0.08160611
000330 6b 91 ab 3e 14 31 92 be 9d 7e a5 3e a6 21 2d 3e
       0.33509383 -0.2855307 0.3232316 0.16907367
000340 cd a3 bb be aa e2 86 3e d1 1d 44 3e bf 68 2c 3e
       -0.36648408 0.26344806 0.19151999 0.16836832
000350 ad 40 2c be 3b d3 aa be 30 81 b2 3e 53 57 a4 3d
       -0.16821547 -0.3336428 0.34864187 0.08024468
000360 76 5b bc bd 58 93 1e 3c 79 ec 6f 3e 62 e4 c2 3e
       -0.09197132 0.009678684 0.23430051 0.38064867
000370 a2 f2 b9 3e 59 17 a3 3e 39 f7 c8 3e 68 5f 1c bd
       0.36317927 0.3185375 0.39251116 -0.038176924
000380 b3 89 7a 3e e6 d7 41 3e 5f cd 46 be f5 a9 19 be
       0.2446659 0.18930015 -0.1941428 -0.1500624
000390 83 84 81 3d 73 d2 ab be af eb 8e be fe ca fa 3d
       0.06324103 -0.33558998 -0.27914187 0.12245749
0003a0 a8 30 5a 3d 08 9f 4d 3e 21 20 1b 3e 6e 29 b4 be
       0.05326906 0.20080197 0.15148975 -0.35187858
0003b0 39 a6 e4 3d 45 e4 bf 3d d3 04 35 3e 6b 23 74 be
       0.11164517 0.09369711 0.17677622 -0.23841636
0003c0 9b ce 48 be 44 27 5d be 46 de 5c 3e d4 8e c5 be
       -0.19610064 -0.2159701 0.21569166 -0.38585532
0003d0 54 fb 58 be a2 44 39 3e 6a be 5a 3e 41 e8 c2 3e
       -0.21189624 0.18092588 0.213617 0.3806782
0003e0 42 41 5d bd fb f7 15 bd 57 67 7a be dc 05 7f 3e
       -0.054017313 -0.036613446 -0.24453484 0.24904579
0003f0 ed c2 ba be 46 f5 0e be 5b 91 b2 be a7 05 58 be
       -0.36476842 -0.13960752 -0.34876522 -0.21095906

net.0.bias f4 [128]
000000 58 5e 98 b5 20 89 90 be e6 f4 02 3e 11 b9 7f 3c
       -1.135234e-06 -0.28229618 0.12788734 0.015608088
000010 29 7d b4 be c5 ec b8 bd 83 96 8f 3d 36 e0 a1 3e
       -0.3525174 -0.09029535 0.0701113 0.31616372
000020 29 8b c3 3c 3b 64 c3 3d 57 d9 b1 be 7b 4c 75 3e
       0.023870068 0.09540602 -0.3473613 0.23954956
000030 45 0d 5f bd f0 5f cf 3d 64 43 3d be 53 c6 88 3e
       -0.054456014 0.101257205 -0.18482739 0.2671381
000040 88 8d 3a 3d 31 13 ba bd 77 94 7b 3e 77 8b a7 be
       0.04554513 -0.09085692 0.24568354 -0.3272359
000050 9d 31 a8 bc 6a 1c 02 3e 12 8a bf 3e 62 96 e3 bd
       -0.02053147 0.12706152 0.37410027 -0.111126676
000060 9d b2 5c bc 0b 5b 00 be 03 97 32 be 15 4b dc bd
       -0.013470319 -0.1253473 -0.17440419 -0.10756508
000070 5e 09 82 be c5 99 0b be 6e 14 c9 be 1e 44 b9 bc
       -0.25397772 -0.13632877 -0.392734 -0.022615489
000080 3d 1a 9c be 42 29 9a be 80 ac 86 3d 5a 43 46 3e
       -0.30488768 -0.30109602 0.065758705 0.1936163
000090 59 eb 89 3e 00 c3 a4 be 1b 85 54 3e c8 2d c6 be
       0.2693737 -0.32180023 0.207539 -0.38706803
0000a0 4c 8c 91 be c9 b6 b1 be 57 ca 09 be 22 36 3f 3d
       -0.2842735 -0.34709767 -0.13456093 0.046682484
0000b0 18 8f 38 be e7 52 89 be 8c d5 22 bb 2f 58 3d bd
       -0.18023336 -0.26821062 -0.0024846522 -0.046226677
0000c0 ed 5f e0 bd 36 61 45 3e af f9 bd be 9b ff a9 3d
       -0.109557964 0.19275364 -0.37104556 0.08300706
0000d0 1d d8 c3 3e 54 e8 08 bd e6 f4 8a 3e 1e 2e 95 3e
       0.3825082 -0.03342469 0.27139968 0.29136747
0000e0 36 82 73 be fe 3a 74 3e e4 68 0a be de c2 c5 be
       -0.2378014 0.23850629 -0.13516575 -0.38625234
0000f0 8c e0 0c be e1 94 91 3e 0a e6 a9 be 40 2a 88 3d
       -0.13757533 0.28433898 -0.33183318 0.066486835
000100 1f 5f c8 be 6d f7 ad 3e 2d f7 85 be 9e d6 79 3d
       -0.39135072 0.33977833 -0.26165143 0.06099569
000110 0e c9 42 3e 31 0a a3 3e 6f 8b 3a be 83 06 aa bd
       0.19022009 0.31843713 -0.18217252 -0.08302023
000120 ab 69 fa 3d cf 9c 08 3d 36 e9 b6 3b 65 bb 17 be
       0.12227186 0.03335267 0.005582 -0.14817579
000130 3a 55 e8 3c 86 a2 0a bd 4b 47 85 bd 6c 32 73 bd
       0.028360952 -0.0338464 -0.06507739 -0.059374258
000140 4d 2c 90 3e c6 45 62 3e 4c 92 bf 3e cb eb 55 3e
       0.281588 0.22096929 0.37416303 0.20890729
000150 e6 d2 65 ba fd f5 9f be ee da bf be c2 b3 94 be
       -0.0008767083 -0.31242362 -0.37471718 -0.29043394
000160 84 8d 9f bd 67 54 69 3e be 32 6c 3e ef 9e c6 3d
       -0.07790664 0.22786103 0.23066232 0.09698283
000170 a7 ec 97 3e 73 9b 94 be ae 59 55 bd 3d e1 7f bb
       0.2967274 -0.29024848 -0.05208748 -0.0039044165
000180 0f a7 e9 3c 39 8c c6 3e 3c f5 8e 3e 5d 80 1b bd
       0.028522043 0.38778856 0.27921474 -0.037964214
000190 2a 4d 54 3e fa 69 dd bd 2e 99 b3 be c7 75 44 3c
       0.20732561 -0.10811229 -0.35077804 0.011990971
0001a0 6f 62 4d be d8 53 c7 3e a4 f4 84 3e 92 de 71 3e
       -0.2005708 0.38931155 0.25967896 0.2362006
0001b0 12 5f 53 be 48 9e 1f 35 92 c5 00 bc 5e c0 b6 bd
       -0.20641735 5.9462445e-07 -0.007859604 -0.0892341
0001c0 93 cd c0 3d 00 ec 7b be 4e c1 c0 be ac 62 cb 3d
       0.0941421 -0.24601746 -0.3764748 0.099309295
0001d0 46 fd 9b be f1 73 87 3e e1 a9 88 b5 5d c4 83 be
       -0.3046667 0.26455644 -1.0182231e-06 -0.2573575
0001e0 8d 77 dd bd b9 33 e3 bc f0 84 89 36 ec 8b 97 be
       -0.10813818 -0.027734624 4.098394e-06 -0.2959894
0001f0 df 95 4c be 5b 23 b2 be 44 e5 59 3e 0c 75 f6 3d
       -0.19979046 -0.347926 0.21278864 0.12034044

net.1.weight f4 [128]
000000 a2 61 7f 3f 5f 11 80 3f a3 c0 7e 3f 93 ca 80 3f
       0.9975835 1.0005301 0.9951269 1.0061821
000010 60 d2 7d 3f 14 55 7e 3f a7 0a 7f 3f 22 c4 7f 3f
       0.9914913 0.9934857 0.9962563 0.9990865
000020 b4 4d 7e 3f 7c ff 7f 3f 00 69 7d 3f 76 fe 7d 3f
       0.99337316 0.99999213 0.9898834 0.992164
000030 06 d5 7f 3f 85 0b 7f 3f 5c 13 7f 3f 2e ed 7d 3f
       0.9993442 0.9962695 0.99638915 0.9919003
000040 d2 59 7f 3f 4c f7 7e 3f a8 15 80 3f 91 fc 7e 3f
       0.9974643 0.99596095 1.0006609 0.99604136
000050 43 ef 7d 3f 76 1b 7e 3f e0 40 80 3f 6f 65 7f 3f
       0.9919321 0.9926065 1.0019798 0.9976415
000060 73 ec 7f 3f 82 3f 7e 3f 0c 2d 7e 3f 35 5a 7e 3f
       0.9997017 0.99315655 0.99287486 0.99356395
000070 26 43 81 3f 5b f5 7e 3f d8 35 80 3f 7f a8 7f 3f
       1.0098617 0.9959313 1.0016432 0.9986648
000080 ee 21 7f 3f 3f da 7d 3f ad 12 7e 3f 81 47 81 3f
       0.9966115 0.9916114 0.99247247 1.0099946
000090 a4 2e 80 3f b6 a8 7e 3f 48 93 7e 3f cb a2 7f 3f
       1.0014234 0.9947618 0.99443483 0.9985778
0000a0 9f 2a 7e 3f 59 68 81 3f 59 aa 7e 3f 99 09 80 3f
       0.99283785 1.0109969 0.9947868 1.0002929
0000b0 16 c5 7e 3f dd 7f 7f 3f 2f cb 80 3f a5 16 80 3f
       0.9951948 0.9980448 1.0062007 1.000691
0000c0 67 0b 81 3f f3 eb 7f 3f bf f1 80 3f d1 4c 7f 3f
       1.0081605 0.99969405 1.0073775 0.9972659
0000d0 db cd 7f 3f 28 15 7e 3f 46 11 7f 3f e7 4f 7f 3f
       0.99923486 0.9925103 0.9963573 0.99731296
0000e0 44 14 7f 3f 01 a3 7e 3f fd 96 80 3f 4d dd 7f 3f
       0.996403 0.99467474 1.0046078 0.99947053
0000f0 98 3a 80 3f 33 f2 80 3f de ad 7e 3f eb f0 80 3f
       1.0017881 1.0073913 0.9948405 1.0073522
000100 fc e4 80 3f 71 d5 7f 3f 59 5c 7f 3f cc ce 7f 3f
       1.006988 0.9993506 0.99750286 0.9992492
000110 97 d0 7e 3f 32 9d 7f 3f 5b 7f 7e 3f 46 5b 7d 3f
       0.9953703 0.99849236 0.9941308 0.989674
000120 f1 7e 80 3f 6f b4 7e 3f 03 09 7f 3f ea 34 81 3f
       1.003874 0.9949407 0.99623126 1.0094273
000130 bd 02 81 3f 19 41 7f 3f c8 b5 7f 3f 70 f3 7d 3f
       1.0078961 0.99708706 0.9988675 0.9919958
000140 eb 18 81 3f f1 b7 7e 3f ea 94 7f 3f ee 4c 80 3f
       1.0085729 0.9949942 0.998366 1.0023477
000150 f0 1e 80 3f 32 d1 7d 3f 28 7c 7e 3f ba eb 80 3f
       1.0009441 0.9914733 0.994082 1.0071938
000160 da c5 80 3f da 17 7d 3f c3 0c 81 3f e5 1d 7f 3f
       1.006038 0.9886452 1.008202 0.9965499
000170 f6 51 7d 3f 9e 53 80 3f 5c 1d 7f 3f 27 3e 7e 3f
       0.9895319 1.0025518 0.99654174 0.99313587
000180 e0 f7 7d 3f 7b bb 80 3f 2b 9a 7d 3f 24 43 7f 3f
       0.9920635 1.0057214 0.99063367 0.99711823
000190 12 53 7f 3f b7 3b 81 3f 79 ff 7e 3f 27 5a 7e 3f
       0.9973613 1.0096349 0.9960857 0.9935631
0001a0 d8 fe 7d 3f 85 51 7d 3f 16 14 80 3f 78 21 80 3f
       0.99216986 0.98952514 1.000613 1.0010214
0001b0 46 1e 7f 3f 6b 1e 7e 3f f2 7b 81 3f c2 b3 7f 3f
       0.9965557 0.99265164 1.011595 0.99883664
0001c0 ee 0f 81 3f da 8c 7d 3f 66 f9 7d 3f 54 00 80 3f
       1.0082986 0.9904305 0.99208677 1.00001
0001d0 9b 76 80 3f 88 2b 80 3f 06 ec 7f 3f 21 97 80 3f
       1.0036196 1.0013285 0.9996952 1.0046121
0001e0 ff 20 7e 3f 87 30 7d 3f f1 31 80 3f 5c bb 7d 3f
       0.992691 0.9890217 1.0015241 0.9911401
0001f0 50 14 80 3f 4c 83 81 3f 61 48 81 3f ad d4 7f 3f
       1.0006199 1.0118194 1.0100213 0.9993389

net.1.bias f4 [128]
000000 59 54 b9 b9 b8 b3 84 b9 81 bc 36 bb 66 22 ad 3b
       -0.00035348794 -0.00025310903 -0.0027883353 0.0052836416
000010 f0 21 8c bb 7f d0 55 bb 62 ec 13 bb aa 20 c2 3b
       -0.0042765066 -0.0032625494 -0.0022571315 0.005924304
000020 1a 49 aa bb 2a df 5b 3b 34 ae 0d bc 7d 97 86 bb
       -0.0051967027 0.0033549764 -0.00864749 -0.0041074143
000030 91 4b 22 3b fa e1 49 bb b2 dd 34 3b 79 7a ed bb
       0.002476428 -0.0030804859 0.002759796 -0.007247266
000040 87 f3 27 bb 70 58 c8 b8 18 cf 6d 3b 52 db b6 bb
       -0.0025627331 -9.553216e-05 0.0036286768 -0.0055803442
000050 8a bc bf bb 84 e9 d3 bb ac 28 63 3a 0c f5 2f bb
       -0.005851333 -0.006467046 0.00086654234 -0.002684894
000060 24 03 c5 ba 73 13 d6 bb b1 0a 3d 39 48 30 d2 bb
       -0.0015030843 -0.0065330802 0.00018028427 -0.006414447
000070 79 b9 2d 3c b8 76 d1 38 63 4e 7d bb 39 65 a1 37
       0.010603302 9.98801e-05 -0.0038651458 1.9239831e-05
000080 f3 a0 2c ba 8a 1a 51 bb 2a 41 0e bc 5a 64 01 3c
       -0.00065852626 -0.0031906688 -0.0086825285 0.007897461
000090 47 b6 19 3b e4 0c a0 ba 25 f6 07 bb 57 0b b7 bb
       0.0023454593 -0.0012210873 -0.0020746079 -0.0055860686
0000a0 25 29 ad bb 21 0d 29 3c 4a 5c 5c bb 43 d9 68 3b
       -0.005284446 0.010318072 -0.0033624345 0.0035529889
0000b0 69 2e 60 bb 64 33 0a bb 8e 48 df 3b cc 71 13 ba
       -0.003420735 -0.002108776 0.006814069 -0.0005624562
0000c0 0c 7b fc 3b 3c d4 a0 3b 26 9e c1 3b 99 85 1b bb
       0.007705098 0.004908113 0.0059087453 -0.0023730753
0000d0 fc e2 10 3a c3 19 9c bb 5a 1a 88 bb b2 f9 1a b9
       0.00055269874 -0.004763813 -0.004153532 -0.00014779603
0000e0 74 a1 c6 37 60 4b 49 ba 34 9f e6 3b e7 54 f7 ba
       2.3678622e-05 -0.0007678773 0.0070380215 -0.0018869907
0000f0 d2 f6 9e 3b db 27 12 3c 2a e8 57 ba f2 b8 87 3b
       0.0048512006 0.008920635 -0.0008236194 0.0041419202
000100 fd 17 f8 3b ef d8 34 3b 65 27 b4 ba 4d a5 69 ba
       0.007571219 0.0027595123 -0.0013744651 -0.00089128764
000110 c5 ad 67 bb 52 a4 ed ba 41 11 ce bb c9 e8 a6 bb
       -0.0035351377 -0.0018130636 -0.006288678 -0.005093668
000120 ac b1 35 3b 48 ee a0 bb b0 4c 31 3b af f1 da 3b
       0.002772431 -0.004911218 0.0027053766 0.006681643
000130 36 03 8e 3b 45 56 2f bb 4a d0 b1 3a 4b fe d0 bb
       0.004333879 -0.0026754302 0.0013566103 -0.0063779703
000140 83 37 2c 3c c1 1a b2 bb 38 ba ed ba ad 28 ba b7
       0.010511282 -0.005435318 -0.0018137163 -2.2191869e-05
000150 a6 0b 0d 3c e6 cb d5 ba df 66 10 3b de 46 04 3c
       0.008608734 -0.0016311377 0.0022033972 0.008073537
000160 67 f0 e5 3b 6e a3 1d bc 91 59 ab 3b 09 0d b4 b9
       0.0070171836 -0.009621484 0.005229183 -0.00034341987
000170 0a a9 08 bc b8 aa 6f 3b 12 a3 bc b9 d8 d2 ed bb
       -0.008341083 0.0036570262 -0.0003597965 -0.0072578005
000180 70 16 ff bb a0 17 00 3b 18 7d 08 bc fa 66 87 3b
       -0.007784657 0.0019545332 -0.008330606 0.004132149
000190 d6 13 44 bb 1e 1f 04 3c a8 6b f8 b9 0c 54 23 bb
       -0.002991905 0.00806406 -0.00047382456 -0.0024921922
0001a0 5d fe bc bb d2 25 ea bb 95 24 f8 3b 3c 1c db 3b
       -0.005767627 -0.007145622 0.0075727203 0.0066867154
0001b0 00 e9 8b bb a3 dc 14 bc 36 53 35 3c 8b 3e 01 b9
       -0.004269719 -0.009085807 0.011067202 -0.00012325698
0001c0 7e 37 e0 3b b7 61 e3 bb 35 f4 bd ba fc 95 ca ba
       0.0068425527 -0.0069391388 -0.0014492335 -0.0015456076
0001d0 58 19 5e 3b fc 5b 42 3b 57 5b 04 3b 89 f5 bd 3b
       0.0033889618 0.0029656878 0.0020196044 0.0057970923
0001e0 35 7f d7 bb c9 55 3f bc 01 f4 b8 3a 30 c6 a9 bb
       -0.0065764436 -0.011678168 0.0014110805 -0.0051810965
0001f0 f6 85 4a b9 b6 0a 68 3c 16 e2 d1 3b 1a 06 ca 3b
       -0.00019314126 0.01416271 0.0064051254 0.006165278

net.1.running_mean f4 [128]
000000 ed 1e 56 ba b7 dc 92 be 93 69 05 3e ae 0b 8b 3c
       -0.00081680604 -0.28684017 0.13028555 0.016973343
000010 6d b2 b5 be 09 fb bc bd e6 be 8d 3d 94 c7 a2 3e
       -0.3548769 -0.09227569 0.069211766 0.3179289
000020 e8 bd c5 3c b4 a9 bd 3d d9 07 b2 be ca a4 7a 3e
       0.024138406 0.09260884 -0.34771612 0.24476925
000030 6a 48 67 bd 64 2f d0 3d 20 c1 3b be d7 cd 8b 3e
       -0.056465544 0.10165289 -0.1833539 0.2730548
000040 f5 46 3b 3d a5 c8 bb bd 19 34 79 3e e0 a4 a8 be
       0.045721967 -0.09169129 0.2433628 -0.3293829
000050 1e e2 a6 bc ce 27 03 3e 11 46 c2 3e 56 8a e3 bd
       -0.020371493 0.12808153 0.3794408 -0.1111037
000060 da 55 90 bc 06 d1 01 be 40 e1 35 be 6a e1 d6 bd
       -0.017619062 -0.12677392 -0.17761707 -0.10492213
000070 fe b3 82 be 58 7a 0d be 2e dd c7 be 29 f8 c1 bc
       -0.25527948 -0.13816202 -0.39035934 -0.023677902
000080 4a 68 9c be fd dd 9a be bd 9e 81 3d 6e f4 48 3e
       -0.30548316 -0.3024749 0.06329105 0.19624493
000090 5a 8a 8b 3e 07 ab a7 be dd 32 57 3e dd 18 c8 be
       0.2725399 -0.3274767 0.21015497 -0.3908147
0000a0 cc 00 92 be cf f5 b1 be 1e 24 05 be b0 25 4e 3d
       -0.28516233 -0.3475785 -0.13002059 0.05032891
0000b0 3b d3 3b be e2 c6 88 be e9 5d 03 bb 87 e5 33 bd
       -0.18342297 -0.26714236 -0.0020044988 -0.043920066
0000c0 f4 fd e0 bd 9d 5a 46 3e 42 6e bc be fe 4a ad 3d
       -0.10985938 0.19370504 -0.3680287 0.08461569
0000d0 26 39 c3 3e 25 45 13 bd 44 17 8b 3e 88 45 97 3e
       0.38129538 -0.035954613 0.27166188 0.29545236
0000e0 b8 08 6e be 4d 57 75 3e 6c c0 0a be ff 19 c6 be
       -0.23245513 0.23959084 -0.13549966 -0.38691708
0000f0 e8 69 0e be 55 a6 90 3e 5e b0 aa be e5 1f 8d 3d
       -0.13907588 0.282519 -0.33337682 0.06890849
000100 83 2f c9 be bc 10 ac 3e f0 f1 85 be 47 47 79 3d
       -0.3929406 0.33606517 -0.26161146 0.06085899
000110 74 de 43 3e bf 6e a1 3e 25 46 3b be 51 19 af bd
       0.19127828 0.31529805 -0.18288477 -0.085497506
000120 e5 5a fe 3d e6 1b 18 3d 34 d2 dd 3b b8 3e 17 be
       0.124196805 0.03713598 0.006769443 -0.14770019
000130 25 a2 ec 3c 3c f8 00 bd 1b 1c 88 bd a4 e0 7f bd
       0.02888591 -0.031486735 -0.06645986 -0.062470093
000140 6b 65 90 3e b7 fb 65 3e ff 69 bf 3e 20 02 57 3e
       0.28202376 0.22459303 0.37385556 0.20996904
000150 bc 83 d2 ba 21 ec 9f be 03 42 c0 be 40 10 95 be
       -0.0016060988 -0.3123484 -0.37550363 -0.2911396
000160 5c c2 a0 bd f8 62 67 3e 51 21 6e 3e 2b 37 c1 3d
       -0.07849571 0.22596347 0.23254897 0.094343506
000170 ad 3f 99 3e e2 52 95 be 33 9e 66 bd a8 fe 06 bc
       0.29931393 -0.29164797 -0.056303214 -0.008239426
000180 9d 62 13 3d b3 2b c8 3e ba 68 91 3e 36 30 20 bd
       0.035982717 0.3909584 0.28400213 -0.039108478
000190 8f 91 53 3e 65 d4 e0 bd 75 3c b2 be aa 37 65 3c
       0.20660995 -0.10978011 -0.3481175 0.013990322
0001a0 ef 7c 4e be 21 26 c6 3e 65 36 86 3e b5 9e 72 3e
       -0.20164846 0.38700965 0.26213375 0.23693354
0001b0 6e a6 51 be 67 f5 5c bb 94 01 2b bc 25 ce b1 bd
       -0.20473644 -0.0033715607 -0.010437388 -0.08681897
0001c0 52 03 c0 3d 3f 73 80 be 9c f1 c1 be 21 78 cd 3d
       0.09375633 -0.25087926 -0.37879646 0.100326784
0001d0 c3 19 9e be ac a3 88 3e aa e2 57 ba ec 96 82 be
       -0.3087903 0.26687372 -0.00082353747 -0.2550577
0001e0 23 47 e0 bd a3 a5 da bc dd 0c 2b 3b 11 29 99 be
       -0.10951068 -0.02669031 0.0026100196 -0.29914144
0001f0 02 1b 4c be 29 79 b2 be 6e da 57 3e 55 4b f8 3d
       -0.19932178 -0.34858063 0.21079418 0.121237434

net.1.running_var f4 [128]
000000 06 be 98 3e 7d a7 f9 3e de bb 57 3e 2a 22 b4 3e
       0.29832476 0.48760596 0.2106776 0.35182315
000010 3d fe f4 3e 9e 3e 91 3e c9 37 6a 3e a4 cd bd 3e
       0.47850218 0.28368086 0.22872843 0.37070954
000020 fd e3 17 3e e6 14 e1 3e c5 74 cb 3e f7 e3 8e 3e
       0.14833064 0.43961257 0.39737526 0.27908298
000030 d3 e9 58 3e a2 08 10 3f ab 02 02 3f b4 de bf 3e
       0.21182947 0.5626317 0.5078532 0.37474597
000040 ea fe ec 3e a8 80 32 3d df 5e b5 3e dc 10 a0 3e
       0.46288234 0.043579727 0.35423943 0.31262863
000050 44 e8 e0 3e 3f 7d 3e 3e 8f bb 1f 3f ff 3f 39 3e
       0.43927205 0.18602465 0.62395567 0.18090819
000060 7a f3 e1 3e 65 37 18 3e 5f 8c c4 3d 85 2c b8 3e
       0.4413107 0.14864881 0.09597086 0.35971466
000070 f0 00 0c 3f 1c 5d 66 3d 5b a5 b1 3e 9f 17 7c 3e
       0.5468893 0.05624114 0.3469647 0.24618386
000080 2c 3d 97 3e 35 64 d9 3e 5d f4 0b 3f e6 2d 9b 3e
       0.29538858 0.42459264 0.54669744 0.30308455
000090 26 3c b4 3e ad d1 ca 3e a8 06 7e 3e f4 5d 83 3e
       0.3520214 0.39613095 0.24807227 0.25657618
0000a0 13 83 ae 3e c9 e8 a8 3e ec f9 fa 3e b5 e1 f4 3d
       0.34084377 0.329901 0.490188 0.11957113
0000b0 b1 62 66 3e f0 c6 0d 3f d8 c7 78 3e d7 02 c9 3e
       0.22498585 0.5538168 0.24294984 0.3925998
0000c0 23 f7 bd 3e d3 b0 71 3e 46 86 09 3f 72 e5 8c 3e
       0.37102613 0.2360261 0.5372051 0.27518803
0000d0 da 19 3a 3e e1 a4 15 3e 0f 1b 00 3f 12 2a b5 3e
       0.18173924 0.14613678 0.5004129 0.3538366
0000e0 9c e6 02 3f 15 80 c3 3e df 14 af 3e 50 29 cf 3e
       0.5113313 0.38183656 0.3419561 0.40461206
0000f0 a8 a3 d1 3e 5a 07 66 3e 15 71 93 3e fc 07 c9 3e
       0.40945172 0.22463742 0.28797212 0.39263904
000100 0d 90 7a 3e f9 a3 f3 3e 2c de f1 3d 15 e0 87 3e
       0.24469014 0.4758604 0.11809954 0.2653815
000110 24 a2 bb 3e 3f a0 16 3f 32 e9 1e 3e b7 bc 45 3e
       0.3664714 0.58838266 0.15518644 0.1931027
000120 18 6b b5 3e 28 e0 94 3e 18 80 ae 3e ca 9c a6 3e
       0.3543327 0.29077268 0.34082103 0.32541496
000130 e6 15 2e 3e 95 b8 0b 3f 71 f2 ef 3e 19 e1 08 3f
       0.17000541 0.54578525 0.46864656 0.5346847
000140 74 14 a0 3e b0 48 63 3e 03 32 87 3e de 48 35 3e
       0.31265604 0.22195697 0.26405343 0.17703578
000150 d1 66 38 3e bb 99 df 3d 17 88 e4 3e c2 bd d5 3e
       0.18007971 0.10917994 0.44635078 0.41746336
000160 e9 fd bd 3e ed 0f e0 3e a5 7e 05 3f f2 f3 11 3f
       0.3710778 0.4376215 0.5214637 0.57012856
000170 36 e6 a0 3e 38 11 b3 3e d3 d4 a8 3e 97 32 56 3e
       0.31425637 0.34974074 0.32974872 0.20917736
000180 92 39 3c 3f 3f 43 29 3e af 9f c3 3e ac ad a3 3e
       0.73525345 0.16529559 0.38207766 0.3196844
000190 37 9a 6f 3e cf 7a fd 3e 46 44 46 3e e3 81 95 3e
       0.23398672 0.49507758 0.19361982 0.29200658
0001a0 e6 6f 39 3e e6 fd 8a 3e ba 7b 94 3e bf 3f c7 3d
       0.18109092 0.27146834 0.29000646 0.097289555
0001b0 2d e2 83 3e 80 98 86 3e ae 5e 14 3f 02 cf e6 3e
       0.25758496 0.26288223 0.5795697 0.4507981
0001c0 c6 3e db 3e ec b9 a2 3e b6 fd c2 3e 34 95 83 3e
       0.4282133 0.31782472 0.3808419 0.2569977
0001d0 04 f8 f6 3e 3c 37 87 3e 57 5f af 3e 00 f5 9a 3e
       0.48236096 0.26409328 0.34252426 0.30265045
0001e0 68 87 f1 3d 68 48 e9 3e 9f 25 70 3e a8 96 bd 3e
       0.11793405 0.45563054 0.23451851 0.37029004
0001f0 71 04 8a 3d 9a 47 6e 3e 07 f4 d5 3e 7b d8 df 3e
       0.067391284 0.23269501 0.4178774 0.4371985

net.4.weight f4 [64, 128]
000000 2b 77 84 bd 8e 98 a5 bd 38 96 9d bd 12 08 91 bd
       -0.06468042 -0.08085738 -0.076946676 -0.070816174
000010 db 02 93 3d c8 31 93 bc 19 3a a4 3c 64 8d 51 3d
       0.07178279 -0.017968073 0.020047234 0.05116023
000020 5b 97 ec 3c f6 95 92 3c d4 83 68 3c 9d d4 da 3b
       0.028880766 0.017893773 0.0141915865 0.0066781775
000030 41 aa 78 3d c4 2b 8c 3b bb da 9e 3c f8 aa d4 bc
       0.06070924 0.004277678 0.019391408 -0.02596043
000040 9b a2 85 3c 6e b1 a2 bd 7a 4d 9b 3d 3a 90 33 bd
       0.016312888 -0.07943998 0.07583137 -0.043838717
000050 b2 66 fe 3c 45 28 2f bd 8e c4 f6 3c 17 f9 93 bd
       0.031054828 -0.042763013 0.030123021 -0.072252445
000060 0a b0 9f 3d 1e 10 df bb 01 ab c0 bb c8 6c 7e bd
       0.07797249 -0.0068073412 -0.0058797603 -0.06211546
000070 1f 37 52 3d 8d 30 ac bd 59 71 98 bd 78 5f 62 3d
       0.0513221 -0.08407698 -0.07443494 0.055266827
000080 1c 80 bf 3b a2 34 a7 bd bb 64 23 3c be d4 27 bd
       0.0058441292 -0.08164336 0.0099727465 -0.04097437
000090 90 e5 79 3d 6d 1b 5f bd 6d cc 0e 3c c3 9e 8c bc
       0.061009943 -0.054469515 0.008715731 -0.017165547
0000a0 df 50 6d 3d 7a bc 0b bc f7 64 90 3d 03 bf a6 3d
       0.057938453 -0.008528823 0.070505075 0.08141901
0000b0 f5 3e e7 bc cd cf db bc b2 c9 09 bd 04 11 b3 bd
       -0.028228262 -0.026832486 -0.033639617 -0.0874348
0000c0 8d 73 ab 3d 5b 87 ad bd dd 78 ba bc de c7 84 3d
       0.08371649 -0.08473083 -0.02276271 0.06483434
0000d0 a6 1f 9c bc 5a 8d 97 bd c9 60 cf 3b f6 41 47 bd
       -0.01905806 -0.074000075 0.0063286764 -0.04864689
0000e0 f2 f7 21 3c 9f 88 9b bd 6d 8a 06 3d 8a f1 33 3c
       0.009885775 -0.07594418 0.032846857 0.01098288
0000f0 49 8a 9e bd d5 b8 4e bd 57 dd 6e 3d 9c 53 05 3d
       -0.077412196 -0.05046924 0.058316555 0.03255044
000100 fe e3 94 3d 98 c5 88 3d dd 7e 9a 3d 2f cd 73 3d
       0.072700486 0.06678313 0.075437285 0.05952185
000110 60 64 06 3d 30 a9 b6 3d 3d 92 13 3d 10 29 bc bd
       0.03281057 0.08918989 0.036028136 -0.091875196
000120 c7 94 a5 3d 7a ce a4 bd 59 42 03 bd 5a 19 d8 bc
       0.08085018 -0.08047195 -0.032045696 -0.026379276
000130 df e6 c2 3d aa 2f 48 bd 83 cd 82 3d 06 09 fd 3c
       0.095166914 -0.04887358 0.063868545 0.030888092
000140 03 d8 c8 bc 96 9b 3a 3d d5 18 6b 3c 83 46 09 bc
       -0.024517065 0.045558535 0.014349182 -0.008378628
000150 4c fe 9d bb 5b 9f 4f 3d 9f 26 ee 39 30 f6 33 bd
       -0.0048215743 0.050689083 0.00045423672 -0.043935955
000160 ee 9a c4 3c e8 19 20 bd 7a 37 07 bd ae a0 5f 3d
       0.023999657 -0.039087206 -0.03301189 0.054596595
000170 d6 70 e1 3b fe 8c 26 3d 11 09 e5 3c c4 fe db 3b
       0.006879906 0.040661804 0.027958425 0.00671372
000180 cb b8 86 3c b4 21 88 bd 65 6c 90 3d cc 17 7f 3d
       0.016445538 -0.06647053 0.070519246 0.062278554
000190 a5 b7 aa bd 0d f7 c7 bb 31 7b 06 bd 26 7c 7f 3d
       -0.08335809 -0.006102449 -0.03283233 0.062374257
0001a0 a9 8c a3 3d d5 84 65 bd 8c cb 93 3d 46 30 41 bc
       0.07985813 -0.05603488 0.07216558 -0.011791294
0001b0 97 56 8e 3d 9f 59 03 bd 30 87 9e 3d b9 ea 86 bd
       0.069501095 -0.03206789 0.07740629 -0.065877385
0001c0 7d 2f bf 39 7f 3d 58 3d 4d 6c 0e 3d 08 1f 65 3d
       0.0003646574 0.052793022 0.034771252 0.055937797
0001d0 ae 1c 86 3c d5 aa b2 3d 15 f7 6a 3c 1a 26 27 3d
       0.016371097 0.0872399 0.0143411355 0.04080782
0001e0 14 e3 78 3b f4 5a 60 3d dd 97 ff bc 95 46 91 bd
       0.0037977146 0.05477424 -0.031200344 -0.070935406
0001f0 c9 5d 8a 3d 50 59 77 3a 65 ce 86 bc b9 c6 9e 3d
       0.06756169 0.0009435611 -0.016455838 0.07752747
000200 78 70 82 bc 20 f5 23 3c 2b d8 32 bc f7 4e c0 3c
       -0.01592277 0.010007173 -0.010915796 0.023475153
000210 4c 4b 41 bc 61 c1 84 3d 22 ff b4 3d bb a8 77 3d
       -0.011797737 0.064821966 0.08837725 0.06046365
000220 48 ec ae 3b e5 b5 05 bd ce 8f ac 3d 06 81 30 bb
       0.0053382255 -0.03264417 0.08425866 -0.0026932373
000230 6c a6 07 bc 1e 28 ae 3d cc fc 45 3a 93 88 8e bd
       -0.008279424 0.085037455 0.0007552623 -0.06959643
000240 00 00 c9 bb 65 c5 5f 3d b1 d5 78 bd db 58 66 bd
       -0.006134033 0.05463161 -0.060750667 -0.056237083
000250 15 3f e7 3c d6 43 6b bd 8b 6d 7f bd 48 17 ae bb
       0.028228322 -0.05743774 -0.062360328 -0.005312834
000260 82 e6 67 bd 49 90 9b 3d 70 ee a8 bd fb 03 f2 bb
       -0.056616314 0.075958796 -0.08248603 -0.0073857284
000270 6a 8b 4d bd 04 0e 5c 3d e7 f8 8b bd 73 81 a0 3d
       -0.050181784 0.053724304 -0.06834584 0.078371905
000280 dd f3 46 bd d2 9b 77 3d 59 9b 9c bd f8 80 0c 3d
       -0.04857241 0.060451336 -0.07646818 0.03430268
000290 0a 2c 7c 3c ec 21 9f bd ca ea 71 3b 32 50 a8 3d
       0.015391359 -0.07770142 0.0036913627 0.08218421
0002a0 61 17 94 bd 8b 14 bd bc 6d 9b 50 bd 62 d4 96 3d
       -0.07231022 -0.023081085 -0.050929476 0.073647276
0002b0 f4 4e 4d bd 08 b7 3e bd 61 61 b2 bd da ec 3a 3d
       -0.050124124 -0.04656127 -0.0870998 0.045636036
0002c0 57 69 93 3d c6 b5 73 3d ed 0d 86 bc 95 18 9b 3d
       0.07197826 0.059499525 -0.016364062 0.07573048
0002d0 57 6c a1 3d dd 5d 32 3d e3 31 41 bd 86 c6 8a bc
       0.07881992 0.043546546 -0.047166716 -0.016940366
0002e0 7a 0d 23 bc 8f 81 19 bd ac 68 a0 bd a5 08 9a bd
       -0.0099519435 -0.037477072 -0.078324646 -0.0752118
0002f0 8e af ad 3c 62 81 68 bc 76 fd b2 3c 7a 43 31 bd
       0.021201875 -0.0141910035 0.021849375 -0.04327724
000300 40 6e 51 3d 7d a9 99 bd 31 8c 94 3c b1 2d 4f bc
       0.051130533 -0.075030304 0.018133255 -0.012645171
000310 be 5a 37 bd a1 45 2a bc 43 3d ae bc 9b e5 86 3d
       -0.044764273 -0.010392577 -0.021269446 0.065867625
000320 77 08 5c bd aa 74 25 3d 41 b8 ab 3d 52 ac a1 3c
       -0.05371901 0.040394463 0.08384753 0.019735489
000330 3c 10 6b bc 41 79 81 bd 13 57 45 3d 9f 3d 29 bc
       -0.014347132 -0.063219555 0.048178744 -0.010329633
000340 f4 fb 5e 3d 94 48 3d 3b 63 c5 44 3c d8 10 1f 3d
       0.0544395 0.0028882371 0.012009951 0.038834423
000350 1f 5f ab 3d 3e d7 38 bd 8c e8 68 3d e6 74 9b bc
       0.08367752 -0.045127146 0.0568624 -0.01897664
000360 01 76 aa 3d 35 8d d7 bc 15 28 a4 bc b6 b4 6e 3d
       0.08323289 -0.02631245 -0.020038644 0.058277808
000370 87 2b d4 bc 30 72 33 3d 2b 78 3b ba 81 bf 23 3c
       -0.025899662 0.04381007 -0.00071513903 0.009994389
000380 40 41 92 3d 9b f3 f6 bc e4 67 18 3d da ec c0 3c
       0.07141352 -0.030145457 0.037208453 0.02355044
000390 d2 03 f5 bc 03 a9 b3 bd 8a 3b 31 3d 28 3e 2f 3d
       -0.029909048 -0.08772471 0.04326967 0.042783886
0003a0 36 24 2c 3c 05 1d b2 3d 71 39 6b bd 99 96 a0 3d
       0.01050668 0.08696941 -0.057427827 0.07841224
0003b0 d7 af 2e bd e5 1a a1 bd 37 13 7f 3d cc d5 9d bd
       -0.042648163 -0.07866458 0.062274184 -0.07706794
0003c0 a3 c4 a6 3c f8 24 21 3c 93 de 19 3d 0a 16 53 bd
       0.020357436 0.009835474 0.03756578 -0.05153469
0003d0 0b d1 2f bd 85 15 1a bd d3 a3 c7 3c 03 50 88 bd
       -0.04292397 -0.03761818 0.02437011 -0.06655886
0003e0 8b dc c0 3b 3e 5a 7d bd f0 28 9e 3d fe 83 a1 bd
       0.005885666 -0.06185364 0.07722652 -0.07886504
0003f0 71 93 9a bb b4 69 c4 bc 6b 95 88 bd f1 b8 17 3d
       -0.0047172834 -0.023976184 -0.06669124 0.03704161

net.4.bias f4 [64]
000000 83 0f 92 3d 01 ba 6d bd f8 60 8d bd 69 ad 5d bd
       0.07131865 -0.058038715 -0.06903261 -0.054120455
000010 5d 40 8d 3d b9 05 6b 3d 92 c4 8d 3d df 65 1a bd
       0.06897042 0.057378504 0.069222584 -0.037694808
000020 ad 52 b7 3c 70 56 8a bd f8 7a 56 bd d1 b6 6e 36
       0.02237829 -0.06754768 -0.052363366 3.5571177e-06
000030 a7 81 c2 3b 46 04 60 3d ce e3 93 3d 30 04 89 bd
       0.005935866 0.054691575 0.07221185 -0.06690252
000040 57 75 42 bd f1 8f 8e 3c 25 fa 4d bd 7b df eb bc
       -0.047475185 0.017402621 -0.050287385 -0.028793087
000050 0f 68 b4 3c f7 f0 fb 3b f4 e7 81 3d af 13 88 bd
       0.022022275 0.0076886374 0.0634307 -0.06644379
000060 fc e7 84 39 b8 0e bf 3c dc 77 62 bd 3a d1 7b bc
       0.00025349844 0.023322448 -0.055290088 -0.015369708
000070 2c 9c 9b 3a 14 20 7b 3d 9e 95 8b 3d ba d1 cd 3c
       0.0011872104 0.06130989 0.068156466 0.02512442
000080 ab 09 8c bd 69 4c 80 3c ad 92 2d 3a a2 07 2a bd
       -0.068377815 0.015661435 0.00066212827 -0.041511185
000090 43 f3 89 bd c3 73 17 bd b8 83 aa bc 6a cd e0 3c
       -0.067358516 -0.036975633 -0.020814762 0.027441699
0000a0 fc f5 44 bd 89 68 93 3c e2 09 1c bd 77 2c 87 3c
       -0.04808615 0.017994182 -0.038095362 0.016500695
0000b0 d5 af 87 bc 9f 9c 3a 3a 5a 0b ab 3c 59 57 52 bd
       -0.016563335 0.0007118675 0.020879436 -0.051352832
0000c0 8e 33 1e 3c a6 89 28 3b fe c6 1a 37 99 57 6d bc
       0.009655846 0.002571681 9.225447e-06 -0.014486217
0000d0 1b 9a 97 b6 94 91 83 3d 0f 46 71 bc d9 f8 37 bd
       -4.518091e-06 0.06424251 -0.014726176 -0.044915054
0000e0 2f 43 63 bd c0 29 96 3c 79 43 6a 3d ac 32 84 bd
       -0.055483993 0.018330455 0.057193253 -0.064549774
0000f0 d2 78 1d 3d 74 a4 7b 3b 57 92 25 bd c8 75 2b bd
       0.0384453 0.0038397582 -0.040422764 -0.04186037

net.5.weight f4 [64]
000000 e4 0d 7e 3f 34 a8 81 3f 82 e2 80 3f f1 86 81 3f
       0.99239945 1.0129457 1.0069125 1.0119306
000010 a4 0f 7e 3f d2 02 7e 3f b5 14 7f 3f 1a c6 81 3f
       0.99242616 0.99223053 0.9964097 1.0138581
000020 ce b8 80 3f d9 4a 81 3f 01 ea 7d 3f 64 2b 81 3f
       1.0056398 1.0100967 0.99185187 1.0091367
000030 2e aa 81 3f 23 4f 81 3f 2c ce 80 3f 9e dc 81 3f
       1.013006 1.0102276 1.0062919 1.0145452
000040 21 13 81 3f 92 96 81 3f f4 83 7f 3f 4e df 81 3f
       1.0083963 1.0124075 0.9981072 1.0146272
000050 a6 69 80 3f 21 16 81 3f 99 68 7d 3f d7 83 80 3f
       1.0032241 1.0084878 0.9898773 1.0040234
000060 16 9c 80 3f 26 13 81 3f 37 0c 81 3f 4b ab 81 3f
       1.0047634 1.0083969 1.0081853 1.01304
000070 a0 a1 7f 3f c7 8c 80 3f 9c 29 80 3f 2f 04 82 3f
       0.99855995 1.0042962 1.0012698 1.0157527
000080 1d fe 7d 3f 51 13 80 3f 83 58 80 3f 9d 29 81 3f
       0.9921587 1.0005895 1.0027012 1.0090824
000090 a8 07 81 3f f0 b2 7e 3f 53 d5 80 3f 61 07 7f 3f
       1.0080462 0.99491787 1.0065101 0.99620634
0000a0 e1 a8 80 3f a2 e5 81 3f a2 cb 7f 3f 47 dd 80 3f
       1.0051538 1.0148203 0.99920094 1.0067528
0000b0 f6 47 81 3f 54 90 81 3f d0 46 81 3f 7c 05 81 3f
       1.0100086 1.012217 1.0099735 1.0079799
0000c0 46 5a 80 3f da 5e 81 3f 68 a7 7e 3f 0e 41 81 3f
       1.0027549 1.0107071 0.9947419 1.0097978
0000d0 bf 3e 7f 3f d8 f0 7f 3f 1a 52 7f 3f 28 94 7f 3f
       0.9970512 0.99976873 0.9973465 0.99835443
0000e0 b0 9b 80 3f 73 30 80 3f dd a0 81 3f 33 5d 81 3f
       1.0047512 1.0014786 1.0127217 1.0106567
0000f0 c2 92 81 3f 5c 35 7f 3f a4 af 80 3f e4 69 80 3f
       1.0122912 0.99690795 1.0053601 1.0032315

net.5.bias f4 [64]
000000 24 fc 01 bc 82 2a 44 3c a6 f0 d8 3b 4f f0 5b 3c
       -0.00793365 0.011973025 0.0066204844 0.013423993
000010 c6 a6 c3 bb 8a bb 08 bc 72 1a 7c 39 f8 c3 73 3c
       -0.0059708087 -0.008345494 0.00024042444 0.014878266
000020 de 45 91 3b 96 ac 42 3c b7 16 c2 bb 4d 66 a5 3b
       0.0044333776 0.011881968 -0.005923118 0.0050475956
000030 e7 5a 17 3c a3 9c 28 3c af ca fe 3b 14 e7 59 3c
       0.009237981 0.010291251 0.0077756266 0.013299722
000040 a1 ca 42 3c fa 27 33 3c 64 54 79 bb 33 e2 69 3c
       0.011889131 0.010934824 -0.0038044685 0.0142751215
000050 06 50 ca ba cb 3b 24 3c a5 57 1c bc 75 d1 e4 3b
       -0.0015435226 0.010024021 -0.00954238 0.006982977
000060 19 70 25 3b da c8 51 3c 6a a6 1a 3c 42 9c 74 3c
       0.0025243817 0.012804234 0.00943909 0.014929833
000070 20 f2 55 37 48 a0 89 3b 19 28 62 3a 33 e7 7d 3c
       1.27521635e-05 0.004200015 0.0008627191 0.015497017
000080 c4 18 0d bc 90 5d 4f 3b e4 81 39 3a 09 1e 32 3c
       -0.008611862 0.003164146 0.0007076545 0.010871419
000090 9b f3 0b 3c a9 7b 57 bb 17 cf 12 3c 2d 02 de bb
       0.008541967 -0.0032880104 0.008960507 -0.0067751617
0000a0 f0 9f 08 3c f8 ac 5e 3c 9f 84 50 bb f6 18 0d 3c
       0.008338913 0.013591044 -0.003181733 0.008611908
0000b0 9b 8c 3e 3c b5 cb 4f 3c d7 5a 1f 3c f9 38 10 3c
       0.011630203 0.012682845 0.009726248 0.008802646
0000c0 7b ba 30 3a a8 20 07 3c 26 b9 5e bb ca 28 d6 3b
       0.0006741655 0.008247532 -0.0033984869 0.006535624
0000d0 14 58 4b 3a 2b 39 8d 39 1a e0 5c bb f5 39 29 3a
       0.000775696 0.0002693621 -0.003370291 0.00064554746
0000e0 52 d8 f6 3b f2 9e e0 3a 1c 44 5e 3c 50 8f 20 3c
       0.0075331116 0.0017137213 0.013566043 0.009799793
0000f0 74 0c 47 3c 15 6d 08 39 86 29 94 3b 15 c7 9e 3b
       0.012148965 0.00013010607 0.0045215515 0.00484551

net.5.running_mean f4 [64]
000000 a3 3c b4 3e 96 b5 31 bd a1 e2 c9 be 87 90 f9 bd
       0.35202512 -0.043386064 -0.39430717 -0.121857695
000010 72 f0 7b 3e cf ae a2 3e a8 98 14 3e 7a 43 04 bf
       0.24603441 0.31773993 0.14511359 -0.5166546
000020 02 b8 b9 3e 5b 6c f9 bd b6 d5 b0 be 16 07 fe bd
       0.362732 -0.1217887 -0.34538049 -0.12403695
000030 b1 14 7a 3c 75 cd d9 3e 9b d0 17 be 5e fd 15 be
       0.015263722 0.42539564 -0.1482567 -0.14647433
000040 86 b9 cd be df a3 9a 3b 73 4d ed bd e0 90 83 3e
       -0.40180606 0.004719242 -0.11587038 0.25696468
000050 52 37 9d 3e 9e 08 8d bd 6c 0b a4 be f2 67 c9 be
       0.3070627 -0.06886409 -0.32039964 -0.39337116
000060 8a 9b f9 3d 46 02 5f 3e bb 3c 97 be 81 5b 3a 3e
       0.1218787 0.21778211 -0.2953852 0.18198968
000070 36 0a d5 3c 7a 1c 82 3e 73 b4 8d 3d 6f c5 8d 3d
       0.026005846 0.2541235 0.069191836 0.06922423
000080 c8 a8 fe bd d0 eb 50 bd e0 dd 1d be 90 b9 19 3b
       -0.12434536 -0.05100614 -0.1541667 0.002345655
000090 1f 7b 05 be 36 e5 7f 3e 7e 2c 9f 3e d8 7f 2b be
       -0.13035248 0.24989781 0.31088632 -0.16747987
0000a0 f1 bf b4 3d 93 3c 51 3e dd 3e 8f 3c 5e 1a 3c 3e
       0.088256724 0.20433263 0.01748603 0.18369433
0000b0 82 a1 b7 3d 0d f7 74 bd 09 b6 e3 bd f3 97 df bd
       0.08966352 -0.05980592 -0.11118705 -0.10917654
0000c0 a1 88 d8 3e 1c 6d 42 3e 52 2d 06 bf 88 4e 46 3e
       0.4229174 0.18986934 -0.52412903 0.19365895
0000d0 e2 05 15 be 11 f0 8d bd 3c 66 3f be 74 a5 22 bf
       -0.14553025 -0.06930555 -0.18691343 -0.6353371
0000e0 03 ae 96 be 60 4d a3 bd d5 31 49 3e 7c 74 66 3e
       -0.29429635 -0.079737425 0.19647916 0.22505373
0000f0 de 9a 94 be 64 75 e1 be 24 e2 1f be 8c 97 09 3f
       -0.29024404 -0.44034874 -0.1561361 0.5374687

net.5.running_var f4 [64]
000000 11 47 35 3e ea ca b3 3e 97 20 87 3e d3 65 78 3e
       0.17702891 0.3511575 0.26392052 0.24257593
000010 5f d7 98 3e 7a 1a 23 3e 11 c1 2b 3e 04 4f 82 3e
       0.29851815 0.15928069 0.16772868 0.2545091
000020 09 25 b9 3e c3 14 1e 3e 07 2f 7f 3e 11 f7 8e 3e
       0.36161068 0.15437607 0.24920283 0.27922872
000030 97 ea e1 3e d0 ac 7c 3e ea dc 60 3e 3a 8f 75 3e
       0.4412429 0.24675298 0.21959272 0.23980418
000040 31 93 46 3e 62 ee 9a 3e 61 a7 38 3e 1e 6e dd 3e
       0.19392087 0.30259997 0.180326 0.43248075
000050 11 a9 a7 3e bd fc 54 3e d7 d8 32 3e 3d 30 9a 3e
       0.32746175 0.20799537 0.1746553 0.30114928
000060 c2 ab 94 3e c1 91 44 3e 28 d8 91 3e a6 a8 4c 3e
       0.2903729 0.19196226 0.28485227 0.1998621
000070 4e 83 4b 3e c8 18 8b 3e 76 1c 55 3e 0b 59 e1 3e
       0.19874308 0.27167344 0.20811638 0.44013247
000080 f7 d3 59 3e 54 98 80 3e e4 13 83 3e 31 b4 48 3e
       0.21272264 0.25116217 0.25601113 0.19599988
000090 7d 0d 91 3e d8 73 21 3e 92 16 57 3e a8 e3 5f 3e
       0.28330603 0.15766847 0.21004704 0.21864188
0000a0 15 43 4b 3e f8 8b cb 3e 28 ff 88 3e b8 9c 96 3e
       0.19849809 0.39755225 0.2675717 0.29416442
0000b0 ee d6 80 3e cf d4 71 3e 92 03 81 3e 28 f4 7a 3e
       0.25163978 0.23616336 0.25198036 0.245072
0000c0 4d eb d0 3e 09 4b 91 3e 1c d7 3c 3e ce ea bc 3e
       0.4080452 0.2837756 0.18441433 0.36897892
0000d0 7b 22 86 3e 35 12 75 3e 15 fd 9a 3e 0f 2f 70 3e
       0.26198182 0.23932727 0.3027121 0.23455451
0000e0 e1 21 79 3e 57 db 98 3e 84 0d 9b 3e ba 93 4f 3e
       0.2432933 0.29854843 0.3028375 0.20271197
0000f0 5f e0 94 3e 86 c2 d2 3e a3 7c 73 3e 3a 9b 86 3e
       0.29077432 0.41164035 0.23778014 0.26290303

net.8.weight f4 [32, 64]
000000 c0 03 d3 bd 18 4b 88 3d c8 3a df bd 11 4b 9a bd
       -0.1030345 0.06654948 -0.108998835 -0.07533849
000010 d5 ea d6 3d 0a c4 c9 bd 37 61 c7 3d 37 c7 73 3d
       0.104940094 -0.098518446 0.09735339 0.059516158
000020 49 a3 68 bd 40 c1 be 3d 47 f8 bd 3d 33 f1 a6 bd
       -0.056796346 0.09314203 0.09275871 -0.08151474
000030 1f 86 21 3d 44 e3 08 bd fd 96 aa bd ba bb 2f 3d
       0.03943455 -0.033419862 -0.0832958 0.04290364
000040 a3 0d 54 3d 3a f9 f8 bc a9 1d 1c bd c9 4f df 3c
       0.051770817 -0.030392278 -0.038114224 0.027259724
000050 c4 76 95 bd 5d 3f 67 bd 2f c7 a4 bd a0 1d bb b9
       -0.07298043 -0.056456912 -0.08045804 -0.00035689492
000060 60 6e 6d bd 9b 7e bd 3c a8 c3 f0 3d f9 7b ec 3d
       -0.05796659 0.02313166 0.117560685 0.115470834
000070 40 45 f5 bd af 49 99 3c a0 68 bc bd 7c 89 e2 3d
       -0.11976099 0.018711893 -0.09199643 0.11061379
000080 e8 0d e8 bd fc fc 7f 3d 5c 29 d2 bc ca 68 a7 3d
       -0.113307774 0.062497124 -0.025654487 0.08174284
000090 d5 f5 4a bd 1a 0d 06 3e 5a 7e b7 bd 54 29 a9 3b
       -0.04955085 0.13090935 -0.089596465 0.0051623974
0000a0 80 78 31 3d 9d 6a 15 3d f4 eb bd bc a3 e5 d0 bd
       0.04332781 0.036478627 -0.0231838 -0.1020005
0000b0 23 c0 10 bd db ca e4 3d bd 52 5d 3c fc e3 62 bd
       -0.035339486 0.11171504 0.013508496 -0.055393204
0000c0 55 85 c0 3d 13 a8 f0 bb ae 0b 9d bc cb 7f b7 bd
       0.09400431 -0.0073442548 -0.019170608 -0.089599214
0000d0 98 44 1f 3c 53 de 02 3e 59 48 65 bd 10 7d 51 bd
       0.009720944 0.12780122 -0.0559772 -0.05114466
0000e0 eb 2d 06 bb 33 bd dd 3c af 1d f1 3d 47 be 46 3d
       -0.0020474147 0.027067756 0.1177324 0.048521306
0000f0 87 39 33 3c 8b 2d 9a bd 72 b5 dd bd c7 56 9e 3d
       0.010939009 -0.07528218 -0.108256236 0.07731395
000100 af c0 13 3d 01 d7 a7 bd 99 1c 3d bd 43 a9 94 3d
       0.03607243 -0.081953056 -0.04616985 0.072588466
000110 79 9b ec bc 8e a3 a6 3d 4d 40 3a 3c 51 b5 8c 3d
       -0.028882729 0.08136664 0.01136787 0.06870521
000120 dd 3c ea 3c b1 c9 30 bd 7e a6 88 bd 1c 6a 01 3d
       0.028593475 -0.043161098 -0.06672381 0.031595334
000130 d6 0a 44 bd 23 e2 8f bb c1 12 d4 3d 5a 4e b1 3d
       -0.047861896 -0.0043909713 0.103551395 0.086575225
000140 0c f5 8e 3d 5b 5a 83 3a d4 2a d5 bd 0e 1c 91 3d
       0.06980333 0.0010021435 -0.104085594 0.07085429
000150 58 9d 95 bc bc ed 96 3d 45 df 89 bd 37 e0 50 3d
       -0.018263504 0.07369563 -0.067320384 0.050995078
000160 9f 8f 8e 3d 2e be 9e 3d c1 00 b6 3d 2c 0b c7 3d
       0.06960987 0.07751118 0.088868625 0.09718928
000170 f5 79 70 bd 08 f4 d0 3d b3 a1 b3 bd f9 2f 0b 3e
       -0.058710057 0.10202795 -0.08771076 0.13592519
000180 57 c8 d6 bd 02 f3 d0 bd ad 4b bb bd 23 3f 1b 3d
       -0.104874305 -0.102026 -0.091452934 0.03790201
000190 f8 ed a0 bd 39 aa f7 bc 7f f1 8d bd 12 46 1b bc
       -0.07857889 -0.030232536 -0.06930827 -0.009477155
0001a0 4d 56 92 3d d3 c1 af 3d cf a7 81 3d e1 a8 ca bc
       0.07145367 0.08581891 0.06330835 -0.02473873
0001b0 d4 c8 a9 3d 0e 65 19 bc 76 35 33 bd a3 a1 d1 3d
       0.08290258 -0.009362472 -0.043752156 0.10235908
0001c0 3d 97 58 3d da f8 2e 3d b1 ba 08 3d 86 0a 88 bd
       0.052878607 0.042717792 0.033381168 -0.06642632
0001d0 85 bb 80 3d 9e 70 e7 bc 8b 65 06 3e 29 25 f0 3d
       0.062857665 -0.028251942 0.13124673 0.11725838
0001e0 73 47 8f bc d1 82 ce bb 07 57 ac bc 33 82 13 bc
       -0.017490124 -0.0063022156 -0.021037592 -0.00900321
0001f0 6c 9d c8 3d 93 a7 32 3d 00 ea 3b 3c 1f 04 85 bc
       0.09795651 0.043616842 0.011469364 -0.016237317
000200 25 42 65 3d 5b 30 87 3d 8b b9 82 3d db 52 30 3d
       0.055971283 0.0660102 0.06383046 0.043047767
000210 ae 8a 15 bd 16 50 95 bd 45 d3 c5 3d c1 8a 71 bd
       -0.03650921 -0.07290666 0.09659437 -0.058970217
000220 0e a1 fc bd 6e af 48 3c 09 5d 87 3b 24 a6 cc 3d
       -0.12335406 0.012248857 0.0041309637 0.09992626
000230 8b 0a e9 bc 8d f9 df bc dd 0b de 3d de e2 07 3e
       -0.02844741 -0.027340675 0.108421065 0.13270137
000240 da 8b 98 3d fa 1c 8a bc ba 60 48 3d 08 d1 e0 bd
       0.074485496 -0.01685952 0.04892037 -0.109773695
000250 ca b9 8d bd a4 db 18 3d 53 f9 ba 3d 52 f0 e3 3d
       -0.06920202 0.03731884 0.09129586 0.11129822
000260 00 93 87 3d 51 e3 0c bc bf e8 68 3d e3 10 ec bd
       0.06619835 -0.008599118 0.05686259 -0.115266584
000270 a4 7c 84 bd ed 85 87 bd 9a 0e a4 bd df e2 19 bc
       -0.06469086 -0.06617341 -0.080105975 -0.009392469
000280 e5 b8 e0 bd 90 a0 6a bd fd 11 c9 bd c5 36 6e bd
       -0.10972766 -0.05728203 -0.09817884 -0.0581577
000290 57 c4 bb 3d 6a 18 ed 3c de 30 d6 bd 15 1e 03 be
       0.09168308 0.028942306 -0.104585394 -0.12804444
0002a0 17 47 f9 bd 37 39 92 bb 66 0f 94 bd 21 a3 cb bd
       -0.121717624 -0.004462387 -0.072294995 -0.09943224
0002b0 0b d8 12 3c 14 a4 50 bd 58 9e 75 bd 71 fc 93 3d
       0.0089626415 -0.050937727 -0.05996546 0.07225884
0002c0 c4 30 f2 bd 36 79 98 bd 02 30 b8 3d 0a c6 1a 3a
       -0.118257076 -0.07444994 0.08993532 0.0005904144
0002d0 78 91 44 bd 83 66 7d bd 0b 6b db bd 33 39 3f 3d
       -0.047990292 -0.06186534 -0.10713776 0.04668541
0002e0 61 eb b0 3d 57 ac 69 3d a3 78 24 bb f3 ab 9d bd
       0.08638645 0.05704912 -0.002509632 -0.07698812
0002f0 d5 f3 68 3d d1 ce b0 bd c6 ad e3 3c fd 86 0f 3d
       0.05687316 -0.08633197 0.027792823 0.035040844
000300 9b 12 d6 3b 90 c3 4b bc 1d a7 64 bd e5 47 db bc
       0.0065329797 -0.012436762 -0.055823434 -0.02676768
000310 9f e3 ef bd 9c 69 d8 bd dd 35 e7 3d 68 e0 9b 3d
       -0.11713337 -0.105670184 0.112895705 0.076111615
000320 46 1f 55 bd 9d a1 3f 3d dd 68 8f bd b8 fd d4 3d
       -0.052031778 0.046784986 -0.07002423 0.103999555
000330 5c c6 9a bc e9 5f 63 bd 8d 9b 65 bd 94 8f fa bd
       -0.018893413 -0.05551139 -0.056056548 -0.122344166
000340 ab fc a8 bd 70 37 ad bd 6f 39 67 bd 05 9e db bc
       -0.082513176 -0.084578395 -0.056451257 -0.026808748
000350 e5 2e 5b bd 8b 96 23 3d cc 2a 94 3d b9 02 28 3c
       -0.05351152 0.03993849 0.07234725 0.010254555
000360 82 06 c6 3d c3 56 b8 3d f6 47 ad 3c ba 13 3d 3c
       0.0966921 0.090009235 0.021152478 0.011540348
000370 e6 28 8c bd a7 24 c7 bd 25 5a cf 3d 30 d6 d1 bd
       -0.06843738 -0.09723788 0.101246156 -0.10245931
000380 aa 54 b8 bc db 29 ca bd aa f6 8e bd 11 9c b5 3d
       -0.022501308 -0.098712645 -0.06980641 0.08867658
000390 28 b2 b5 3d 29 b6 d2 bd 99 e8 cd 3d 5e f4 ca bd
       0.08871871 -0.102886505 0.1005413 -0.099098906
0003a0 9c cf dc 3d 16 3c 8f 3d 41 9e 80 3d 57 fe f4 3a
       0.10781786 0.06993882 0.062801845 0.0018691522
0003b0 d5 cf 8f bd 9c 0a 06 3e 25 96 57 3d e0 21 0e bd
       -0.07022063 0.13089985 0.052633423 -0.034700274
0003c0 6d 81 e5 3d 0f a3 15 3d a2 61 9b 3d 1f ac 73 bd
       0.11206327 0.036532458 0.07586981 -0.05949032
0003d0 bf 30 a9 bd bc 89 bb bd 77 61 d0 bd e8 f8 79 bd
       -0.08261251 -0.0915713 -0.1017484 -0.06102839
0003e0 1a 66 08 bb 1d 7f df bd 2f ac a7 bd 55 96 62 3d
       -0.002081281 -0.10912917 -0.08187138 0.05531915
0003f0 26 91 7c 3d ec 5f e0 bc a0 b3 45 3d 29 47 96 3d
       0.06166186 -0.02738949 0.048267007 0.073377915

net.8.bias f4 [32]
000000 02 0c cd 3d a5 2e d1 bd af a6 13 bd 08 0d a2 3d
       0.10012056 -0.10213975 -0.036047634 0.07912642
000010 40 8e 12 3d 91 b3 e4 bd ae 80 f8 bd 86 80 d9 bd
       0.03578019 -0.11167062 -0.12133919 -0.10620217
000020 81 8c e4 3d 7f 5c 5c bc ff 31 80 bd d8 a5 4a ba
       0.111596115 -0.013449787 -0.06259536 -0.0007730401
000030 a0 ce 7f 3d cf 85 18 bc 91 1b c3 3d ea 2e 70 bd
       0.062452912 -0.009309246 0.09526742 -0.05863849
000040 a8 a5 d5 bd 02 1e e2 bd 0c 72 f4 3d 5a c9 db 3d
       -0.10431987 -0.1104088 0.11935815 0.10731764
000050 9c 3f bd 3d 69 cd 81 bd 6e f7 2d bb 08 f6 89 bd
       0.09240648 -0.06338007 -0.0026545185 -0.0673638
000060 63 9d c2 bd 12 1d 41 bd b0 85 c8 bd d0 81 fd bd
       -0.095026754 -0.047146864 -0.09791124 -0.123782754
000070 5c fe 8f bd dd b0 dc 3d c4 61 fb bc 3b 3e ea bd
       -0.07030937 0.107759215 -0.030686267 -0.11437651

net.10.weight f4 [1, 32]
000000 d4 99 22 be 0b 9b 1e be 91 1b dc bd 15 71 bc 3d
       -0.15878993 -0.15488832 -0.107474454 0.09201256
000010 71 6c 04 be b0 41 cb 3d d0 f9 07 3e c1 0b 6d 39
       -0.12931992 0.09924638 0.1327889 0.0002260646
000020 d8 44 9f bd 9f ed a0 bd 65 5c 86 3c 84 b1 a7 bd
       -0.07776803 -0.078578226 0.016401479 -0.08188155
000030 43 b3 92 bd a7 d6 dd bc 95 23 2d 3d 71 10 27 3e
       -0.07163098 -0.027079893 0.04227026 0.16314866
000040 8f f0 60 3d e8 42 29 3e 5a 92 02 be d6 ce d5 bd
       0.054916915 0.16529429 -0.12751141 -0.104398414
000050 17 c9 c9 3c 61 dc 34 3e 8a 59 e3 bb 35 fe 3f bd
       0.02463202 0.17662193 -0.006938164 -0.04687329
000060 73 56 31 3e c7 69 29 3d 85 6e 07 3e e0 41 34 bd
       0.17318134 0.041360643 0.13225754 -0.044008136
000070 71 52 a5 bc 23 5e ac 3d 47 fc c1 3d 53 fb 0c be
       -0.020180913 0.08416393 0.09471946 -0.13767748
