stroke_prediction_cnn.pth (torch, 19985 bytes, 7 tensors)

conv1.weight f4 [16, 6, 3]
0	0x3e3cbbc9	0.1843101
1	0xbd25282e	-0.04032152
2	0x3e456fd1	0.19280936
3	0xbe664cae	-0.22490188
4	0xbe1b51b2	-0.15167883
5	0x3e07b84f	0.13253902
6	0xbd17a6c0	-0.03702426
7	0xbe718def	-0.235893
8	0x3e26f2dd	0.16303582
9	0x3dc2721e	0.094944224
10	0xbc8b0556	-0.016970318
11	0xbe4849c0	-0.19559383
12	0xbe2d191e	-0.16904113
13	0x3dc90431	0.098152526
14	0x3d16a70c	0.036780402
15	0x3e2aeeed	0.16692705
16	0xbdd3b74b	-0.10337695
17	0xbe35e0ba	-0.17761508
18	0x3e687337	0.22700201
19	0x3e63f00e	0.22259542
20	0x3e66b13f	0.22528552
21	0x3e184cab	0.14872997
22	0x3e421004	0.18951422
23	0xbe421f6e	-0.18957302
24	0xbe44c8c7	-0.19217215
25	0xbe7e578f	-0.24838088
26	0xbce8b7e0	-0.028407991
27	0xbd2a1ed4	-0.041533306
28	0xbe18b585	-0.14912994
29	0xbe58091f	-0.2109723
30	0x3cbe2c88	0.023214594
31	0xbe886a8e	-0.26643795
32	0x3d83584e	0.06413327
33	0xbe1d7ca8	-0.15379584
34	0xbe826a08	-0.2547152
35	0xbe398996	-0.18118891
36	0x3cca0b18	0.024663493
37	0x3e5cfb34	0.21580201
38	0xbb289500	-0.0025723577
39	0x3e42bf77	0.1901835
40	0x3db6f7f0	0.08934009
41	0xbe038387	-0.12843142
42	0x3e3302e7	0.17481576
43	0x3e566e40	0.20940495
44	0x3e27603d	0.16345306
45	0xbe4cd332	-0.2000244
46	0x3d83941c	0.06424734
47	0xbd8b6392	-0.06806101
48	0x3e191c13	0.14952116
49	0xbe58d472	-0.21174791
50	0x3ddf2b56	0.108969375
51	0x3cbe8488	0.023256555
52	0xbd5ff636	-0.054678164
53	0xbe1279fe	-0.14304349
54	0x3db24932	0.08705367
55	0xbe4cf13a	-0.20013896
56	0xbdb868ec	-0.09004387
57	0x3e5d88d1	0.21634223
58	0x3d07a62a	0.03311745
59	0xbe0ceecc	-0.13762969
60	0xbd509140	-0.05091977
61	0x3e9069e1	0.2820578
62	0x3d297fd4	0.041381672
63	0x3dcabc06	0.09899144
64	0xbe3da267	-0.18518983
65	0x3dd19252	0.102329865
66	0xbdf0fccc	-0.11766967
67	0xbda04d87	-0.07827287
68	0x3d733624	0.059377804
69	0x3d058a14	0.032602385
70	0x3e2a64b9	0.16639985
71	0x3c481b10	0.012213483
72	0xbdaf3614	-0.085552365
73	0x3e1b4b7f	0.15165518
74	0x3dbc41e2	0.09192254
75	0xbe1a95c1	-0.15096189
76	0xbe434220	-0.19068193
77	0x3da7293a	0.0816216
78	0xbe1e66e7	-0.15468942
79	0x3e115402	0.14192203
80	0xbc826260	-0.01591605
81	0xb90d1000	-0.00013452768
82	0x3eb762a6	0.3581745
83	0xbd9a0a7e	-0.075215325
84	0x3e06ed7f	0.13176535
85	0xbe2d9dac	-0.16954678
86	0xbd127e10	-0.035764754
87	0xbe5aa18d	-0.21350689
88	0xbcdb63e9	-0.02678104
89	0x3c437c50	0.011931494
90	0x3da6d73a	0.0814652
91	0xbe96d492	-0.29459053
92	0xbc8e2e40	-0.017356038
93	0x3e449bd3	0.19200067
94	0x3e72e056	0.2371839
95	0xbcd2f8e0	-0.025753438
96	0x3cbb72f8	0.02288197
97	0x3e837594	0.25675642
98	0x3d56d1a4	0.052446023
99	0x3dabb43e	0.08383988
100	0xbeac3a32	-0.3363815
101	0x3e2eb1ed	0.17060061
102	0x3d19623c	0.0374472
103	0xbd9daf91	-0.07699502
104	0xbe520fb1	-0.20513798
105	0xbda4c3fe	-0.08045195
106	0x3eb18780	0.3467369
107	0xbc884600	-0.016634941
108	0x3d47234c	0.048617646
109	0xbe89b090	-0.2689252
110	0xbe398fc4	-0.18121248
111	0x3e2f0765	0.17092665
112	0xbd49cd47	-0.049268033
113	0xbcd6b0c0	-0.026207328
114	0x3c2d2a10	0.0105691105
115	0xbe728fa1	-0.23687603
116	0xbd777e64	-0.06042327
117	0x3c5e71b0	0.01357691
118	0xbe224060	-0.1584487
119	0x3d7282ac	0.05920665
120	0x3e67a25d	0.2262053
121	0x3eb2eeaf	0.34947726
122	0x3dda2402	0.10651399
123	0xbe1065ea	-0.14101377
124	0xbea8f277	-0.32997486
125	0xbe52990a	-0.20566192
126	0x3da4d72e	0.08048855
127	0x3dc97ab7	0.09837859
128	0xbdf9feb0	-0.12206781
129	0x3e3fa6df	0.18716
130	0x3ea83738	0.3285463
131	0x3e50404d	0.20337029
132	0xbdc0d680	-0.09415913
133	0x3e319744	0.1734286
134	0xbe558298	-0.20850599
135	0x3cac5b08	0.0210395
136	0xbeb6ae38	-0.35679793
137	0x3df8726a	0.12131198
138	0xbe1e4b33	-0.15458374
139	0x3e555c9a	0.20836106
140	0x3e4a5669	0.19759525
141	0x3c2c45b0	0.010514662
142	0x3e42ee97	0.19036327
143	0xbe70d562	-0.23518899
144	0x3e5810af	0.21100114
145	0xbddd5f00	-0.108091354
146	0x3c689ac0	0.0141970515
147	0xbe311492	-0.17293003
148	0xbe11e5e6	-0.14247856
149	0x3e6856cd	0.22689362
150	0xbe6280aa	-0.22119394
151	0xbe7f448a	-0.2492849
152	0x3e10563b	0.14095394
153	0xbd40ca2c	-0.047067806
154	0x3dc71146	0.097200915
155	0x3d47db9c	0.04879342
156	0x3e273039	0.16326989
157	0xbe8af042	-0.27136427
158	0xbe4f9f44	-0.20275599
159	0xba3a3300	-0.00071029365
160	0x3c741cbf	0.014899432
161	0xbd142db0	-0.036176383
162	0xbde5df26	-0.11224203
163	0xbe0458e3	-0.12924533
164	0xbdeb0719	-0.11475963
165	0x3e3d020d	0.18457814
166	0xbd8c18ab	-0.068406425
167	0xbe413dbc	-0.18871206
168	0xbdcccb72	-0.099997416
169	0xbe996dda	-0.29966623
170	0x3e4deb09	0.2010919
171	0xbe3ffb82	-0.18748286
172	0xbd8c942d	-0.068642
173	0x3dff2dfa	0.12459941
174	0xbcd9fcc0	-0.026609778
175	0xbe42f77a	-0.19039717
176	0xbe3add58	-0.18248498
177	0xbe1ecb86	-0.15507326
178	0x3d068af3	0.032847356
179	0x3db121b6	0.08649008
180	0x3d0213c4	0.03175713
181	0xbea17dbb	-0.31541237
182	0x3e098e2d	0.13433142
183	0x3e43775d	0.19088502
184	0x3e9134ba	0.2836054
185	0x3d7d8254	0.06189187
186	0xbd8c154a	-0.06839998
187	0x3ea8d69d	0.32976237
188	0x3e45c04d	0.19311638
189	0xbe4c8292	-0.19971684
190	0xbdd927f6	-0.10603325
191	0x3e2796f7	0.16366182
192	0x3e57122f	0.2100303
193	0xbe9bd090	-0.30432558
194	0xbb533a40	-0.0032230765
195	0xbe5a1ef5	-0.21300872
196	0xbe0616e8	-0.13094676
197	0x3e110575	0.14162238
198	0xbd73482c	-0.059395
199	0x3e931a7b	0.2873114
200	0xbdaa77a0	-0.08323598
201	0xbd6d1134	-0.057877734
202	0xbeac8bc0	-0.3370037
203	0xbd8dd7b4	-0.06925908
204	0x3dbacb12	0.09120764
205	0x3dc2aac9	0.09505231
206	0xbd8d37fc	-0.06895444
207	0xbe5bcbcd	-0.21464463
208	0x3e2be9ad	0.16788359
209	0xbd0b45f8	-0.034002274
210	0xbde581a3	-0.11206367
211	0xbdba8076	-0.09106533
212	0xbdc3d5cc	-0.09562263
213	0x3dbb9716	0.09159677
214	0x3d232b72	0.039836355
215	0xbb745b80	-0.0037285984
216	0x3e2df8cf	0.16989444
217	0xbe8c27fb	-0.27374253
218	0xbe17a328	-0.14808333
219	0x3d4cf104	0.050034538
220	0xbdc358bc	-0.09538409
221	0x3d0d29b4	0.0344636
222	0xbdbcac90	-0.09212601
223	0xbeadccde	-0.33945364
224	0xbd29dd64	-0.0414709
225	0xbd8903da	-0.06690188
226	0xbe554c08	-0.20829785
227	0x3e3b5c2b	0.18296878
228	0x3c287f80	0.010284305
229	0x3ea768b5	0.32697073
230	0xbe0a2826	-0.13491878
231	0xbdbf3ede	-0.09338163
232	0x3dcdff57	0.10058468
233	0xbe08b1fa	-0.13349143
234	0x3bab1ea0	0.0052221566
235	0xbea5639c	-0.32302558
236	0x3e24a6b5	0.16079219
237	0xbbd16e80	-0.0063913465
238	0x3dbf10c4	0.0932937
239	0x3e2b59c3	0.1673346
240	0x3e0ae9f9	0.13565816
241	0xbddff8e4	-0.10936144
242	0xbe254256	-0.16138586
243	0xbe3a37be	-0.18185326
244	0x3ddb65cd	0.10712776
245	0xbe1ecd0b	-0.15507905
246	0xbe05a5aa	-0.13051477
247	0xbe399632	-0.18123701
248	0xbb96e980	-0.004605472
249	0xbe6e6011	-0.23278834
250	0xbe8965db	-0.26835522
251	0x3e604cbd	0.21904273
252	0xbd621ea0	-0.055204988
253	0xbdf58f93	-0.11990275
254	0x3dd08e6a	0.10183413
255	0xbe3b4533	-0.18288116

conv1.bias f4 [16]
0	0x3e6eac9c	0.23308033
1	0x3e00be20	0.12572527
2	0x3ea6cba6	0.32577246
3	0x3df815ac	0.121135086
4	0xbd64ebb1	-0.055888835
5	0xbda0704d	-0.0783392
6	0xbd401d03	-0.046902668
7	0x3e71fdcd	0.23631974
8	0x3d3ae333	0.04562683
9	0x3ea01b66	0.31270903
10	0x3dad012f	0.084474914
11	0x3d10ea9b	0.035379987
12	0x3e413479	0.18867673
13	0x3e5a3a3d	0.21311279
14	0x3e8ca365	0.2746841
15	0x3e4c5dec	0.19957703

conv2.weight f4 [32, 16, 3]
0	0xbd759b20	-0.05996239
1	0x3e3e81f5	0.18604262
2	0xbd7713ae	-0.060321502
3	0xbda6ec2c	-0.08150515
4	0x3e2249a0	0.15848398
5	0x3d550a40	0.05201173
6	0x3de4c010	0.111694455
7	0x3cfce0fb	0.030868998
8	0x3c9da3d8	0.019243166
9	0x3c194bc0	0.009356439
10	0x3e6fe34c	0.2342655
11	0x3ddaf224	0.10690716
12	0x3dd6d370	0.10489547
13	0xbe438a5b	-0.19095747
14	0x3bd9c660	0.0066459626
15	0x3d91bb20	0.071157694
16	0x3e2b24e3	0.1671329
17	0xbbbcd860	-0.0057630986
18	0xbd9aebb2	-0.075644866
19	0x3e28197b	0.1641597
20	0xbdc395f2	-0.09550084
21	0x3e01defe	0.12682721
22	0x3de4fedd	0.11181424
23	0xbdb7d044	-0.089752704
24	0x3d90f7f6	0.07078545
25	0xbb533ef9	-0.003223358
26	0x3d9cf0fa	0.0766315
27	0x3db2c878	0.08729643
28	0x3c92b6cb	0.017909428
29	0xbe095d46	-0.13414487
30	0xbd358d86	-0.04432442
31	0x3dedaf65	0.116057195
32	0xbde1c7a2	-0.11024405
33	0xbdd744a9	-0.10511143
34	0x3d3207e1	0.043464545
35	0xbdb3f390	-0.0878669
36	0xbd931a2d	-0.07182727
37	0x3de0f236	0.10983698
38	0xbdc0ec18	-0.09420031
39	0x3dc63ede	0.0967996
40	0x3e7eea9b	0.24894182
41	0xbdd6bf48	-0.10485703
42	0xbd9359f4	-0.071948916
43	0x3e44e088	0.19226277
44	0x3d64e40c	0.055881545
45	0x3d790f64	0.060805693
46	0x3e75b29c	0.23993915
47	0xbda9a46e	-0.082833156
48	0x3cc3ecd8	0.023916647
49	0x3e11c088	0.14233601
50	0x3dc7ed42	0.0976205
51	0xbd15b41c	-0.03654872
52	0x3d6ac944	0.057320848
53	0x3dd317a0	0.103072405
54	0xbd0e934a	-0.034808435
55	0xbd2c8bbd	-0.042125452
56	0x3dc92246	0.0982099
57	0xbe0cb27c	-0.13739961
58	0x3e32b1ed	0.17450686
59	0xbdd590d3	-0.10428014
60	0xbd8d4c06	-0.06899266
61	0xbe15ad99	-0.14617004
62	0xbd8a7d42	-0.06762172
63	0xbdb6220a	-0.08893211
64	0x3e60da7d	0.21958347
65	0x3e033574	0.1281336
66	0x3d4a5e00	0.04940605
67	0x3df356b9	0.118817754
68	0xbcb00548	-0.021486893
69	0xbd5a93fa	-0.053363778
70	0x3e48ff26	0.19628581
71	0xbdf6f31b	-0.120580874
72	0x3d4d6e68	0.05015412
73	0x3e2b021d	0.16700025
74	0x3df284d4	0.11841741
75	0xbe0eca0e	-0.13944265
76	0x3dd84f0e	0.105619535
77	0xbd338b78	-0.04383418
78	0x3d11fb20	0.035639882
79	0x3e03d556	0.1287435
80	0xbe116ae7	-0.14200936
81	0xbcdeb35c	-0.027185135
82	0xbdc1a501	-0.094553
83	0xbe12a324	-0.14320046
84	0x3da4baa8	0.08043414
85	0x3e1ee8f3	0.1551855
86	0xbc1cb030	-0.009563491
87	0x3d8d756e	0.069071636
88	0x3ca79b91	0.020459922
89	0xbaa8ef80	-0.0012888759
90	0x3e0b478c	0.13601512
91	0x3e565638	0.20931327
92	0xbdb786a2	-0.08961226
93	0xbdfc2802	-0.123123184
94	0x3d44e63a	0.048071124
95	0x3cc0ef10	0.023551494
96	0xbddfcefc	-0.10928151
97	0x3e4aad4b	0.19792669
98	0x3daa0852	0.08302368
99	0xbe0738c9	-0.13205256
100	0x3defc6ea	0.11707862
101	0x3cbe57b8	0.023235187
102	0x3df628b0	0.12019479
103	0xbd412ae8	-0.04716006
104	0xbd8d73c0	-0.06906843
105	0x3c2b5930	0.010458276
106	0x3dd0c39c	0.101935595
107	0x3d3c7040	0.046005487
108	0x3dc558aa	0.09636052
109	0x3c6a4583	0.014298799
110	0xbd3a51b8	-0.04548809
111	0xbda1e7c2	-0.079055324
112	0x3deab65b	0.11460563
113	0xbe092e20	-0.13396502
114	0xbda7039a	-0.08154984
115	0x3e6a21d3	0.22864465
116	0x3d655ca0	0.055996537
117	0xbbf843e0	-0.0075764507
118	0x3db8dd05	0.09026531
119	0xbdcc37d3	-0.09971585
120	0x3d229688	0.03969434
121	0x3e44ae65	0.19207151
122	0xbd0270e4	-0.031845942
123	0xbc04fb60	-0.008116573
124	0x3e443526	0.191609
125	0xbd84004d	-0.0644537
126	0xbd84a363	-0.06476476
127	0x3e1deaf1	0.15421654
128	0xbca05a24	-0.019574232
129	0xbdb0b55a	-0.0862834
130	0x3d8edec4	0.06976083
131	0xbd36a0a6	-0.0445868
132	0xbe0ebf08	-0.1394006
133	0x3e6a14c5	0.22859485
134	0x3dfb61a4	0.12274483
135	0x3df2993c	0.118456334
136	0x3dd82818	0.10554522
137	0x3e0cffdc	0.13769478
138	0x3dc19e70	0.09454048
139	0x3c10bb5a	0.008833731
140	0x3d96a78c	0.07356176
141	0x3d045f40	0.0323174
142	0x3d9e6e74	0.07735911
143	0xbdbab753	-0.091169976
144	0x3d1dc374	0.038516477
145	0x3ac74936	0.0015204314
146	0x3dfa5f38	0.12225193
147	0x3dda4ee8	0.106595814
148	0x3e6a9eb0	0.22912097
149	0xbcef3e70	-0.029204577
150	0x3c59a120	0.013283044
151	0x3d7aefc2	0.061263807
152	0x3dd56736	0.104200765
153	0x3ce3c0e0	0.02780193
154	0x3e58481d	0.21121259
155	0x3e03aa56	0.12857947
156	0xbbff21a0	-0.007785991
157	0xbdfe35cf	-0.12412607
158	0x3dc091c2	0.09402801
159	0x39b80800	0.00035101175
160	0x3e11cf87	0.14239322
161	0xbcaedf20	-0.021346629
162	0xbd27a38c	-0.040927455
163	0xbc4ba69a	-0.012429858
164	0x3dbb43e4	0.091438085
165	0xbd2bf056	-0.04197725
166	0x3e808d33	0.25107726
167	0x3de16d30	0.11007154
168	0xbdf3bc48	-0.11901146
169	0x3e0342ac	0.12818402
170	0xbcfe6db4	-0.03105817
171	0x3d4999dc	0.049218997
172	0xbc4ca66c	-0.01249085
173	0xbdec4d31	-0.115381606
174	0xbdf5521f	-0.11978554
175	0x3db35381	0.087561615
176	0xbda0970c	-0.0784131
177	0xbe0b8d09	-0.1362802
178	0xbdbf1e86	-0.09331994
179	0xbe02279c	-0.12710422
180	0xbe07e5d6	-0.13271269
181	0x3da0027d	0.078129746
182	0x3d951718	0.072797954
183	0xbe0193d9	-0.12654056
184	0x3d27d977	0.040978875
185	0xbd49a482	-0.049229153
186	0xbdbf7cdc	-0.09349987
187	0x3e812021	0.25219825
188	0x3d2e1528	0.042500645
189	0x3ceaba60	0.028653324
190	0x3dd3306f	0.10311972
191	0xbe0b6517	-0.13612781
192	0x3d3e7218	0.046495527
193	0xbdd9d226	-0.10635786
194	0xbe03e9bc	-0.12882131
195	0xbdb0499f	-0.08607792
196	0x3dcd50b6	0.1002516
197	0x3d6f8558	0.058476776
198	0x3de62bd4	0.11238828
199	0xbe0026ea	-0.12514845
200	0x3dc74c02	0.09731294
201	0x3d03e2b8	0.032198638
202	0xbd8a5835	-0.067551054
203	0x3de88b08	0.11354643
204	0x3dcac0fc	0.0990009
205	0xbd8585ba	-0.06519647
206	0xbd85da27	-0.0653575
207	0xbcd2fa00	-0.025753975
208	0x3dce3a0f	0.100696675
209	0xba1ba900	-0.0005937964
210	0xbe105939	-0.14096536
211	0x3d0ef986	0.034905933
212	0xbdec8ed6	-0.11550681
213	0xbd833492	-0.06406511
214	0xbd1db2d5	-0.038500626
215	0xbd80315d	-0.06259415
216	0xbdde0d1a	-0.10842343
217	0xbd4c3b0d	-0.049861003
218	0x3df42abc	0.119222134
219	0xbc088010	-0.008331314
220	0x3dc14bfb	0.0943832
221	0x3dd9e848	0.10640007
222	0x3d1968b0	0.037453353
223	0xbe1b1cdd	-0.15147729
224	0xbcc8b7b4	-0.024501659
225	0x3d90ab3c	0.0706391
226	0xbdc831ce	-0.097751245
227	0x3d992acc	0.07478866
228	0x3db4b7c0	0.0882411
229	0x3ce61b51	0.028089197
230	0x3e0cde20	0.13756609
231	0x3dca459c	0.09876558
232	0x3dbb19de	0.09135793
233	0x3d0e79bc	0.034784064
234	0x3e105696	0.1409553
235	0xbcd460a4	-0.025924988
236	0x3d4733cc	0.04863338
237	0x3da3434e	0.07971822
238	0x3db4ef27	0.08834677
239	0x3c0d4a40	0.00862366
240	0xbca18538	-0.019716844
241	0x3e5df327	0.21674787
242	0x3e000604	0.12502295
243	0x3bd634a0	0.006537035
244	0x3cc2c2b4	0.023774482
245	0xbd913a1e	-0.07091163
246	0xbdfc23cc	-0.12311515
247	0xbceba0f4	-0.028763272
248	0xbdbcc97e	-0.09218119
249	0x3c1a7690	0.009427682
250	0x3dd93656	0.10606067
251	0xbc55dba0	-0.013052851
252	0xbe02e91d	-0.12784238
253	0xbe4dd716	-0.2010158
254	0x3d4c6318	0.04989919
255	0xbd6e012a	-0.05810658

conv2.bias f4 [32]
0	0x3ce16fd7	0.02751915
1	0x3e31612d	0.17322226
2	0x3dcb75fd	0.09934614
3	0x3dcb29b6	0.09920065
4	0xbdac3017	-0.0840761
5	0x3df65497	0.12027853
6	0x3dcde806	0.100540206
7	0x3e26c435	0.16285785
8	0x3d8aa50b	0.06769761
9	0xbdb0f12e	-0.086397514
10	0x3db7e2b9	0.08978791
11	0x3e435856	0.19076666
12	0x3dbe51f1	0.09292973
13	0x3de2e1b9	0.110782094
14	0x3dc0f3cc	0.094215006
15	0x3e474c95	0.19462807
16	0x3e47d4ee	0.1951482
17	0x3e35e10e	0.17761633
18	0x3cd7af1c	0.026328616
19	0x3d2181de	0.03943049
20	0x3e3e7a71	0.18601395
21	0x3e1a9de9	0.150993
22	0x3e38c800	0.18045044
23	0x3d4c4b7d	0.04987668
24	0x3d617237	0.055040564
25	0x3d5912cb	0.052996438
26	0x3e61c9aa	0.22049585
27	0x3e4cbb1a	0.19993249
28	0x3e682e02	0.226738
29	0x3e0838a7	0.13302861
30	0x3dd3a6c0	0.103345394
31	0x3e4c3d94	0.19945365

fc1.weight f4 [64, 32]
0	0x3e0bca58	0.13651407
1	0xbe400ed7	-0.18755661
2	0x3e32c9c8	0.17459786
3	0xbcf2782f	-0.029598324
4	0xbe12dcda	-0.1434206
5	0xbe6329cb	-0.22183912
6	0xbe1ec4c5	-0.15504749
7	0x3d60ca32	0.05488033
8	0x3d0ab0a0	0.03385985
9	0xbd658943	-0.056039106
10	0xbead4317	-0.33840248
11	0xbb4a310d	-0.003085199
12	0xbd910a93	-0.07082095
13	0xbc439c80	-0.011939168
14	0xbe1cdff7	-0.15319811
15	0xbe8a1462	-0.26968676
16	0x3bfaf67e	0.0076587787
17	0x3c2aa9e4	0.010416482
18	0xbe40c042	-0.1882334
19	0xbe322769	-0.17397846
20	0xbdcb6dc1	-0.09933043
21	0x3decec47	0.11568504
22	0x3e9c31d5	0.3050677
23	0xbe4a01aa	-0.19727197
24	0xbd54dcf3	-0.051968526
25	0x3de1e4b4	0.1102995
26	0xbd9a68b2	-0.075395
27	0x3e8f0a3d	0.279375
28	0x3e63c123	0.22241645
29	0x3de843c2	0.11341049
30	0x3e99c0d5	0.30029932
31	0xbe7aa295	-0.24476083
32	0xbd22be5c	-0.039732322
33	0xbd342730	-0.043982685
34	0xbe12187c	-0.14267153
35	0x3d39ae14	0.04533203
36	0xbdc0e3d7	-0.09418457
37	0x3de6855a	0.112559035
38	0xbd56abe6	-0.05241003
39	0x3e0cec57	0.13762031
40	0xbdb15523	-0.08658817
41	0x3e0d2dcf	0.13787006
42	0x3de29656	0.110638306
43	0xbe03d64d	-0.12874718
44	0x3e0d06e9	0.13772167
45	0x3c2c3490	0.010510579
46	0x3d840b90	0.06447518
47	0xbcf59ba8	-0.02998145
48	0x3dc7ae76	0.09750073
49	0x3d84ba46	0.06480841
50	0xbd2611c0	-0.04054427
51	0xbe03f16a	-0.12885061
52	0x3daae406	0.08344273
53	0xbe07019b	-0.13184206
54	0xbd005044	-0.031326547
55	0x3d99d0a2	0.07510497
56	0xbd9f2d12	-0.07772268
57	0x3d5fc098	0.05462703
58	0xbe090d06	-0.13383874
59	0xbddd5743	-0.108076595
60	0xbe024025	-0.12719782
61	0xbca4d300	-0.020120144
62	0x3d2b7a34	0.04186459
63	0x3e0edc41	0.13951208
64	0xbe378fed	-0.17925997
65	0xbdbc60b1	-0.0919813
66	0x3daa4f2a	0.083158806
67	0x3ddfd8a9	0.109299965
68	0x3e087012	0.13324001
69	0x3de5c034	0.112183005
70	0x3d4f9255	0.050676662
71	0x3dda3b56	0.10655849
72	0x3daabc9c	0.08336756
73	0x3de84356	0.11340968
74	0x3ddddda5	0.10833291
75	0xbe3283f6	-0.17433152
76	0xbcea32f3	-0.028588748
77	0xbe355c5e	-0.17711017
78	0xbe4c7613	-0.19966917
79	0xbdc0e1f5	-0.09418098
80	0xbd26f2cf	-0.040758904
81	0x3d1f748b	0.038929503
82	0xbe371dfb	-0.1788253
83	0x3b7194cf	0.0036862378
84	0x3dd5714a	0.10421999
85	0x3d8d0e52	0.06887497
86	0xbcc94cae	-0.024572697
87	0xbd1069fe	-0.035257332
88	0xbdbc09b5	-0.09181539
89	0xbd4ea518	-0.050450414
90	0x3dca9f7d	0.09893701
91	0xbdecaf32	-0.11556853
92	0x3e12b8aa	0.14328256
93	0x3e20e88d	0.15713711
94	0x3e5e19de	0.21689555
95	0x3d45638b	0.048190635
96	0x3ea5b50d	0.32364693
97	0x3db3bff5	0.08776847
98	0x3e220da8	0.15825522
99	0x3e6f5e35	0.23375781
100	0x3e705da9	0.23473229
101	0x3e1c47de	0.1526179
102	0x3ea31079	0.31848505
103	0x3eae4bd9	0.34042242
104	0x3e8a3328	0.26992154
105	0xbe0dcbf0	-0.13847327
106	0x3e7ee3b7	0.24891554
107	0x3dc72dd5	0.09725539
108	0x3e9834bf	0.29727742
109	0x3ec63c82	0.3871804
110	0x3d586b7b	0.052836876
111	0x3e7f9bb5	0.24961741
112	0x3e95bbba	0.29244787
113	0x3dd77455	0.105202354
114	0x3ead78a0	0.33881092
115	0x3de85166	0.113436505
116	0x3e533b02	0.20627978
117	0x3eaf185a	0.34198266
118	0x3e29be2d	0.16576453
119	0x3e78f7a0	0.24313211
120	0x3df582f4	0.11987868
121	0x3e4b3fdc	0.19848579
122	0x3ec34c6a	0.38144237
123	0x3a5c9663	0.00084147434
124	0xbd68a54f	-0.056798276
125	0xbd8b099a	-0.06788941
126	0x3c235822	0.009969743
127	0x3d7ac3f2	0.061222024
128	0xbd73cf4a	-0.059523858
129	0x3d8abad9	0.067739196
130	0x3d07296a	0.03299848
131	0xbe2e58c5	-0.1702605
132	0xbe05af85	-0.13055237
133	0xbc412e3d	-0.011790809
134	0x3c128c04	0.008944515
135	0xbcabf95a	-0.020992924
136	0xbdfef74c	-0.12449512
137	0x3df2e66c	0.11860356
138	0xbe3cf245	-0.18451793
139	0xbd324c29	-0.043529663
140	0xbbb6af7e	-0.0055751195
141	0xbc9e238d	-0.019304061
142	0x3cac2810	0.021015197
143	0xbd4e7a2e	-0.05040949
144	0xbd94d2cf	-0.07266771
145	0x3e19eaef	0.15031026
146	0xbd19146e	-0.037373
147	0xbc18d940	-0.00932914
148	0x3dc26e49	0.094936915
149	0xbe332de2	-0.17497972
150	0x3e17f4ac	0.14839429
151	0x3de8436c	0.11340985
152	0x3dc698ff	0.096971504
153	0x3e1334ed	0.14375658
154	0xbd0bfaa7	-0.034174588
155	0xbe3986a5	-0.18117769
156	0xbd93c1e5	-0.07214717
157	0x3dacc926	0.084368035
158	0x3c058b90	0.00815095
159	0x3defa2f3	0.11701002
160	0x3e3f7b41	0.18699361
161	0x3e90c1ed	0.28272954
162	0x3d1425e4	0.036168948
163	0x3d367c1f	0.044551965
164	0xbd5df101	-0.054184917
165	0x3e9a9e26	0.30198783
166	0x3e8ac144	0.27100575
167	0x3e8ce2c4	0.27516758
168	0x3d09b6c3	0.03362156
169	0xbdb096e2	-0.086225286
170	0x3e785abc	0.24253362
171	0x3e8af16c	0.27137315
172	0x3e8042cb	0.2505096
173	0x3dccf92c	0.10008463
174	0x3d2c5e1e	0.042081945
175	0x3e230ee0	0.15923643
176	0x3e478636	0.19484791
177	0x3e862d23	0.26206312
178	0x3e952c84	0.29135525
179	0x3d1bd5bb	0.038045626
180	0x3e4d6cb1	0.20060994
181	0x3e7ce608	0.24697125
182	0x3e0088b7	0.12552153
183	0x3e1d6144	0.15369135
184	0x3e603a48	0.21897233
185	0x3d9ba1db	0.07599231
186	0xbd2ae090	-0.041718066
187	0xbd2f0eab	-0.042738598
188	0x3d431736	0.047629558
189	0xbdcb594c	-0.099291414
190	0xbd5e39d1	-0.054254357
191	0x3dce0fed	0.10061631
192	0x3dd98bb9	0.10622353
193	0xbe2861c8	-0.1644355
194	0xbdb6a290	-0.08917725
195	0xbe07064a	-0.13185993
196	0xbe12901a	-0.14312783
197	0xbdf8d984	-0.12150863
198	0xbe29a240	-0.165658
199	0xbde8c786	-0.11366181
200	0xbd02cb5e	-0.031932227
201	0xbd35456c	-0.04425566
202	0xbda7f6f4	-0.082013994
203	0xbe25faac	-0.16208905
204	0xbe30290e	-0.17203161
205	0xbbfa58e7	-0.0076399925
206	0xbdab34e6	-0.08359699
207	0x3db7d81e	0.08976768
208	0x3a7eff00	0.0009727329
209	0xbe1580bd	-0.14599891
210	0x3e0add4f	0.13560985
211	0x3db19c0e	0.08672343
212	0x3d681b5c	0.056666717
213	0xbd74752a	-0.05968205
214	0x3d73a6cb	0.059485238
215	0xbce0fbf8	-0.027463898
216	0xbde60c97	-0.1123287
217	0xbd7f218e	-0.06228786
218	0x3e23f917	0.16012989
219	0x3cfaa133	0.030594444
220	0x3dcc57ca	0.09977682
221	0x3dc41a84	0.0957537
222	0xbe1c0221	-0.15235187
223	0xbe0f9e16	-0.14025149
224	0x3e2379da	0.15964451
225	0x3cd7e0f0	0.026352376
226	0x3d8c8d7c	0.068629235
227	0xbe12bc3c	-0.14329618
228	0xbdcd553c	-0.10026023
229	0x3e0cf5e9	0.13765682
230	0xbdefa0da	-0.11700602
231	0x3e12012d	0.14258261
232	0xbb82adfd	-0.003988026
233	0xbd013328	-0.031542927
234	0x3d469423	0.048481118
235	0xbe35b442	-0.17744544
236	0xbe2febe0	-0.17179823
237	0x3ca3aa40	0.019978642
238	0xbe186202	-0.14881137
239	0x3d16074c	0.036628053
240	0x3d0b9214	0.034074858
241	0x3d3f3bf5	0.04668804
242	0xbdae0fc1	-0.084990986
243	0x3de7973e	0.11308144
244	0xbe067d81	-0.13133813
245	0xbda9b8ba	-0.08287187
246	0x3dc7be8b	0.0975314
247	0xbd8fb7db	-0.070174895
248	0xbdb10d0e	-0.08645068
249	0xbe0ebe80	-0.13939857
250	0x3e2e9531	0.170491
251	0xbdd22e4d	-0.102627374
252	0xbda2c2c0	-0.07947302
253	0x3db5fb8f	0.088858716
254	0x3db4a2e2	0.0882013
255	0x3d8d0c28	0.06887084

fc1.bias f4 [64]
0	0x3d886020	0.066589594
1	0xbdc96163	-0.09833028
2	0x3dd5e409	0.10443885
3	0x3c171c62	0.009223076
4	0xbe07fd68	-0.1328026
5	0xbc8043ae	-0.015657272
6	0xbe40efc4	-0.18841463
7	0xbe25a1ae	-0.16174957
8	0x3de8c05c	0.11364815
9	0xbd0aa767	-0.033851054
10	0xbda5c6fb	-0.08094593
11	0x3d139002	0.03602601
12	0x3dbf2eec	0.093351215
13	0xbdfb4eaf	-0.12270867
14	0x3df5dd9e	0.12005161
15	0x3dbe4a89	0.0929156
16	0x3dac9d28	0.08428413
17	0xbd716b89	-0.058940444
18	0x3c9e0ce3	0.019293254
19	0x3d998853	0.07496705
20	0x3e09b7c0	0.13449001
21	0x3e35e4fd	0.17763133
22	0x3e5b2e39	0.21404351
23	0x3e58507d	0.21124454
24	0xbbc2f7e2	-0.00594996
25	0x3e2241cd	0.15845414
26	0x3e039275	0.12848838
27	0x3e3711c0	0.17877865
28	0x3d6425f9	0.055700276
29	0x3db56ffe	0.088592514
30	0x3cfaf362	0.030633632
31	0x3dc54a14	0.0963327
32	0x3d8a1ee1	0.06744171
33	0x3d5df7a1	0.054191235
34	0xbd9a3a58	-0.075306594
35	0xbdf90d5e	-0.12160753
36	0xbe14aa3d	-0.14518066
37	0x3da7bb74	0.08190051
38	0x3dec2b7a	0.1153173
39	0x3e52b6e6	0.20577583
40	0xbdb53987	-0.08848863
41	0x3e02abe4	0.12760884
42	0xbcd6caf8	-0.02621983
43	0x3e6ecef0	0.23321128
44	0xbd69e260	-0.057100654
45	0xbd9a430d	-0.0753232
46	0xbdf123a4	-0.11774376
47	0xbc814afb	-0.015782824
48	0x3dc3f818	0.095688045
49	0x3dd01261	0.101597555
50	0xbcc31395	-0.023813048
51	0xbe00ad1b	-0.12566034
52	0x3e49c603	0.19704442
53	0x3e2cf481	0.16890146
54	0xbda437d1	-0.08018459
55	0x3e446cb7	0.19182096
56	0xbd88a016	-0.06671159
57	0xbdd54757	-0.104139976
58	0x3d82e74f	0.06391775
59	0xbdc1ff72	-0.094725505
60	0x3d1d8dc1	0.038465265
61	0x3db5102a	0.08840974
62	0x3d6077dd	0.05480181
63	0x3d1411d4	0.036149815

fc2.weight f4 [1, 64]
0	0x3eb5a1eb	0.35475096
1	0x3c08b880	0.0083447695
2	0x3da33409	0.07968909
3	0xbed2d9a5	-0.41181675
4	0x3d70a83a	0.058754183
5	0xbe33f811	-0.17575099
6	0xbcff6743	-0.031177169
7	0xbd8fe365	-0.07025794
8	0xbe208aec	-0.15677994
9	0xbe49e39e	-0.19715735
10	0xbd6a8868	-0.057258993
11	0x3ea18a07	0.3155062
12	0x3e25f87a	0.16208068
13	0x3da780ca	0.081788614
14	0x3dc2c890	0.095109105
15	0x3d950e4a	0.07278116
16	0x3de7aafd	0.1131191
17	0xbaf49f9c	-0.001866329
18	0x3ec75660	0.38933086
19	0x3e0501fc	0.12989038
20	0xbe162275	-0.14661582
21	0xbe4e1996	-0.20126948
22	0xbe453793	-0.19259481
23	0xbe134e3e	-0.14385316
24	0xbe8bd010	-0.27307177
25	0xbe426c7c	-0.18986696
26	0x3eca283c	0.3948382
27	0xbe115aed	-0.14194842
28	0xbe549b42	-0.20762351
29	0xbdffad81	-0.12484265
30	0xbbc63bba	-0.0060496004
31	0x3eb1e491	0.34744695
32	0x3e98a9ee	0.29817146
33	0x3e1d10e4	0.15338475
34	0x3cd35848	0.025798932
35	0x3dac2f88	0.08407503
36	0x3d26d34c	0.040728852
37	0xbe1e8de5	-0.15483816
38	0x3e1c8534	0.15285188
39	0x3e81f7a3	0.25384244
40	0xbd9144b0	-0.07093179
41	0x3ef88d68	0.48545384
42	0x3d0d96f4	0.03456779
43	0xbe26e49b	-0.16298144
44	0x3c6923c0	0.014229715
45	0xbe788031	-0.24267651
46	0xbc9b8052	-0.018982086
47	0xbe3af142	-0.18256095
48	0xbe2e5bce	-0.17027208
49	0xbe36d684	-0.17855269
50	0xbd3ecb2e	-0.046580486
51	0x3cb24fe1	0.021766605
52	0xbde7d5dc	-0.11320087
53	0xbe48fb4c	-0.19627112
54	0x3cff6000	0.031173706
55	0xbe2526d0	-0.16128087
56	0xbd8eeeca	-0.06979139
57	0x394aa83b	0.00019326892
58	0xbe566c28	-0.20939696
59	0x3cdb5f35	0.026778797
60	0x3e955c5a	0.2917202
61	0xbe3f500d	-0.1868288
62	0x3e9d71ae	0.30750793
63	0x3eb6ed76	0.35728043
